{"modelTopology": {"versions": {"producer": 134}, "node": [{"op": "Placeholder", "name": "image_tensor", "attr": {"dtype": {"type": "DT_UINT8"}, "shape": {"shape": {"dim": [{"size": "-1"}, {"size": "-1"}, {"size": "-1"}, {"size": "3"}]}}}}, {"op": "Const", "name": "BatchMultiClassNonMaxSuppression/map/Const", "attr": {"dtype": {"type": "DT_INT32"}, "value": {"tensor": {"dtype": "DT_INT32", "tensorShape": {}}}}}, {"op": "Const", "name": "Conv/weights", "attr": {"dtype": {"type": "DT_FLOAT"}, "value": {"tensor": {"dtype": "DT_FLOAT", "tensorShape": {"dim": [{"size": "3"}, {"size": "3"}, {"size": "576"}, {"size": "512"}]}}}}}, {"op": "Const", "name": "Conv/biases", "attr": {"dtype": {"type": "DT_FLOAT"}, "value": {"tensor": {"dtype": "DT_FLOAT", "tensorShape": {"dim": [{"size": "512"}]}}}}}, {"op": "Const", "name": "FirstStageBoxPredictor/ClassPredictor/weights", "attr": {"dtype": {"type": "DT_FLOAT"}, "value": {"tensor": {"dtype": "DT_FLOAT", "tensorShape": {"dim": [{"size": "1"}, {"size": "1"}, {"size": "512"}, {"size": "24"}]}}}}}, {"op": "Const", "name": "FirstStageBoxPredictor/ClassPredictor/biases", "attr": {"dtype": {"type": "DT_FLOAT"}, "value": {"tensor": {"dtype": "DT_FLOAT", "tensorShape": {"dim": [{"size": "24"}]}}}}}, {"op": "Const", "name": "FirstStageBoxPredictor/strided_slice_1/stack", "attr": {"dtype": {"type": "DT_INT32"}, "value": {"tensor": {"dtype": "DT_INT32", "tensorShape": {"dim": [{"size": "1"}]}}}}}, {"op": "Const", "name": "FirstStageBoxPredictor/strided_slice_1/stack_1", "attr": {"dtype": {"type": "DT_INT32"}, "value": {"tensor": {"dtype": "DT_INT32", "tensorShape": {"dim": [{"size": "1"}]}}}}}, {"op": "Const", "name": "FirstStageBoxPredictor/Reshape_1/shape/1", "attr": {"dtype": {"type": "DT_INT32"}, "value": {"tensor": {"dtype": "DT_INT32", "tensorShape": {}}}}}, {"op": "Const", "name": "FirstStageBoxPredictor/Reshape_1/shape/2", "attr": {"dtype": {"type": "DT_INT32"}, "value": {"tensor": {"dtype": "DT_INT32", "tensorShape": {}}}}}, {"op": "Const", "name": "strided_slice_10/stack", "attr": {"dtype": {"type": "DT_INT32"}, "value": {"tensor": {"dtype": "DT_INT32", "tensorShape": {"dim": [{"size": "3"}]}}}}}, {"op": "Const", "name": "strided_slice_10/stack_1", "attr": {"dtype": {"type": "DT_INT32"}, "value": {"tensor": {"dtype": "DT_INT32", "tensorShape": {"dim": [{"size": "3"}]}}}}}, {"op": "Const", "name": "strided_slice_10/stack_2", "attr": {"dtype": {"type": "DT_INT32"}, "value": {"tensor": {"dtype": "DT_INT32", "tensorShape": {"dim": [{"size": "3"}]}}}}}, {"op": "Const", "name": "BatchMultiClassNonMaxSuppression/map/TensorArrayUnstack_1/range/delta", "attr": {"dtype": {"type": "DT_INT32"}, "value": {"tensor": {"dtype": "DT_INT32", "tensorShape": {}}}}}, {"op": "Const", "name": "BatchMultiClassNonMaxSuppression/strided_slice_1/stack_1", "attr": {"dtype": {"type": "DT_INT32"}, "value": {"tensor": {"dtype": "DT_INT32", "tensorShape": {"dim": [{"size": "1"}]}}}}}, {"op": "Const", "name": "strided_slice_11/stack", "attr": {"dtype": {"type": "DT_INT32"}, "value": {"tensor": {"dtype": "DT_INT32", "tensorShape": {"dim": [{"size": "2"}]}}}}}, {"op": "Const", "name": "strided_slice_11/stack_1", "attr": {"dtype": {"type": "DT_INT32"}, "value": {"tensor": {"dtype": "DT_INT32", "tensorShape": {"dim": [{"size": "2"}]}}}}}, {"op": "Const", "name": "strided_slice_11/stack_2", "attr": {"dtype": {"type": "DT_INT32"}, "value": {"tensor": {"dtype": "DT_INT32", "tensorShape": {"dim": [{"size": "2"}]}}}}}, {"op": "Const", "name": "strided_slice_12/stack_1", "attr": {"dtype": {"type": "DT_INT32"}, "value": {"tensor": {"dtype": "DT_INT32", "tensorShape": {"dim": [{"size": "2"}]}}}}}, {"op": "Const", "name": "FirstStageBoxPredictor/BoxEncodingPredictor/weights", "attr": {"dtype": {"type": "DT_FLOAT"}, "value": {"tensor": {"dtype": "DT_FLOAT", "tensorShape": {"dim": [{"size": "1"}, {"size": "1"}, {"size": "512"}, {"size": "48"}]}}}}}, {"op": "Const", "name": "FirstStageBoxPredictor/BoxEncodingPredictor/biases", "attr": {"dtype": {"type": "DT_FLOAT"}, "value": {"tensor": {"dtype": "DT_FLOAT", "tensorShape": {"dim": [{"size": "48"}]}}}}}, {"op": "Const", "name": "FirstStageBoxPredictor/Reshape/shape/3", "attr": {"dtype": {"type": "DT_INT32"}, "value": {"tensor": {"dtype": "DT_INT32", "tensorShape": {}}}}}, {"op": "Const", "name": "Reshape_1/shape", "attr": {"dtype": {"type": "DT_INT32"}, "value": {"tensor": {"dtype": "DT_INT32", "tensorShape": {"dim": [{"size": "2"}]}}}}}, {"op": "Const", "name": "Decode/transpose/perm", "attr": {"dtype": {"type": "DT_INT32"}, "value": {"tensor": {"dtype": "DT_INT32", "tensorShape": {"dim": [{"size": "2"}]}}}}}, {"op": "Const", "name": "strided_slice_1/stack_1", "attr": {"dtype": {"type": "DT_INT32"}, "value": {"tensor": {"dtype": "DT_INT32", "tensorShape": {"dim": [{"size": "1"}]}}}}}, {"op": "Const", "name": "GridAnchorGenerator/strided_slice_2", "attr": {"dtype": {"type": "DT_FLOAT"}, "value": {"tensor": {"dtype": "DT_FLOAT", "tensorShape": {}}}}}, {"op": "Const", "name": "GridAnchorGenerator/strided_slice_3", "attr": {"dtype": {"type": "DT_FLOAT"}, "value": {"tensor": {"dtype": "DT_FLOAT", "tensorShape": {}}}}}, {"op": "Const", "name": "GridAnchorGenerator/Meshgrid_1/ExpandedShape_1/Slice_1/size", "attr": {"dtype": {"type": "DT_INT32"}, "value": {"tensor": {"dtype": "DT_INT32", "tensorShape": {"dim": [{"size": "1"}]}}}}}, {"op": "Const", "name": "GridAnchorGenerator/Meshgrid_3/ExpandedShape/concat", "attr": {"dtype": {"type": "DT_INT32"}, "value": {"tensor": {"dtype": "DT_INT32", "tensorShape": {"dim": [{"size": "3"}]}}}}}, {"op": "Const", "name": "GridAnchorGenerator/Reshape_2/shape", "attr": {"dtype": {"type": "DT_INT32"}, "value": {"tensor": {"dtype": "DT_INT32", "tensorShape": {"dim": [{"size": "2"}]}}}}}, {"op": "Const", "name": "GridAnchorGenerator/mul_5/x", "attr": {"dtype": {"type": "DT_FLOAT"}, "value": {"tensor": {"dtype": "DT_FLOAT", "tensorShape": {}}}}}, {"op": "Const", "name": "GridAnchorGenerator/Meshgrid_3/Reshape", "attr": {"dtype": {"type": "DT_FLOAT"}, "value": {"tensor": {"dtype": "DT_FLOAT", "tensorShape": {"dim": [{"size": "1"}, {"size": "1"}, {"size": "12"}]}}}}}, {"op": "Const", "name": "GridAnchorGenerator/Meshgrid_2/Reshape", "attr": {"dtype": {"type": "DT_FLOAT"}, "value": {"tensor": {"dtype": "DT_FLOAT", "tensorShape": {"dim": [{"size": "1"}, {"size": "1"}, {"size": "12"}]}}}}}, {"op": "Const", "name": "SecondStagePostprocessor/Slice/size", "attr": {"dtype": {"type": "DT_INT32"}, "value": {"tensor": {"dtype": "DT_INT32", "tensorShape": {"dim": [{"size": "3"}]}}}}}, {"op": "Const", "name": "Preprocessor/mul/x", "attr": {"dtype": {"type": "DT_FLOAT"}, "value": {"tensor": {"dtype": "DT_FLOAT", "tensorShape": {}}}}}, {"op": "Const", "name": "Preprocessor/sub/y", "attr": {"dtype": {"type": "DT_FLOAT"}, "value": {"tensor": {"dtype": "DT_FLOAT", "tensorShape": {}}}}}, {"op": "Const", "name": "FirstStageFeatureExtractor/InceptionV2/Conv2d_1a_7x7/depthwise_weights", "attr": {"dtype": {"type": "DT_FLOAT"}, "value": {"tensor": {"dtype": "DT_FLOAT", "tensorShape": {"dim": [{"size": "7"}, {"size": "7"}, {"size": "3"}, {"size": "8"}]}}}}}, {"op": "Const", "name": "SecondStageBoxPredictor/AvgPool_1/reduction_indices", "attr": {"dtype": {"type": "DT_INT32"}, "value": {"tensor": {"dtype": "DT_INT32", "tensorShape": {"dim": [{"size": "2"}]}}}}}, {"op": "Const", "name": "SecondStageBoxPredictor/ClassPredictor/weights", "attr": {"dtype": {"type": "DT_FLOAT"}, "value": {"tensor": {"dtype": "DT_FLOAT", "tensorShape": {"dim": [{"size": "1024"}, {"size": "2"}]}}}}}, {"op": "Const", "name": "SecondStageBoxPredictor/ClassPredictor/biases", "attr": {"dtype": {"type": "DT_FLOAT"}, "value": {"tensor": {"dtype": "DT_FLOAT", "tensorShape": {"dim": [{"size": "2"}]}}}}}, {"op": "Const", "name": "SecondStageBoxPredictor/Reshape_1/shape", "attr": {"dtype": {"type": "DT_INT32"}, "value": {"tensor": {"dtype": "DT_INT32", "tensorShape": {"dim": [{"size": "3"}]}}}}}, {"op": "Const", "name": "SecondStagePostprocessor/Reshape_1/shape", "attr": {"dtype": {"type": "DT_INT32"}, "value": {"tensor": {"dtype": "DT_INT32", "tensorShape": {"dim": [{"size": "3"}]}}}}}, {"op": "Const", "name": "SecondStageBoxPredictor/BoxEncodingPredictor/weights", "attr": {"dtype": {"type": "DT_FLOAT"}, "value": {"tensor": {"dtype": "DT_FLOAT", "tensorShape": {"dim": [{"size": "1024"}, {"size": "4"}]}}}}}, {"op": "Const", "name": "SecondStageBoxPredictor/BoxEncodingPredictor/biases", "attr": {"dtype": {"type": "DT_FLOAT"}, "value": {"tensor": {"dtype": "DT_FLOAT", "tensorShape": {"dim": [{"size": "4"}]}}}}}, {"op": "Const", "name": "SecondStageBoxPredictor/Reshape/shape", "attr": {"dtype": {"type": "DT_INT32"}, "value": {"tensor": {"dtype": "DT_INT32", "tensorShape": {"dim": [{"size": "4"}]}}}}}, {"op": "Const", "name": "SecondStagePostprocessor/Reshape/shape", "attr": {"dtype": {"type": "DT_INT32"}, "value": {"tensor": {"dtype": "DT_INT32", "tensorShape": {"dim": [{"size": "4"}]}}}}}, {"op": "Const", "name": "SecondStagePostprocessor/stack/1", "attr": {"dtype": {"type": "DT_INT32"}, "value": {"tensor": {"dtype": "DT_INT32", "tensorShape": {}}}}}, {"op": "Const", "name": "CropAndResize/CropAndResize/crop_size", "attr": {"dtype": {"type": "DT_INT32"}, "value": {"tensor": {"dtype": "DT_INT32", "tensorShape": {"dim": [{"size": "2"}]}}}}}, {"op": "Const", "name": "SecondStageFeatureExtractor/InceptionV2/Mixed_5a/concat/axis", "attr": {"dtype": {"type": "DT_INT32"}, "value": {"tensor": {"dtype": "DT_INT32", "tensorShape": {}}}}}, {"op": "Const", "name": "ConstantFolding/Decode/truediv_recip", "attr": {"dtype": {"type": "DT_FLOAT"}, "value": {"tensor": {"dtype": "DT_FLOAT", "tensorShape": {}}}}}, {"op": "Const", "name": "ConstantFolding/Decode/truediv_2_recip", "attr": {"dtype": {"type": "DT_FLOAT"}, "value": {"tensor": {"dtype": "DT_FLOAT", "tensorShape": {}}}}}, {"op": "Const", "name": "FirstStageFeatureExtractor/InceptionV2/InceptionV2/Conv2d_1a_7x7/separable_conv2d_weights", "attr": {"dtype": {"type": "DT_FLOAT"}, "value": {"tensor": {"dtype": "DT_FLOAT", "tensorShape": {"dim": [{"size": "1"}, {"size": "1"}, {"size": "24"}, {"size": "64"}]}}}}}, {"op": "Const", "name": "FirstStageFeatureExtractor/InceptionV2/InceptionV2/Conv2d_1a_7x7/separable_conv2d_bn_offset", "attr": {"dtype": {"type": "DT_FLOAT"}, "value": {"tensor": {"dtype": "DT_FLOAT", "tensorShape": {"dim": [{"size": "64"}]}}}}}, {"op": "Const", "name": "FirstStageFeatureExtractor/InceptionV2/InceptionV2/Conv2d_2b_1x1/Conv2D_weights", "attr": {"dtype": {"type": "DT_FLOAT"}, "value": {"tensor": {"dtype": "DT_FLOAT", "tensorShape": {"dim": [{"size": "1"}, {"size": "1"}, {"size": "64"}, {"size": "64"}]}}}}}, {"op": "Const", "name": "FirstStageFeatureExtractor/InceptionV2/InceptionV2/Conv2d_2b_1x1/Conv2D_bn_offset", "attr": {"dtype": {"type": "DT_FLOAT"}, "value": {"tensor": {"dtype": "DT_FLOAT", "tensorShape": {"dim": [{"size": "64"}]}}}}}, {"op": "Const", "name": "FirstStageFeatureExtractor/InceptionV2/InceptionV2/Conv2d_2c_3x3/Conv2D_weights", "attr": {"dtype": {"type": "DT_FLOAT"}, "value": {"tensor": {"dtype": "DT_FLOAT", "tensorShape": {"dim": [{"size": "3"}, {"size": "3"}, {"size": "64"}, {"size": "192"}]}}}}}, {"op": "Const", "name": "FirstStageFeatureExtractor/InceptionV2/InceptionV2/Conv2d_2c_3x3/Conv2D_bn_offset", "attr": {"dtype": {"type": "DT_FLOAT"}, "value": {"tensor": {"dtype": "DT_FLOAT", "tensorShape": {"dim": [{"size": "192"}]}}}}}, {"op": "Const", "name": "FirstStageFeatureExtractor/InceptionV2/InceptionV2/Mixed_3b/Branch_0/Conv2d_0a_1x1/Conv2D_weights", "attr": {"dtype": {"type": "DT_FLOAT"}, "value": {"tensor": {"dtype": "DT_FLOAT", "tensorShape": {"dim": [{"size": "1"}, {"size": "1"}, {"size": "192"}, {"size": "64"}]}}}}}, {"op": "Const", "name": "FirstStageFeatureExtractor/InceptionV2/InceptionV2/Mixed_3b/Branch_0/Conv2d_0a_1x1/Conv2D_bn_offset", "attr": {"dtype": {"type": "DT_FLOAT"}, "value": {"tensor": {"dtype": "DT_FLOAT", "tensorShape": {"dim": [{"size": "64"}]}}}}}, {"op": "Const", "name": "FirstStageFeatureExtractor/InceptionV2/InceptionV2/Mixed_3b/Branch_1/Conv2d_0a_1x1/Conv2D_weights", "attr": {"dtype": {"type": "DT_FLOAT"}, "value": {"tensor": {"dtype": "DT_FLOAT", "tensorShape": {"dim": [{"size": "1"}, {"size": "1"}, {"size": "192"}, {"size": "64"}]}}}}}, {"op": "Const", "name": "FirstStageFeatureExtractor/InceptionV2/InceptionV2/Mixed_3b/Branch_1/Conv2d_0a_1x1/Conv2D_bn_offset", "attr": {"dtype": {"type": "DT_FLOAT"}, "value": {"tensor": {"dtype": "DT_FLOAT", "tensorShape": {"dim": [{"size": "64"}]}}}}}, {"op": "Const", "name": "FirstStageFeatureExtractor/InceptionV2/InceptionV2/Mixed_3b/Branch_2/Conv2d_0a_1x1/Conv2D_weights", "attr": {"dtype": {"type": "DT_FLOAT"}, "value": {"tensor": {"dtype": "DT_FLOAT", "tensorShape": {"dim": [{"size": "1"}, {"size": "1"}, {"size": "192"}, {"size": "64"}]}}}}}, {"op": "Const", "name": "FirstStageFeatureExtractor/InceptionV2/InceptionV2/Mixed_3b/Branch_2/Conv2d_0a_1x1/Conv2D_bn_offset", "attr": {"dtype": {"type": "DT_FLOAT"}, "value": {"tensor": {"dtype": "DT_FLOAT", "tensorShape": {"dim": [{"size": "64"}]}}}}}, {"op": "Const", "name": "FirstStageFeatureExtractor/InceptionV2/InceptionV2/Mixed_3b/Branch_3/Conv2d_0b_1x1/Conv2D_weights", "attr": {"dtype": {"type": "DT_FLOAT"}, "value": {"tensor": {"dtype": "DT_FLOAT", "tensorShape": {"dim": [{"size": "1"}, {"size": "1"}, {"size": "192"}, {"size": "32"}]}}}}}, {"op": "Const", "name": "FirstStageFeatureExtractor/InceptionV2/InceptionV2/Mixed_3b/Branch_3/Conv2d_0b_1x1/Conv2D_bn_offset", "attr": {"dtype": {"type": "DT_FLOAT"}, "value": {"tensor": {"dtype": "DT_FLOAT", "tensorShape": {"dim": [{"size": "32"}]}}}}}, {"op": "Const", "name": "FirstStageFeatureExtractor/InceptionV2/InceptionV2/Mixed_3b/Branch_1/Conv2d_0b_3x3/Conv2D_weights", "attr": {"dtype": {"type": "DT_FLOAT"}, "value": {"tensor": {"dtype": "DT_FLOAT", "tensorShape": {"dim": [{"size": "3"}, {"size": "3"}, {"size": "64"}, {"size": "64"}]}}}}}, {"op": "Const", "name": "FirstStageFeatureExtractor/InceptionV2/InceptionV2/Mixed_3b/Branch_1/Conv2d_0b_3x3/Conv2D_bn_offset", "attr": {"dtype": {"type": "DT_FLOAT"}, "value": {"tensor": {"dtype": "DT_FLOAT", "tensorShape": {"dim": [{"size": "64"}]}}}}}, {"op": "Const", "name": "FirstStageFeatureExtractor/InceptionV2/InceptionV2/Mixed_3b/Branch_2/Conv2d_0b_3x3/Conv2D_weights", "attr": {"dtype": {"type": "DT_FLOAT"}, "value": {"tensor": {"dtype": "DT_FLOAT", "tensorShape": {"dim": [{"size": "3"}, {"size": "3"}, {"size": "64"}, {"size": "96"}]}}}}}, {"op": "Const", "name": "FirstStageFeatureExtractor/InceptionV2/InceptionV2/Mixed_3b/Branch_2/Conv2d_0b_3x3/Conv2D_bn_offset", "attr": {"dtype": {"type": "DT_FLOAT"}, "value": {"tensor": {"dtype": "DT_FLOAT", "tensorShape": {"dim": [{"size": "96"}]}}}}}, {"op": "Const", "name": "FirstStageFeatureExtractor/InceptionV2/InceptionV2/Mixed_3b/Branch_2/Conv2d_0c_3x3/Conv2D_weights", "attr": {"dtype": {"type": "DT_FLOAT"}, "value": {"tensor": {"dtype": "DT_FLOAT", "tensorShape": {"dim": [{"size": "3"}, {"size": "3"}, {"size": "96"}, {"size": "96"}]}}}}}, {"op": "Const", "name": "FirstStageFeatureExtractor/InceptionV2/InceptionV2/Mixed_3b/Branch_2/Conv2d_0c_3x3/Conv2D_bn_offset", "attr": {"dtype": {"type": "DT_FLOAT"}, "value": {"tensor": {"dtype": "DT_FLOAT", "tensorShape": {"dim": [{"size": "96"}]}}}}}, {"op": "Const", "name": "FirstStageFeatureExtractor/InceptionV2/InceptionV2/Mixed_3c/Branch_0/Conv2d_0a_1x1/Conv2D_weights", "attr": {"dtype": {"type": "DT_FLOAT"}, "value": {"tensor": {"dtype": "DT_FLOAT", "tensorShape": {"dim": [{"size": "1"}, {"size": "1"}, {"size": "256"}, {"size": "64"}]}}}}}, {"op": "Const", "name": "FirstStageFeatureExtractor/InceptionV2/InceptionV2/Mixed_3c/Branch_0/Conv2d_0a_1x1/Conv2D_bn_offset", "attr": {"dtype": {"type": "DT_FLOAT"}, "value": {"tensor": {"dtype": "DT_FLOAT", "tensorShape": {"dim": [{"size": "64"}]}}}}}, {"op": "Const", "name": "FirstStageFeatureExtractor/InceptionV2/InceptionV2/Mixed_3c/Branch_1/Conv2d_0a_1x1/Conv2D_weights", "attr": {"dtype": {"type": "DT_FLOAT"}, "value": {"tensor": {"dtype": "DT_FLOAT", "tensorShape": {"dim": [{"size": "1"}, {"size": "1"}, {"size": "256"}, {"size": "64"}]}}}}}, {"op": "Const", "name": "FirstStageFeatureExtractor/InceptionV2/InceptionV2/Mixed_3c/Branch_1/Conv2d_0a_1x1/Conv2D_bn_offset", "attr": {"dtype": {"type": "DT_FLOAT"}, "value": {"tensor": {"dtype": "DT_FLOAT", "tensorShape": {"dim": [{"size": "64"}]}}}}}, {"op": "Const", "name": "FirstStageFeatureExtractor/InceptionV2/InceptionV2/Mixed_3c/Branch_2/Conv2d_0a_1x1/Conv2D_weights", "attr": {"dtype": {"type": "DT_FLOAT"}, "value": {"tensor": {"dtype": "DT_FLOAT", "tensorShape": {"dim": [{"size": "1"}, {"size": "1"}, {"size": "256"}, {"size": "64"}]}}}}}, {"op": "Const", "name": "FirstStageFeatureExtractor/InceptionV2/InceptionV2/Mixed_3c/Branch_2/Conv2d_0a_1x1/Conv2D_bn_offset", "attr": {"dtype": {"type": "DT_FLOAT"}, "value": {"tensor": {"dtype": "DT_FLOAT", "tensorShape": {"dim": [{"size": "64"}]}}}}}, {"op": "Const", "name": "FirstStageFeatureExtractor/InceptionV2/InceptionV2/Mixed_3c/Branch_3/Conv2d_0b_1x1/Conv2D_weights", "attr": {"dtype": {"type": "DT_FLOAT"}, "value": {"tensor": {"dtype": "DT_FLOAT", "tensorShape": {"dim": [{"size": "1"}, {"size": "1"}, {"size": "256"}, {"size": "64"}]}}}}}, {"op": "Const", "name": "FirstStageFeatureExtractor/InceptionV2/InceptionV2/Mixed_3c/Branch_3/Conv2d_0b_1x1/Conv2D_bn_offset", "attr": {"dtype": {"type": "DT_FLOAT"}, "value": {"tensor": {"dtype": "DT_FLOAT", "tensorShape": {"dim": [{"size": "64"}]}}}}}, {"op": "Const", "name": "FirstStageFeatureExtractor/InceptionV2/InceptionV2/Mixed_3c/Branch_1/Conv2d_0b_3x3/Conv2D_weights", "attr": {"dtype": {"type": "DT_FLOAT"}, "value": {"tensor": {"dtype": "DT_FLOAT", "tensorShape": {"dim": [{"size": "3"}, {"size": "3"}, {"size": "64"}, {"size": "96"}]}}}}}, {"op": "Const", "name": "FirstStageFeatureExtractor/InceptionV2/InceptionV2/Mixed_3c/Branch_1/Conv2d_0b_3x3/Conv2D_bn_offset", "attr": {"dtype": {"type": "DT_FLOAT"}, "value": {"tensor": {"dtype": "DT_FLOAT", "tensorShape": {"dim": [{"size": "96"}]}}}}}, {"op": "Const", "name": "FirstStageFeatureExtractor/InceptionV2/InceptionV2/Mixed_3c/Branch_2/Conv2d_0b_3x3/Conv2D_weights", "attr": {"dtype": {"type": "DT_FLOAT"}, "value": {"tensor": {"dtype": "DT_FLOAT", "tensorShape": {"dim": [{"size": "3"}, {"size": "3"}, {"size": "64"}, {"size": "96"}]}}}}}, {"op": "Const", "name": "FirstStageFeatureExtractor/InceptionV2/InceptionV2/Mixed_3c/Branch_2/Conv2d_0b_3x3/Conv2D_bn_offset", "attr": {"dtype": {"type": "DT_FLOAT"}, "value": {"tensor": {"dtype": "DT_FLOAT", "tensorShape": {"dim": [{"size": "96"}]}}}}}, {"op": "Const", "name": "FirstStageFeatureExtractor/InceptionV2/InceptionV2/Mixed_3c/Branch_2/Conv2d_0c_3x3/Conv2D_weights", "attr": {"dtype": {"type": "DT_FLOAT"}, "value": {"tensor": {"dtype": "DT_FLOAT", "tensorShape": {"dim": [{"size": "3"}, {"size": "3"}, {"size": "96"}, {"size": "96"}]}}}}}, {"op": "Const", "name": "FirstStageFeatureExtractor/InceptionV2/InceptionV2/Mixed_3c/Branch_2/Conv2d_0c_3x3/Conv2D_bn_offset", "attr": {"dtype": {"type": "DT_FLOAT"}, "value": {"tensor": {"dtype": "DT_FLOAT", "tensorShape": {"dim": [{"size": "96"}]}}}}}, {"op": "Const", "name": "FirstStageFeatureExtractor/InceptionV2/InceptionV2/Mixed_4a/Branch_0/Conv2d_0a_1x1/Conv2D_weights", "attr": {"dtype": {"type": "DT_FLOAT"}, "value": {"tensor": {"dtype": "DT_FLOAT", "tensorShape": {"dim": [{"size": "1"}, {"size": "1"}, {"size": "320"}, {"size": "128"}]}}}}}, {"op": "Const", "name": "FirstStageFeatureExtractor/InceptionV2/InceptionV2/Mixed_4a/Branch_0/Conv2d_0a_1x1/Conv2D_bn_offset", "attr": {"dtype": {"type": "DT_FLOAT"}, "value": {"tensor": {"dtype": "DT_FLOAT", "tensorShape": {"dim": [{"size": "128"}]}}}}}, {"op": "Const", "name": "FirstStageFeatureExtractor/InceptionV2/InceptionV2/Mixed_4a/Branch_1/Conv2d_0a_1x1/Conv2D_weights", "attr": {"dtype": {"type": "DT_FLOAT"}, "value": {"tensor": {"dtype": "DT_FLOAT", "tensorShape": {"dim": [{"size": "1"}, {"size": "1"}, {"size": "320"}, {"size": "64"}]}}}}}, {"op": "Const", "name": "FirstStageFeatureExtractor/InceptionV2/InceptionV2/Mixed_4a/Branch_1/Conv2d_0a_1x1/Conv2D_bn_offset", "attr": {"dtype": {"type": "DT_FLOAT"}, "value": {"tensor": {"dtype": "DT_FLOAT", "tensorShape": {"dim": [{"size": "64"}]}}}}}, {"op": "Const", "name": "FirstStageFeatureExtractor/InceptionV2/InceptionV2/Mixed_4a/Branch_0/Conv2d_1a_3x3/Conv2D_weights", "attr": {"dtype": {"type": "DT_FLOAT"}, "value": {"tensor": {"dtype": "DT_FLOAT", "tensorShape": {"dim": [{"size": "3"}, {"size": "3"}, {"size": "128"}, {"size": "160"}]}}}}}, {"op": "Const", "name": "FirstStageFeatureExtractor/InceptionV2/InceptionV2/Mixed_4a/Branch_0/Conv2d_1a_3x3/Conv2D_bn_offset", "attr": {"dtype": {"type": "DT_FLOAT"}, "value": {"tensor": {"dtype": "DT_FLOAT", "tensorShape": {"dim": [{"size": "160"}]}}}}}, {"op": "Const", "name": "FirstStageFeatureExtractor/InceptionV2/InceptionV2/Mixed_4a/Branch_1/Conv2d_0b_3x3/Conv2D_weights", "attr": {"dtype": {"type": "DT_FLOAT"}, "value": {"tensor": {"dtype": "DT_FLOAT", "tensorShape": {"dim": [{"size": "3"}, {"size": "3"}, {"size": "64"}, {"size": "96"}]}}}}}, {"op": "Const", "name": "FirstStageFeatureExtractor/InceptionV2/InceptionV2/Mixed_4a/Branch_1/Conv2d_0b_3x3/Conv2D_bn_offset", "attr": {"dtype": {"type": "DT_FLOAT"}, "value": {"tensor": {"dtype": "DT_FLOAT", "tensorShape": {"dim": [{"size": "96"}]}}}}}, {"op": "Const", "name": "FirstStageFeatureExtractor/InceptionV2/InceptionV2/Mixed_4a/Branch_1/Conv2d_1a_3x3/Conv2D_weights", "attr": {"dtype": {"type": "DT_FLOAT"}, "value": {"tensor": {"dtype": "DT_FLOAT", "tensorShape": {"dim": [{"size": "3"}, {"size": "3"}, {"size": "96"}, {"size": "96"}]}}}}}, {"op": "Const", "name": "FirstStageFeatureExtractor/InceptionV2/InceptionV2/Mixed_4a/Branch_1/Conv2d_1a_3x3/Conv2D_bn_offset", "attr": {"dtype": {"type": "DT_FLOAT"}, "value": {"tensor": {"dtype": "DT_FLOAT", "tensorShape": {"dim": [{"size": "96"}]}}}}}, {"op": "Const", "name": "FirstStageFeatureExtractor/InceptionV2/InceptionV2/Mixed_4b/Branch_0/Conv2d_0a_1x1/Conv2D_weights", "attr": {"dtype": {"type": "DT_FLOAT"}, "value": {"tensor": {"dtype": "DT_FLOAT", "tensorShape": {"dim": [{"size": "1"}, {"size": "1"}, {"size": "576"}, {"size": "224"}]}}}}}, {"op": "Const", "name": "FirstStageFeatureExtractor/InceptionV2/InceptionV2/Mixed_4b/Branch_0/Conv2d_0a_1x1/Conv2D_bn_offset", "attr": {"dtype": {"type": "DT_FLOAT"}, "value": {"tensor": {"dtype": "DT_FLOAT", "tensorShape": {"dim": [{"size": "224"}]}}}}}, {"op": "Const", "name": "FirstStageFeatureExtractor/InceptionV2/InceptionV2/Mixed_4b/Branch_1/Conv2d_0a_1x1/Conv2D_weights", "attr": {"dtype": {"type": "DT_FLOAT"}, "value": {"tensor": {"dtype": "DT_FLOAT", "tensorShape": {"dim": [{"size": "1"}, {"size": "1"}, {"size": "576"}, {"size": "64"}]}}}}}, {"op": "Const", "name": "FirstStageFeatureExtractor/InceptionV2/InceptionV2/Mixed_4b/Branch_1/Conv2d_0a_1x1/Conv2D_bn_offset", "attr": {"dtype": {"type": "DT_FLOAT"}, "value": {"tensor": {"dtype": "DT_FLOAT", "tensorShape": {"dim": [{"size": "64"}]}}}}}, {"op": "Const", "name": "FirstStageFeatureExtractor/InceptionV2/InceptionV2/Mixed_4b/Branch_2/Conv2d_0a_1x1/Conv2D_weights", "attr": {"dtype": {"type": "DT_FLOAT"}, "value": {"tensor": {"dtype": "DT_FLOAT", "tensorShape": {"dim": [{"size": "1"}, {"size": "1"}, {"size": "576"}, {"size": "96"}]}}}}}, {"op": "Const", "name": "FirstStageFeatureExtractor/InceptionV2/InceptionV2/Mixed_4b/Branch_2/Conv2d_0a_1x1/Conv2D_bn_offset", "attr": {"dtype": {"type": "DT_FLOAT"}, "value": {"tensor": {"dtype": "DT_FLOAT", "tensorShape": {"dim": [{"size": "96"}]}}}}}, {"op": "Const", "name": "FirstStageFeatureExtractor/InceptionV2/InceptionV2/Mixed_4b/Branch_3/Conv2d_0b_1x1/Conv2D_weights", "attr": {"dtype": {"type": "DT_FLOAT"}, "value": {"tensor": {"dtype": "DT_FLOAT", "tensorShape": {"dim": [{"size": "1"}, {"size": "1"}, {"size": "576"}, {"size": "128"}]}}}}}, {"op": "Const", "name": "FirstStageFeatureExtractor/InceptionV2/InceptionV2/Mixed_4b/Branch_3/Conv2d_0b_1x1/Conv2D_bn_offset", "attr": {"dtype": {"type": "DT_FLOAT"}, "value": {"tensor": {"dtype": "DT_FLOAT", "tensorShape": {"dim": [{"size": "128"}]}}}}}, {"op": "Const", "name": "FirstStageFeatureExtractor/InceptionV2/InceptionV2/Mixed_4b/Branch_1/Conv2d_0b_3x3/Conv2D_weights", "attr": {"dtype": {"type": "DT_FLOAT"}, "value": {"tensor": {"dtype": "DT_FLOAT", "tensorShape": {"dim": [{"size": "3"}, {"size": "3"}, {"size": "64"}, {"size": "96"}]}}}}}, {"op": "Const", "name": "FirstStageFeatureExtractor/InceptionV2/InceptionV2/Mixed_4b/Branch_1/Conv2d_0b_3x3/Conv2D_bn_offset", "attr": {"dtype": {"type": "DT_FLOAT"}, "value": {"tensor": {"dtype": "DT_FLOAT", "tensorShape": {"dim": [{"size": "96"}]}}}}}, {"op": "Const", "name": "FirstStageFeatureExtractor/InceptionV2/InceptionV2/Mixed_4b/Branch_2/Conv2d_0b_3x3/Conv2D_weights", "attr": {"dtype": {"type": "DT_FLOAT"}, "value": {"tensor": {"dtype": "DT_FLOAT", "tensorShape": {"dim": [{"size": "3"}, {"size": "3"}, {"size": "96"}, {"size": "128"}]}}}}}, {"op": "Const", "name": "FirstStageFeatureExtractor/InceptionV2/InceptionV2/Mixed_4b/Branch_2/Conv2d_0b_3x3/Conv2D_bn_offset", "attr": {"dtype": {"type": "DT_FLOAT"}, "value": {"tensor": {"dtype": "DT_FLOAT", "tensorShape": {"dim": [{"size": "128"}]}}}}}, {"op": "Const", "name": "FirstStageFeatureExtractor/InceptionV2/InceptionV2/Mixed_4b/Branch_2/Conv2d_0c_3x3/Conv2D_weights", "attr": {"dtype": {"type": "DT_FLOAT"}, "value": {"tensor": {"dtype": "DT_FLOAT", "tensorShape": {"dim": [{"size": "3"}, {"size": "3"}, {"size": "128"}, {"size": "128"}]}}}}}, {"op": "Const", "name": "FirstStageFeatureExtractor/InceptionV2/InceptionV2/Mixed_4b/Branch_2/Conv2d_0c_3x3/Conv2D_bn_offset", "attr": {"dtype": {"type": "DT_FLOAT"}, "value": {"tensor": {"dtype": "DT_FLOAT", "tensorShape": {"dim": [{"size": "128"}]}}}}}, {"op": "Const", "name": "FirstStageFeatureExtractor/InceptionV2/InceptionV2/Mixed_4c/Branch_0/Conv2d_0a_1x1/Conv2D_weights", "attr": {"dtype": {"type": "DT_FLOAT"}, "value": {"tensor": {"dtype": "DT_FLOAT", "tensorShape": {"dim": [{"size": "1"}, {"size": "1"}, {"size": "576"}, {"size": "192"}]}}}}}, {"op": "Const", "name": "FirstStageFeatureExtractor/InceptionV2/InceptionV2/Mixed_4c/Branch_0/Conv2d_0a_1x1/Conv2D_bn_offset", "attr": {"dtype": {"type": "DT_FLOAT"}, "value": {"tensor": {"dtype": "DT_FLOAT", "tensorShape": {"dim": [{"size": "192"}]}}}}}, {"op": "Const", "name": "FirstStageFeatureExtractor/InceptionV2/InceptionV2/Mixed_4c/Branch_1/Conv2d_0a_1x1/Conv2D_weights", "attr": {"dtype": {"type": "DT_FLOAT"}, "value": {"tensor": {"dtype": "DT_FLOAT", "tensorShape": {"dim": [{"size": "1"}, {"size": "1"}, {"size": "576"}, {"size": "96"}]}}}}}, {"op": "Const", "name": "FirstStageFeatureExtractor/InceptionV2/InceptionV2/Mixed_4c/Branch_1/Conv2d_0a_1x1/Conv2D_bn_offset", "attr": {"dtype": {"type": "DT_FLOAT"}, "value": {"tensor": {"dtype": "DT_FLOAT", "tensorShape": {"dim": [{"size": "96"}]}}}}}, {"op": "Const", "name": "FirstStageFeatureExtractor/InceptionV2/InceptionV2/Mixed_4c/Branch_2/Conv2d_0a_1x1/Conv2D_weights", "attr": {"dtype": {"type": "DT_FLOAT"}, "value": {"tensor": {"dtype": "DT_FLOAT", "tensorShape": {"dim": [{"size": "1"}, {"size": "1"}, {"size": "576"}, {"size": "96"}]}}}}}, {"op": "Const", "name": "FirstStageFeatureExtractor/InceptionV2/InceptionV2/Mixed_4c/Branch_2/Conv2d_0a_1x1/Conv2D_bn_offset", "attr": {"dtype": {"type": "DT_FLOAT"}, "value": {"tensor": {"dtype": "DT_FLOAT", "tensorShape": {"dim": [{"size": "96"}]}}}}}, {"op": "Const", "name": "FirstStageFeatureExtractor/InceptionV2/InceptionV2/Mixed_4c/Branch_3/Conv2d_0b_1x1/Conv2D_weights", "attr": {"dtype": {"type": "DT_FLOAT"}, "value": {"tensor": {"dtype": "DT_FLOAT", "tensorShape": {"dim": [{"size": "1"}, {"size": "1"}, {"size": "576"}, {"size": "128"}]}}}}}, {"op": "Const", "name": "FirstStageFeatureExtractor/InceptionV2/InceptionV2/Mixed_4c/Branch_3/Conv2d_0b_1x1/Conv2D_bn_offset", "attr": {"dtype": {"type": "DT_FLOAT"}, "value": {"tensor": {"dtype": "DT_FLOAT", "tensorShape": {"dim": [{"size": "128"}]}}}}}, {"op": "Const", "name": "FirstStageFeatureExtractor/InceptionV2/InceptionV2/Mixed_4c/Branch_1/Conv2d_0b_3x3/Conv2D_weights", "attr": {"dtype": {"type": "DT_FLOAT"}, "value": {"tensor": {"dtype": "DT_FLOAT", "tensorShape": {"dim": [{"size": "3"}, {"size": "3"}, {"size": "96"}, {"size": "128"}]}}}}}, {"op": "Const", "name": "FirstStageFeatureExtractor/InceptionV2/InceptionV2/Mixed_4c/Branch_1/Conv2d_0b_3x3/Conv2D_bn_offset", "attr": {"dtype": {"type": "DT_FLOAT"}, "value": {"tensor": {"dtype": "DT_FLOAT", "tensorShape": {"dim": [{"size": "128"}]}}}}}, {"op": "Const", "name": "FirstStageFeatureExtractor/InceptionV2/InceptionV2/Mixed_4c/Branch_2/Conv2d_0b_3x3/Conv2D_weights", "attr": {"dtype": {"type": "DT_FLOAT"}, "value": {"tensor": {"dtype": "DT_FLOAT", "tensorShape": {"dim": [{"size": "3"}, {"size": "3"}, {"size": "96"}, {"size": "128"}]}}}}}, {"op": "Const", "name": "FirstStageFeatureExtractor/InceptionV2/InceptionV2/Mixed_4c/Branch_2/Conv2d_0b_3x3/Conv2D_bn_offset", "attr": {"dtype": {"type": "DT_FLOAT"}, "value": {"tensor": {"dtype": "DT_FLOAT", "tensorShape": {"dim": [{"size": "128"}]}}}}}, {"op": "Const", "name": "FirstStageFeatureExtractor/InceptionV2/InceptionV2/Mixed_4c/Branch_2/Conv2d_0c_3x3/Conv2D_weights", "attr": {"dtype": {"type": "DT_FLOAT"}, "value": {"tensor": {"dtype": "DT_FLOAT", "tensorShape": {"dim": [{"size": "3"}, {"size": "3"}, {"size": "128"}, {"size": "128"}]}}}}}, {"op": "Const", "name": "FirstStageFeatureExtractor/InceptionV2/InceptionV2/Mixed_4c/Branch_2/Conv2d_0c_3x3/Conv2D_bn_offset", "attr": {"dtype": {"type": "DT_FLOAT"}, "value": {"tensor": {"dtype": "DT_FLOAT", "tensorShape": {"dim": [{"size": "128"}]}}}}}, {"op": "Const", "name": "FirstStageFeatureExtractor/InceptionV2/InceptionV2/Mixed_4d/Branch_0/Conv2d_0a_1x1/Conv2D_weights", "attr": {"dtype": {"type": "DT_FLOAT"}, "value": {"tensor": {"dtype": "DT_FLOAT", "tensorShape": {"dim": [{"size": "1"}, {"size": "1"}, {"size": "576"}, {"size": "160"}]}}}}}, {"op": "Const", "name": "FirstStageFeatureExtractor/InceptionV2/InceptionV2/Mixed_4d/Branch_0/Conv2d_0a_1x1/Conv2D_bn_offset", "attr": {"dtype": {"type": "DT_FLOAT"}, "value": {"tensor": {"dtype": "DT_FLOAT", "tensorShape": {"dim": [{"size": "160"}]}}}}}, {"op": "Const", "name": "FirstStageFeatureExtractor/InceptionV2/InceptionV2/Mixed_4d/Branch_1/Conv2d_0a_1x1/Conv2D_weights", "attr": {"dtype": {"type": "DT_FLOAT"}, "value": {"tensor": {"dtype": "DT_FLOAT", "tensorShape": {"dim": [{"size": "1"}, {"size": "1"}, {"size": "576"}, {"size": "128"}]}}}}}, {"op": "Const", "name": "FirstStageFeatureExtractor/InceptionV2/InceptionV2/Mixed_4d/Branch_1/Conv2d_0a_1x1/Conv2D_bn_offset", "attr": {"dtype": {"type": "DT_FLOAT"}, "value": {"tensor": {"dtype": "DT_FLOAT", "tensorShape": {"dim": [{"size": "128"}]}}}}}, {"op": "Const", "name": "FirstStageFeatureExtractor/InceptionV2/InceptionV2/Mixed_4d/Branch_2/Conv2d_0a_1x1/Conv2D_weights", "attr": {"dtype": {"type": "DT_FLOAT"}, "value": {"tensor": {"dtype": "DT_FLOAT", "tensorShape": {"dim": [{"size": "1"}, {"size": "1"}, {"size": "576"}, {"size": "128"}]}}}}}, {"op": "Const", "name": "FirstStageFeatureExtractor/InceptionV2/InceptionV2/Mixed_4d/Branch_2/Conv2d_0a_1x1/Conv2D_bn_offset", "attr": {"dtype": {"type": "DT_FLOAT"}, "value": {"tensor": {"dtype": "DT_FLOAT", "tensorShape": {"dim": [{"size": "128"}]}}}}}, {"op": "Const", "name": "FirstStageFeatureExtractor/InceptionV2/InceptionV2/Mixed_4d/Branch_3/Conv2d_0b_1x1/Conv2D_weights", "attr": {"dtype": {"type": "DT_FLOAT"}, "value": {"tensor": {"dtype": "DT_FLOAT", "tensorShape": {"dim": [{"size": "1"}, {"size": "1"}, {"size": "576"}, {"size": "96"}]}}}}}, {"op": "Const", "name": "FirstStageFeatureExtractor/InceptionV2/InceptionV2/Mixed_4d/Branch_3/Conv2d_0b_1x1/Conv2D_bn_offset", "attr": {"dtype": {"type": "DT_FLOAT"}, "value": {"tensor": {"dtype": "DT_FLOAT", "tensorShape": {"dim": [{"size": "96"}]}}}}}, {"op": "Const", "name": "FirstStageFeatureExtractor/InceptionV2/InceptionV2/Mixed_4d/Branch_1/Conv2d_0b_3x3/Conv2D_weights", "attr": {"dtype": {"type": "DT_FLOAT"}, "value": {"tensor": {"dtype": "DT_FLOAT", "tensorShape": {"dim": [{"size": "3"}, {"size": "3"}, {"size": "128"}, {"size": "160"}]}}}}}, {"op": "Const", "name": "FirstStageFeatureExtractor/InceptionV2/InceptionV2/Mixed_4d/Branch_1/Conv2d_0b_3x3/Conv2D_bn_offset", "attr": {"dtype": {"type": "DT_FLOAT"}, "value": {"tensor": {"dtype": "DT_FLOAT", "tensorShape": {"dim": [{"size": "160"}]}}}}}, {"op": "Const", "name": "FirstStageFeatureExtractor/InceptionV2/InceptionV2/Mixed_4d/Branch_2/Conv2d_0b_3x3/Conv2D_weights", "attr": {"dtype": {"type": "DT_FLOAT"}, "value": {"tensor": {"dtype": "DT_FLOAT", "tensorShape": {"dim": [{"size": "3"}, {"size": "3"}, {"size": "128"}, {"size": "160"}]}}}}}, {"op": "Const", "name": "FirstStageFeatureExtractor/InceptionV2/InceptionV2/Mixed_4d/Branch_2/Conv2d_0b_3x3/Conv2D_bn_offset", "attr": {"dtype": {"type": "DT_FLOAT"}, "value": {"tensor": {"dtype": "DT_FLOAT", "tensorShape": {"dim": [{"size": "160"}]}}}}}, {"op": "Const", "name": "FirstStageFeatureExtractor/InceptionV2/InceptionV2/Mixed_4d/Branch_2/Conv2d_0c_3x3/Conv2D_weights", "attr": {"dtype": {"type": "DT_FLOAT"}, "value": {"tensor": {"dtype": "DT_FLOAT", "tensorShape": {"dim": [{"size": "3"}, {"size": "3"}, {"size": "160"}, {"size": "160"}]}}}}}, {"op": "Const", "name": "FirstStageFeatureExtractor/InceptionV2/InceptionV2/Mixed_4d/Branch_2/Conv2d_0c_3x3/Conv2D_bn_offset", "attr": {"dtype": {"type": "DT_FLOAT"}, "value": {"tensor": {"dtype": "DT_FLOAT", "tensorShape": {"dim": [{"size": "160"}]}}}}}, {"op": "Const", "name": "FirstStageFeatureExtractor/InceptionV2/InceptionV2/Mixed_4e/Branch_0/Conv2d_0a_1x1/Conv2D_weights", "attr": {"dtype": {"type": "DT_FLOAT"}, "value": {"tensor": {"dtype": "DT_FLOAT", "tensorShape": {"dim": [{"size": "1"}, {"size": "1"}, {"size": "576"}, {"size": "96"}]}}}}}, {"op": "Const", "name": "FirstStageFeatureExtractor/InceptionV2/InceptionV2/Mixed_4e/Branch_0/Conv2d_0a_1x1/Conv2D_bn_offset", "attr": {"dtype": {"type": "DT_FLOAT"}, "value": {"tensor": {"dtype": "DT_FLOAT", "tensorShape": {"dim": [{"size": "96"}]}}}}}, {"op": "Const", "name": "FirstStageFeatureExtractor/InceptionV2/InceptionV2/Mixed_4e/Branch_1/Conv2d_0a_1x1/Conv2D_weights", "attr": {"dtype": {"type": "DT_FLOAT"}, "value": {"tensor": {"dtype": "DT_FLOAT", "tensorShape": {"dim": [{"size": "1"}, {"size": "1"}, {"size": "576"}, {"size": "128"}]}}}}}, {"op": "Const", "name": "FirstStageFeatureExtractor/InceptionV2/InceptionV2/Mixed_4e/Branch_1/Conv2d_0a_1x1/Conv2D_bn_offset", "attr": {"dtype": {"type": "DT_FLOAT"}, "value": {"tensor": {"dtype": "DT_FLOAT", "tensorShape": {"dim": [{"size": "128"}]}}}}}, {"op": "Const", "name": "FirstStageFeatureExtractor/InceptionV2/InceptionV2/Mixed_4e/Branch_2/Conv2d_0a_1x1/Conv2D_weights", "attr": {"dtype": {"type": "DT_FLOAT"}, "value": {"tensor": {"dtype": "DT_FLOAT", "tensorShape": {"dim": [{"size": "1"}, {"size": "1"}, {"size": "576"}, {"size": "160"}]}}}}}, {"op": "Const", "name": "FirstStageFeatureExtractor/InceptionV2/InceptionV2/Mixed_4e/Branch_2/Conv2d_0a_1x1/Conv2D_bn_offset", "attr": {"dtype": {"type": "DT_FLOAT"}, "value": {"tensor": {"dtype": "DT_FLOAT", "tensorShape": {"dim": [{"size": "160"}]}}}}}, {"op": "Const", "name": "FirstStageFeatureExtractor/InceptionV2/InceptionV2/Mixed_4e/Branch_3/Conv2d_0b_1x1/Conv2D_weights", "attr": {"dtype": {"type": "DT_FLOAT"}, "value": {"tensor": {"dtype": "DT_FLOAT", "tensorShape": {"dim": [{"size": "1"}, {"size": "1"}, {"size": "576"}, {"size": "96"}]}}}}}, {"op": "Const", "name": "FirstStageFeatureExtractor/InceptionV2/InceptionV2/Mixed_4e/Branch_3/Conv2d_0b_1x1/Conv2D_bn_offset", "attr": {"dtype": {"type": "DT_FLOAT"}, "value": {"tensor": {"dtype": "DT_FLOAT", "tensorShape": {"dim": [{"size": "96"}]}}}}}, {"op": "Const", "name": "FirstStageFeatureExtractor/InceptionV2/InceptionV2/Mixed_4e/Branch_1/Conv2d_0b_3x3/Conv2D_weights", "attr": {"dtype": {"type": "DT_FLOAT"}, "value": {"tensor": {"dtype": "DT_FLOAT", "tensorShape": {"dim": [{"size": "3"}, {"size": "3"}, {"size": "128"}, {"size": "192"}]}}}}}, {"op": "Const", "name": "FirstStageFeatureExtractor/InceptionV2/InceptionV2/Mixed_4e/Branch_1/Conv2d_0b_3x3/Conv2D_bn_offset", "attr": {"dtype": {"type": "DT_FLOAT"}, "value": {"tensor": {"dtype": "DT_FLOAT", "tensorShape": {"dim": [{"size": "192"}]}}}}}, {"op": "Const", "name": "FirstStageFeatureExtractor/InceptionV2/InceptionV2/Mixed_4e/Branch_2/Conv2d_0b_3x3/Conv2D_weights", "attr": {"dtype": {"type": "DT_FLOAT"}, "value": {"tensor": {"dtype": "DT_FLOAT", "tensorShape": {"dim": [{"size": "3"}, {"size": "3"}, {"size": "160"}, {"size": "192"}]}}}}}, {"op": "Const", "name": "FirstStageFeatureExtractor/InceptionV2/InceptionV2/Mixed_4e/Branch_2/Conv2d_0b_3x3/Conv2D_bn_offset", "attr": {"dtype": {"type": "DT_FLOAT"}, "value": {"tensor": {"dtype": "DT_FLOAT", "tensorShape": {"dim": [{"size": "192"}]}}}}}, {"op": "Const", "name": "FirstStageFeatureExtractor/InceptionV2/InceptionV2/Mixed_4e/Branch_2/Conv2d_0c_3x3/Conv2D_weights", "attr": {"dtype": {"type": "DT_FLOAT"}, "value": {"tensor": {"dtype": "DT_FLOAT", "tensorShape": {"dim": [{"size": "3"}, {"size": "3"}, {"size": "192"}, {"size": "192"}]}}}}}, {"op": "Const", "name": "FirstStageFeatureExtractor/InceptionV2/InceptionV2/Mixed_4e/Branch_2/Conv2d_0c_3x3/Conv2D_bn_offset", "attr": {"dtype": {"type": "DT_FLOAT"}, "value": {"tensor": {"dtype": "DT_FLOAT", "tensorShape": {"dim": [{"size": "192"}]}}}}}, {"op": "Const", "name": "SecondStageFeatureExtractor/InceptionV2/Mixed_5a/Branch_0/Conv2d_0a_1x1/Conv2D_weights", "attr": {"dtype": {"type": "DT_FLOAT"}, "value": {"tensor": {"dtype": "DT_FLOAT", "tensorShape": {"dim": [{"size": "1"}, {"size": "1"}, {"size": "576"}, {"size": "128"}]}}}}}, {"op": "Const", "name": "SecondStageFeatureExtractor/InceptionV2/Mixed_5a/Branch_0/Conv2d_0a_1x1/Conv2D_bn_offset", "attr": {"dtype": {"type": "DT_FLOAT"}, "value": {"tensor": {"dtype": "DT_FLOAT", "tensorShape": {"dim": [{"size": "128"}]}}}}}, {"op": "Const", "name": "SecondStageFeatureExtractor/InceptionV2/Mixed_5a/Branch_1/Conv2d_0a_1x1/Conv2D_weights", "attr": {"dtype": {"type": "DT_FLOAT"}, "value": {"tensor": {"dtype": "DT_FLOAT", "tensorShape": {"dim": [{"size": "1"}, {"size": "1"}, {"size": "576"}, {"size": "192"}]}}}}}, {"op": "Const", "name": "SecondStageFeatureExtractor/InceptionV2/Mixed_5a/Branch_1/Conv2d_0a_1x1/Conv2D_bn_offset", "attr": {"dtype": {"type": "DT_FLOAT"}, "value": {"tensor": {"dtype": "DT_FLOAT", "tensorShape": {"dim": [{"size": "192"}]}}}}}, {"op": "Const", "name": "SecondStageFeatureExtractor/InceptionV2/Mixed_5a/Branch_0/Conv2d_1a_3x3/Conv2D_weights", "attr": {"dtype": {"type": "DT_FLOAT"}, "value": {"tensor": {"dtype": "DT_FLOAT", "tensorShape": {"dim": [{"size": "3"}, {"size": "3"}, {"size": "128"}, {"size": "192"}]}}}}}, {"op": "Const", "name": "SecondStageFeatureExtractor/InceptionV2/Mixed_5a/Branch_0/Conv2d_1a_3x3/Conv2D_bn_offset", "attr": {"dtype": {"type": "DT_FLOAT"}, "value": {"tensor": {"dtype": "DT_FLOAT", "tensorShape": {"dim": [{"size": "192"}]}}}}}, {"op": "Const", "name": "SecondStageFeatureExtractor/InceptionV2/Mixed_5a/Branch_1/Conv2d_0b_3x3/Conv2D_weights", "attr": {"dtype": {"type": "DT_FLOAT"}, "value": {"tensor": {"dtype": "DT_FLOAT", "tensorShape": {"dim": [{"size": "3"}, {"size": "3"}, {"size": "192"}, {"size": "256"}]}}}}}, {"op": "Const", "name": "SecondStageFeatureExtractor/InceptionV2/Mixed_5a/Branch_1/Conv2d_0b_3x3/Conv2D_bn_offset", "attr": {"dtype": {"type": "DT_FLOAT"}, "value": {"tensor": {"dtype": "DT_FLOAT", "tensorShape": {"dim": [{"size": "256"}]}}}}}, {"op": "Const", "name": "SecondStageFeatureExtractor/InceptionV2/Mixed_5a/Branch_1/Conv2d_1a_3x3/Conv2D_weights", "attr": {"dtype": {"type": "DT_FLOAT"}, "value": {"tensor": {"dtype": "DT_FLOAT", "tensorShape": {"dim": [{"size": "3"}, {"size": "3"}, {"size": "256"}, {"size": "256"}]}}}}}, {"op": "Const", "name": "SecondStageFeatureExtractor/InceptionV2/Mixed_5a/Branch_1/Conv2d_1a_3x3/Conv2D_bn_offset", "attr": {"dtype": {"type": "DT_FLOAT"}, "value": {"tensor": {"dtype": "DT_FLOAT", "tensorShape": {"dim": [{"size": "256"}]}}}}}, {"op": "Const", "name": "SecondStageFeatureExtractor/InceptionV2/Mixed_5b/Branch_0/Conv2d_0a_1x1/Conv2D_weights", "attr": {"dtype": {"type": "DT_FLOAT"}, "value": {"tensor": {"dtype": "DT_FLOAT", "tensorShape": {"dim": [{"size": "1"}, {"size": "1"}, {"size": "1024"}, {"size": "352"}]}}}}}, {"op": "Const", "name": "SecondStageFeatureExtractor/InceptionV2/Mixed_5b/Branch_0/Conv2d_0a_1x1/Conv2D_bn_offset", "attr": {"dtype": {"type": "DT_FLOAT"}, "value": {"tensor": {"dtype": "DT_FLOAT", "tensorShape": {"dim": [{"size": "352"}]}}}}}, {"op": "Const", "name": "SecondStageFeatureExtractor/InceptionV2/Mixed_5b/Branch_1/Conv2d_0a_1x1/Conv2D_weights", "attr": {"dtype": {"type": "DT_FLOAT"}, "value": {"tensor": {"dtype": "DT_FLOAT", "tensorShape": {"dim": [{"size": "1"}, {"size": "1"}, {"size": "1024"}, {"size": "192"}]}}}}}, {"op": "Const", "name": "SecondStageFeatureExtractor/InceptionV2/Mixed_5b/Branch_1/Conv2d_0a_1x1/Conv2D_bn_offset", "attr": {"dtype": {"type": "DT_FLOAT"}, "value": {"tensor": {"dtype": "DT_FLOAT", "tensorShape": {"dim": [{"size": "192"}]}}}}}, {"op": "Const", "name": "SecondStageFeatureExtractor/InceptionV2/Mixed_5b/Branch_2/Conv2d_0a_1x1/Conv2D_weights", "attr": {"dtype": {"type": "DT_FLOAT"}, "value": {"tensor": {"dtype": "DT_FLOAT", "tensorShape": {"dim": [{"size": "1"}, {"size": "1"}, {"size": "1024"}, {"size": "160"}]}}}}}, {"op": "Const", "name": "SecondStageFeatureExtractor/InceptionV2/Mixed_5b/Branch_2/Conv2d_0a_1x1/Conv2D_bn_offset", "attr": {"dtype": {"type": "DT_FLOAT"}, "value": {"tensor": {"dtype": "DT_FLOAT", "tensorShape": {"dim": [{"size": "160"}]}}}}}, {"op": "Const", "name": "SecondStageFeatureExtractor/InceptionV2/Mixed_5b/Branch_3/Conv2d_0b_1x1/Conv2D_weights", "attr": {"dtype": {"type": "DT_FLOAT"}, "value": {"tensor": {"dtype": "DT_FLOAT", "tensorShape": {"dim": [{"size": "1"}, {"size": "1"}, {"size": "1024"}, {"size": "128"}]}}}}}, {"op": "Const", "name": "SecondStageFeatureExtractor/InceptionV2/Mixed_5b/Branch_3/Conv2d_0b_1x1/Conv2D_bn_offset", "attr": {"dtype": {"type": "DT_FLOAT"}, "value": {"tensor": {"dtype": "DT_FLOAT", "tensorShape": {"dim": [{"size": "128"}]}}}}}, {"op": "Const", "name": "SecondStageFeatureExtractor/InceptionV2/Mixed_5b/Branch_1/Conv2d_0b_3x3/Conv2D_weights", "attr": {"dtype": {"type": "DT_FLOAT"}, "value": {"tensor": {"dtype": "DT_FLOAT", "tensorShape": {"dim": [{"size": "3"}, {"size": "3"}, {"size": "192"}, {"size": "320"}]}}}}}, {"op": "Const", "name": "SecondStageFeatureExtractor/InceptionV2/Mixed_5b/Branch_1/Conv2d_0b_3x3/Conv2D_bn_offset", "attr": {"dtype": {"type": "DT_FLOAT"}, "value": {"tensor": {"dtype": "DT_FLOAT", "tensorShape": {"dim": [{"size": "320"}]}}}}}, {"op": "Const", "name": "SecondStageFeatureExtractor/InceptionV2/Mixed_5b/Branch_2/Conv2d_0b_3x3/Conv2D_weights", "attr": {"dtype": {"type": "DT_FLOAT"}, "value": {"tensor": {"dtype": "DT_FLOAT", "tensorShape": {"dim": [{"size": "3"}, {"size": "3"}, {"size": "160"}, {"size": "224"}]}}}}}, {"op": "Const", "name": "SecondStageFeatureExtractor/InceptionV2/Mixed_5b/Branch_2/Conv2d_0b_3x3/Conv2D_bn_offset", "attr": {"dtype": {"type": "DT_FLOAT"}, "value": {"tensor": {"dtype": "DT_FLOAT", "tensorShape": {"dim": [{"size": "224"}]}}}}}, {"op": "Const", "name": "SecondStageFeatureExtractor/InceptionV2/Mixed_5b/Branch_2/Conv2d_0c_3x3/Conv2D_weights", "attr": {"dtype": {"type": "DT_FLOAT"}, "value": {"tensor": {"dtype": "DT_FLOAT", "tensorShape": {"dim": [{"size": "3"}, {"size": "3"}, {"size": "224"}, {"size": "224"}]}}}}}, {"op": "Const", "name": "SecondStageFeatureExtractor/InceptionV2/Mixed_5b/Branch_2/Conv2d_0c_3x3/Conv2D_bn_offset", "attr": {"dtype": {"type": "DT_FLOAT"}, "value": {"tensor": {"dtype": "DT_FLOAT", "tensorShape": {"dim": [{"size": "224"}]}}}}}, {"op": "Const", "name": "SecondStageFeatureExtractor/InceptionV2/Mixed_5c/Branch_0/Conv2d_0a_1x1/Conv2D_weights", "attr": {"dtype": {"type": "DT_FLOAT"}, "value": {"tensor": {"dtype": "DT_FLOAT", "tensorShape": {"dim": [{"size": "1"}, {"size": "1"}, {"size": "1024"}, {"size": "352"}]}}}}}, {"op": "Const", "name": "SecondStageFeatureExtractor/InceptionV2/Mixed_5c/Branch_0/Conv2d_0a_1x1/Conv2D_bn_offset", "attr": {"dtype": {"type": "DT_FLOAT"}, "value": {"tensor": {"dtype": "DT_FLOAT", "tensorShape": {"dim": [{"size": "352"}]}}}}}, {"op": "Const", "name": "SecondStageFeatureExtractor/InceptionV2/Mixed_5c/Branch_1/Conv2d_0a_1x1/Conv2D_weights", "attr": {"dtype": {"type": "DT_FLOAT"}, "value": {"tensor": {"dtype": "DT_FLOAT", "tensorShape": {"dim": [{"size": "1"}, {"size": "1"}, {"size": "1024"}, {"size": "192"}]}}}}}, {"op": "Const", "name": "SecondStageFeatureExtractor/InceptionV2/Mixed_5c/Branch_1/Conv2d_0a_1x1/Conv2D_bn_offset", "attr": {"dtype": {"type": "DT_FLOAT"}, "value": {"tensor": {"dtype": "DT_FLOAT", "tensorShape": {"dim": [{"size": "192"}]}}}}}, {"op": "Const", "name": "SecondStageFeatureExtractor/InceptionV2/Mixed_5c/Branch_2/Conv2d_0a_1x1/Conv2D_weights", "attr": {"dtype": {"type": "DT_FLOAT"}, "value": {"tensor": {"dtype": "DT_FLOAT", "tensorShape": {"dim": [{"size": "1"}, {"size": "1"}, {"size": "1024"}, {"size": "192"}]}}}}}, {"op": "Const", "name": "SecondStageFeatureExtractor/InceptionV2/Mixed_5c/Branch_2/Conv2d_0a_1x1/Conv2D_bn_offset", "attr": {"dtype": {"type": "DT_FLOAT"}, "value": {"tensor": {"dtype": "DT_FLOAT", "tensorShape": {"dim": [{"size": "192"}]}}}}}, {"op": "Const", "name": "SecondStageFeatureExtractor/InceptionV2/Mixed_5c/Branch_3/Conv2d_0b_1x1/Conv2D_weights", "attr": {"dtype": {"type": "DT_FLOAT"}, "value": {"tensor": {"dtype": "DT_FLOAT", "tensorShape": {"dim": [{"size": "1"}, {"size": "1"}, {"size": "1024"}, {"size": "128"}]}}}}}, {"op": "Const", "name": "SecondStageFeatureExtractor/InceptionV2/Mixed_5c/Branch_3/Conv2d_0b_1x1/Conv2D_bn_offset", "attr": {"dtype": {"type": "DT_FLOAT"}, "value": {"tensor": {"dtype": "DT_FLOAT", "tensorShape": {"dim": [{"size": "128"}]}}}}}, {"op": "Const", "name": "SecondStageFeatureExtractor/InceptionV2/Mixed_5c/Branch_1/Conv2d_0b_3x3/Conv2D_weights", "attr": {"dtype": {"type": "DT_FLOAT"}, "value": {"tensor": {"dtype": "DT_FLOAT", "tensorShape": {"dim": [{"size": "3"}, {"size": "3"}, {"size": "192"}, {"size": "320"}]}}}}}, {"op": "Const", "name": "SecondStageFeatureExtractor/InceptionV2/Mixed_5c/Branch_1/Conv2d_0b_3x3/Conv2D_bn_offset", "attr": {"dtype": {"type": "DT_FLOAT"}, "value": {"tensor": {"dtype": "DT_FLOAT", "tensorShape": {"dim": [{"size": "320"}]}}}}}, {"op": "Const", "name": "SecondStageFeatureExtractor/InceptionV2/Mixed_5c/Branch_2/Conv2d_0b_3x3/Conv2D_weights", "attr": {"dtype": {"type": "DT_FLOAT"}, "value": {"tensor": {"dtype": "DT_FLOAT", "tensorShape": {"dim": [{"size": "3"}, {"size": "3"}, {"size": "192"}, {"size": "224"}]}}}}}, {"op": "Const", "name": "SecondStageFeatureExtractor/InceptionV2/Mixed_5c/Branch_2/Conv2d_0b_3x3/Conv2D_bn_offset", "attr": {"dtype": {"type": "DT_FLOAT"}, "value": {"tensor": {"dtype": "DT_FLOAT", "tensorShape": {"dim": [{"size": "224"}]}}}}}, {"op": "Const", "name": "SecondStageFeatureExtractor/InceptionV2/Mixed_5c/Branch_2/Conv2d_0c_3x3/Conv2D_weights", "attr": {"dtype": {"type": "DT_FLOAT"}, "value": {"tensor": {"dtype": "DT_FLOAT", "tensorShape": {"dim": [{"size": "3"}, {"size": "3"}, {"size": "224"}, {"size": "224"}]}}}}}, {"op": "Const", "name": "SecondStageFeatureExtractor/InceptionV2/Mixed_5c/Branch_2/Conv2d_0c_3x3/Conv2D_bn_offset", "attr": {"dtype": {"type": "DT_FLOAT"}, "value": {"tensor": {"dtype": "DT_FLOAT", "tensorShape": {"dim": [{"size": "224"}]}}}}}, {"input": ["image_tensor"], "op": "Cast", "name": "Cast", "attr": {"Truncate": {"b": false}, "DstT": {"type": "DT_FLOAT"}, "SrcT": {"type": "DT_UINT8"}}}, {"input": ["BatchMultiClassNonMaxSuppression/map/Const"], "op": "Enter", "name": "BatchMultiClassNonMaxSuppression/map/while/Enter_1", "attr": {"T": {"type": "DT_INT32"}, "is_constant": {"b": false}, "parallel_iterations": {"i": "32"}, "frame_name": {"s": "QmF0Y2hNdWx0aUNsYXNzTm9uTWF4U3VwcHJlc3Npb24vbWFwL3doaWxlL3doaWxlX2NvbnRleHQ="}}}, {"input": ["BatchMultiClassNonMaxSuppression/map/Const"], "op": "Enter", "name": "SecondStagePostprocessor/BatchMultiClassNonMaxSuppression/map/while/Enter_1", "attr": {"T": {"type": "DT_INT32"}, "is_constant": {"b": false}, "parallel_iterations": {"i": "32"}, "frame_name": {"s": "U2Vjb25kU3RhZ2VQb3N0cHJvY2Vzc29yL0JhdGNoTXVsdGlDbGFzc05vbk1heFN1cHByZXNzaW9uL21hcC93aGlsZS93aGlsZV9jb250ZXh0"}}}, {"input": ["BatchMultiClassNonMaxSuppression/map/Const"], "op": "Enter", "name": "BatchMultiClassNonMaxSuppression/map/while/Enter", "attr": {"T": {"type": "DT_INT32"}, "is_constant": {"b": false}, "parallel_iterations": {"i": "32"}, "frame_name": {"s": "QmF0Y2hNdWx0aUNsYXNzTm9uTWF4U3VwcHJlc3Npb24vbWFwL3doaWxlL3doaWxlX2NvbnRleHQ="}}}, {"input": ["BatchMultiClassNonMaxSuppression/map/Const"], "op": "Enter", "name": "map/while/Enter", "attr": {"T": {"type": "DT_INT32"}, "is_constant": {"b": false}, "parallel_iterations": {"i": "32"}, "frame_name": {"s": "bWFwL3doaWxlL3doaWxlX2NvbnRleHQ="}}}, {"input": ["BatchMultiClassNonMaxSuppression/map/Const"], "op": "Enter", "name": "map/while/Enter_1", "attr": {"T": {"type": "DT_INT32"}, "is_constant": {"b": false}, "parallel_iterations": {"i": "32"}, "frame_name": {"s": "bWFwL3doaWxlL3doaWxlX2NvbnRleHQ="}}}, {"input": ["BatchMultiClassNonMaxSuppression/map/Const"], "op": "Enter", "name": "map_2/while/Enter", "attr": {"T": {"type": "DT_INT32"}, "is_constant": {"b": false}, "parallel_iterations": {"i": "16"}, "frame_name": {"s": "bWFwXzIvd2hpbGUvd2hpbGVfY29udGV4dA=="}}}, {"input": ["BatchMultiClassNonMaxSuppression/map/Const"], "op": "Enter", "name": "Preprocessor/map/while/Enter", "attr": {"T": {"type": "DT_INT32"}, "is_constant": {"b": false}, "parallel_iterations": {"i": "32"}, "frame_name": {"s": "UHJlcHJvY2Vzc29yL21hcC93aGlsZS93aGlsZV9jb250ZXh0"}}}, {"input": ["BatchMultiClassNonMaxSuppression/map/Const"], "op": "Enter", "name": "map_2/while/Enter_1", "attr": {"T": {"type": "DT_INT32"}, "is_constant": {"b": false}, "parallel_iterations": {"i": "16"}, "frame_name": {"s": "bWFwXzIvd2hpbGUvd2hpbGVfY29udGV4dA=="}}}, {"input": ["BatchMultiClassNonMaxSuppression/map/Const"], "op": "Enter", "name": "SecondStagePostprocessor/map/while/Enter", "attr": {"T": {"type": "DT_INT32"}, "is_constant": {"b": false}, "parallel_iterations": {"i": "32"}, "frame_name": {"s": "U2Vjb25kU3RhZ2VQb3N0cHJvY2Vzc29yL21hcC93aGlsZS93aGlsZV9jb250ZXh0"}}}, {"input": ["BatchMultiClassNonMaxSuppression/map/Const"], "op": "Enter", "name": "Preprocessor/map/while/Enter_1", "attr": {"T": {"type": "DT_INT32"}, "is_constant": {"b": false}, "parallel_iterations": {"i": "32"}, "frame_name": {"s": "UHJlcHJvY2Vzc29yL21hcC93aGlsZS93aGlsZV9jb250ZXh0"}}}, {"input": ["BatchMultiClassNonMaxSuppression/map/Const"], "op": "Enter", "name": "SecondStagePostprocessor/map/while/Enter_1", "attr": {"T": {"type": "DT_INT32"}, "is_constant": {"b": false}, "parallel_iterations": {"i": "32"}, "frame_name": {"s": "U2Vjb25kU3RhZ2VQb3N0cHJvY2Vzc29yL21hcC93aGlsZS93aGlsZV9jb250ZXh0"}}}, {"input": ["BatchMultiClassNonMaxSuppression/map/Const"], "op": "Enter", "name": "SecondStagePostprocessor/BatchMultiClassNonMaxSuppression/map/while/Enter", "attr": {"T": {"type": "DT_INT32"}, "is_constant": {"b": false}, "parallel_iterations": {"i": "32"}, "frame_name": {"s": "U2Vjb25kU3RhZ2VQb3N0cHJvY2Vzc29yL0JhdGNoTXVsdGlDbGFzc05vbk1heFN1cHByZXNzaW9uL21hcC93aGlsZS93aGlsZV9jb250ZXh0"}}}, {"input": ["Cast"], "op": "Shape", "name": "Preprocessor/map/TensorArrayUnstack/Shape", "attr": {"T": {"type": "DT_FLOAT"}, "out_type": {"type": "DT_INT32"}}}, {"input": ["BatchMultiClassNonMaxSuppression/map/while/Enter_1", "BatchMultiClassNonMaxSuppression/map/while/NextIteration_1"], "op": "Merge", "name": "BatchMultiClassNonMaxSuppression/map/while/Merge_1", "attr": {"T": {"type": "DT_INT32"}, "N": {"i": "2"}}}, {"input": ["SecondStagePostprocessor/BatchMultiClassNonMaxSuppression/map/while/Enter_1", "SecondStagePostprocessor/BatchMultiClassNonMaxSuppression/map/while/NextIteration_1"], "op": "Merge", "name": "SecondStagePostprocessor/BatchMultiClassNonMaxSuppression/map/while/Merge_1", "attr": {"T": {"type": "DT_INT32"}, "N": {"i": "2"}}}, {"input": ["BatchMultiClassNonMaxSuppression/map/while/Enter", "BatchMultiClassNonMaxSuppression/map/while/NextIteration"], "op": "Merge", "name": "BatchMultiClassNonMaxSuppression/map/while/Merge", "attr": {"T": {"type": "DT_INT32"}, "N": {"i": "2"}}}, {"input": ["map/while/Enter", "map/while/NextIteration"], "op": "Merge", "name": "map/while/Merge", "attr": {"T": {"type": "DT_INT32"}, "N": {"i": "2"}}}, {"input": ["map/while/Enter_1", "map/while/NextIteration_1"], "op": "Merge", "name": "map/while/Merge_1", "attr": {"T": {"type": "DT_INT32"}, "N": {"i": "2"}}}, {"input": ["map_2/while/Enter", "map_2/while/NextIteration"], "op": "Merge", "name": "map_2/while/Merge", "attr": {"T": {"type": "DT_INT32"}, "N": {"i": "2"}}}, {"input": ["Preprocessor/map/while/Enter", "Preprocessor/map/while/NextIteration"], "op": "Merge", "name": "Preprocessor/map/while/Merge", "attr": {"T": {"type": "DT_INT32"}, "N": {"i": "2"}}}, {"input": ["map_2/while/Enter_1", "map_2/while/NextIteration_1"], "op": "Merge", "name": "map_2/while/Merge_1", "attr": {"T": {"type": "DT_INT32"}, "N": {"i": "2"}}}, {"input": ["SecondStagePostprocessor/map/while/Enter", "SecondStagePostprocessor/map/while/NextIteration"], "op": "Merge", "name": "SecondStagePostprocessor/map/while/Merge", "attr": {"T": {"type": "DT_INT32"}, "N": {"i": "2"}}}, {"input": ["Preprocessor/map/while/Enter_1", "Preprocessor/map/while/NextIteration_1"], "op": "Merge", "name": "Preprocessor/map/while/Merge_1", "attr": {"T": {"type": "DT_INT32"}, "N": {"i": "2"}}}, {"input": ["SecondStagePostprocessor/map/while/Enter_1", "SecondStagePostprocessor/map/while/NextIteration_1"], "op": "Merge", "name": "SecondStagePostprocessor/map/while/Merge_1", "attr": {"T": {"type": "DT_INT32"}, "N": {"i": "2"}}}, {"input": ["SecondStagePostprocessor/BatchMultiClassNonMaxSuppression/map/while/Enter", "SecondStagePostprocessor/BatchMultiClassNonMaxSuppression/map/while/NextIteration"], "op": "Merge", "name": "SecondStagePostprocessor/BatchMultiClassNonMaxSuppression/map/while/Merge", "attr": {"T": {"type": "DT_INT32"}, "N": {"i": "2"}}}, {"input": ["Preprocessor/map/TensorArrayUnstack/Shape", "FirstStageBoxPredictor/strided_slice_1/stack", "FirstStageBoxPredictor/strided_slice_1/stack_1", "FirstStageBoxPredictor/strided_slice_1/stack_1"], "op": "StridedSlice", "name": "Preprocessor/map/TensorArrayUnstack/strided_slice", "attr": {"begin_mask": {"i": "0"}, "ellipsis_mask": {"i": "0"}, "Index": {"type": "DT_INT32"}, "T": {"type": "DT_INT32"}, "new_axis_mask": {"i": "0"}, "end_mask": {"i": "0"}, "shrink_axis_mask": {"i": "1"}}}, {"input": ["Preprocessor/map/TensorArrayUnstack/strided_slice"], "op": "TensorArrayV3", "name": "Preprocessor/map/TensorArray_2", "attr": {"identical_element_shapes": {"b": true}, "element_shape": {"shape": {"unknownRank": true}}, "clear_after_read": {"b": true}, "dynamic_size": {"b": false}, "dtype": {"type": "DT_INT32"}, "tensor_array_name": {"s": ""}}}, {"input": ["Preprocessor/map/TensorArrayUnstack/strided_slice"], "op": "Enter", "name": "Preprocessor/map/while/Less/Enter", "attr": {"T": {"type": "DT_INT32"}, "is_constant": {"b": true}, "parallel_iterations": {"i": "32"}, "frame_name": {"s": "UHJlcHJvY2Vzc29yL21hcC93aGlsZS93aGlsZV9jb250ZXh0"}}}, {"input": ["Preprocessor/map/TensorArrayUnstack/strided_slice"], "op": "TensorArrayV3", "name": "Preprocessor/map/TensorArray", "attr": {"identical_element_shapes": {"b": true}, "element_shape": {"shape": {"unknownRank": true}}, "clear_after_read": {"b": true}, "dynamic_size": {"b": false}, "dtype": {"type": "DT_FLOAT"}, "tensor_array_name": {"s": ""}}}, {"input": ["Preprocessor/map/TensorArrayUnstack/strided_slice"], "op": "TensorArrayV3", "name": "Preprocessor/map/TensorArray_1", "attr": {"identical_element_shapes": {"b": true}, "element_shape": {"shape": {"unknownRank": true}}, "clear_after_read": {"b": true}, "dynamic_size": {"b": false}, "dtype": {"type": "DT_FLOAT"}, "tensor_array_name": {"s": ""}}}, {"input": ["BatchMultiClassNonMaxSuppression/map/Const", "Preprocessor/map/TensorArrayUnstack/strided_slice", "BatchMultiClassNonMaxSuppression/map/TensorArrayUnstack_1/range/delta"], "op": "Range", "name": "Preprocessor/map/TensorArrayUnstack/range", "attr": {"Tidx": {"type": "DT_INT32"}}}, {"input": ["Preprocessor/map/TensorArray_2"], "op": "Enter", "name": "Preprocessor/map/while/TensorArrayWrite_1/TensorArrayWriteV3/Enter", "attr": {"T": {"type": "DT_RESOURCE"}, "is_constant": {"b": true}, "parallel_iterations": {"i": "32"}, "frame_name": {"s": "UHJlcHJvY2Vzc29yL21hcC93aGlsZS93aGlsZV9jb250ZXh0"}}}, {"input": ["Preprocessor/map/TensorArray_2:1"], "op": "Enter", "name": "Preprocessor/map/while/Enter_3", "attr": {"T": {"type": "DT_FLOAT"}, "is_constant": {"b": false}, "parallel_iterations": {"i": "32"}, "frame_name": {"s": "UHJlcHJvY2Vzc29yL21hcC93aGlsZS93aGlsZV9jb250ZXh0"}}}, {"input": ["Preprocessor/map/while/Merge", "Preprocessor/map/while/Less/Enter"], "op": "Less", "name": "Preprocessor/map/while/Less", "attr": {"T": {"type": "DT_INT32"}}}, {"input": ["Preprocessor/map/while/Merge_1", "Preprocessor/map/while/Less/Enter"], "op": "Less", "name": "Preprocessor/map/while/Less_1", "attr": {"T": {"type": "DT_INT32"}}}, {"input": ["Preprocessor/map/TensorArray"], "op": "Enter", "name": "Preprocessor/map/while/TensorArrayReadV3/Enter", "attr": {"T": {"type": "DT_RESOURCE"}, "is_constant": {"b": true}, "parallel_iterations": {"i": "32"}, "frame_name": {"s": "UHJlcHJvY2Vzc29yL21hcC93aGlsZS93aGlsZV9jb250ZXh0"}}}, {"input": ["Preprocessor/map/TensorArray_1"], "op": "Enter", "name": "Preprocessor/map/while/TensorArrayWrite/TensorArrayWriteV3/Enter", "attr": {"T": {"type": "DT_RESOURCE"}, "is_constant": {"b": true}, "parallel_iterations": {"i": "32"}, "frame_name": {"s": "UHJlcHJvY2Vzc29yL21hcC93aGlsZS93aGlsZV9jb250ZXh0"}}}, {"input": ["Preprocessor/map/TensorArray_1:1"], "op": "Enter", "name": "Preprocessor/map/while/Enter_2", "attr": {"T": {"type": "DT_FLOAT"}, "is_constant": {"b": false}, "parallel_iterations": {"i": "32"}, "frame_name": {"s": "UHJlcHJvY2Vzc29yL21hcC93aGlsZS93aGlsZV9jb250ZXh0"}}}, {"input": ["Preprocessor/map/TensorArray", "Preprocessor/map/TensorArrayUnstack/range", "Cast", "Preprocessor/map/TensorArray:1"], "op": "TensorArrayScatterV3", "name": "Preprocessor/map/TensorArrayUnstack/TensorArrayScatter/TensorArrayScatterV3", "attr": {"T": {"type": "DT_FLOAT"}}}, {"input": ["Preprocessor/map/while/Enter_3", "Preprocessor/map/while/NextIteration_3"], "op": "Merge", "name": "Preprocessor/map/while/Merge_3", "attr": {"T": {"type": "DT_FLOAT"}, "N": {"i": "2"}}}, {"input": ["Preprocessor/map/while/Less", "Preprocessor/map/while/Less_1"], "op": "LogicalAnd", "name": "Preprocessor/map/while/LogicalAnd"}, {"input": ["Preprocessor/map/while/Enter_2", "Preprocessor/map/while/NextIteration_2"], "op": "Merge", "name": "Preprocessor/map/while/Merge_2", "attr": {"T": {"type": "DT_FLOAT"}, "N": {"i": "2"}}}, {"input": ["Preprocessor/map/TensorArrayUnstack/TensorArrayScatter/TensorArrayScatterV3"], "op": "Enter", "name": "Preprocessor/map/while/TensorArrayReadV3/Enter_1", "attr": {"T": {"type": "DT_FLOAT"}, "is_constant": {"b": true}, "parallel_iterations": {"i": "32"}, "frame_name": {"s": "UHJlcHJvY2Vzc29yL21hcC93aGlsZS93aGlsZV9jb250ZXh0"}}}, {"input": ["Preprocessor/map/while/LogicalAnd"], "op": "LoopCond", "name": "Preprocessor/map/while/LoopCond"}, {"input": ["Preprocessor/map/while/Merge_3", "Preprocessor/map/while/LoopCond"], "op": "Switch", "name": "Preprocessor/map/while/Switch_3", "attr": {"T": {"type": "DT_FLOAT"}}}, {"input": ["Preprocessor/map/while/Merge", "Preprocessor/map/while/LoopCond"], "op": "Switch", "name": "Preprocessor/map/while/Switch", "attr": {"T": {"type": "DT_INT32"}}}, {"input": ["Preprocessor/map/while/Merge_1", "Preprocessor/map/while/LoopCond"], "op": "Switch", "name": "Preprocessor/map/while/Switch_1", "attr": {"T": {"type": "DT_INT32"}}}, {"input": ["Preprocessor/map/while/Merge_2", "Preprocessor/map/while/LoopCond"], "op": "Switch", "name": "Preprocessor/map/while/Switch_2", "attr": {"T": {"type": "DT_FLOAT"}}}, {"input": ["Preprocessor/map/while/Switch_3"], "op": "Exit", "name": "Preprocessor/map/while/Exit_3", "attr": {"T": {"type": "DT_FLOAT"}}}, {"input": ["Preprocessor/map/while/Switch:1"], "op": "Identity", "name": "Preprocessor/map/while/Identity", "attr": {"T": {"type": "DT_INT32"}}}, {"input": ["Preprocessor/map/while/TensorArrayReadV3/Enter", "Preprocessor/map/while/Switch_1:1", "Preprocessor/map/while/TensorArrayReadV3/Enter_1"], "op": "TensorArrayReadV3", "name": "Preprocessor/map/while/TensorArrayReadV3", "attr": {"dtype": {"type": "DT_FLOAT"}}}, {"input": ["Preprocessor/map/while/Switch_2"], "op": "Exit", "name": "Preprocessor/map/while/Exit_2", "attr": {"T": {"type": "DT_FLOAT"}}}, {"input": ["Preprocessor/map/TensorArray_2", "Preprocessor/map/while/Exit_3"], "op": "TensorArraySizeV3", "name": "Preprocessor/map/TensorArrayStack_1/TensorArraySizeV3"}, {"input": ["^Preprocessor/map/while/Identity"], "op": "Const", "name": "Preprocessor/map/while/add/y", "attr": {"dtype": {"type": "DT_INT32"}, "value": {"tensor": {"dtype": "DT_INT32", "tensorShape": {}}}}}, {"input": ["^Preprocessor/map/while/Identity"], "op": "Const", "name": "Preprocessor/map/while/ResizeToRange/strided_slice/stack", "attr": {"dtype": {"type": "DT_INT32"}, "value": {"tensor": {"dtype": "DT_INT32", "tensorShape": {"dim": [{"size": "1"}]}}}}}, {"input": ["^Preprocessor/map/while/Identity"], "op": "Const", "name": "Preprocessor/map/while/ResizeToRange/strided_slice/stack_1", "attr": {"dtype": {"type": "DT_INT32"}, "value": {"tensor": {"dtype": "DT_INT32", "tensorShape": {"dim": [{"size": "1"}]}}}}}, {"input": ["^Preprocessor/map/while/Identity"], "op": "Const", "name": "Preprocessor/map/while/ResizeToRange/strided_slice_1/stack_1", "attr": {"dtype": {"type": "DT_INT32"}, "value": {"tensor": {"dtype": "DT_INT32", "tensorShape": {"dim": [{"size": "1"}]}}}}}, {"input": ["Preprocessor/map/while/TensorArrayReadV3"], "op": "Shape", "name": "Preprocessor/map/while/ResizeToRange/Shape", "attr": {"T": {"type": "DT_FLOAT"}, "out_type": {"type": "DT_INT32"}}}, {"input": ["Preprocessor/map/TensorArray_1", "Preprocessor/map/while/Exit_2"], "op": "TensorArraySizeV3", "name": "Preprocessor/map/TensorArrayStack/TensorArraySizeV3"}, {"input": ["BatchMultiClassNonMaxSuppression/map/Const", "Preprocessor/map/TensorArrayStack_1/TensorArraySizeV3", "BatchMultiClassNonMaxSuppression/map/TensorArrayUnstack_1/range/delta"], "op": "Range", "name": "Preprocessor/map/TensorArrayStack_1/range", "attr": {"Tidx": {"type": "DT_INT32"}}}, {"input": ["Preprocessor/map/while/Identity", "Preprocessor/map/while/add/y"], "op": "AddV2", "name": "Preprocessor/map/while/add", "attr": {"T": {"type": "DT_INT32"}}}, {"input": ["Preprocessor/map/while/Switch_1:1", "Preprocessor/map/while/add/y"], "op": "AddV2", "name": "Preprocessor/map/while/add_1", "attr": {"T": {"type": "DT_INT32"}}}, {"input": ["Preprocessor/map/while/ResizeToRange/Shape", "Preprocessor/map/while/ResizeToRange/strided_slice/stack", "Preprocessor/map/while/ResizeToRange/strided_slice/stack_1", "Preprocessor/map/while/ResizeToRange/strided_slice/stack_1"], "op": "StridedSlice", "name": "Preprocessor/map/while/ResizeToRange/strided_slice", "attr": {"begin_mask": {"i": "0"}, "ellipsis_mask": {"i": "0"}, "Index": {"type": "DT_INT32"}, "T": {"type": "DT_INT32"}, "new_axis_mask": {"i": "0"}, "end_mask": {"i": "0"}, "shrink_axis_mask": {"i": "1"}}}, {"input": ["Preprocessor/map/while/ResizeToRange/Shape", "Preprocessor/map/while/ResizeToRange/strided_slice/stack_1", "Preprocessor/map/while/ResizeToRange/strided_slice_1/stack_1", "Preprocessor/map/while/ResizeToRange/strided_slice/stack_1"], "op": "StridedSlice", "name": "Preprocessor/map/while/ResizeToRange/strided_slice_1", "attr": {"begin_mask": {"i": "0"}, "ellipsis_mask": {"i": "0"}, "Index": {"type": "DT_INT32"}, "T": {"type": "DT_INT32"}, "new_axis_mask": {"i": "0"}, "end_mask": {"i": "0"}, "shrink_axis_mask": {"i": "1"}}}, {"input": ["BatchMultiClassNonMaxSuppression/map/Const", "Preprocessor/map/TensorArrayStack/TensorArraySizeV3", "BatchMultiClassNonMaxSuppression/map/TensorArrayUnstack_1/range/delta"], "op": "Range", "name": "Preprocessor/map/TensorArrayStack/range", "attr": {"Tidx": {"type": "DT_INT32"}}}, {"input": ["Preprocessor/map/TensorArray_2", "Preprocessor/map/TensorArrayStack_1/range", "Preprocessor/map/while/Exit_3"], "op": "TensorArrayGatherV3", "name": "Preprocessor/map/TensorArrayStack_1/TensorArrayGatherV3", "attr": {"dtype": {"type": "DT_INT32"}, "element_shape": {"shape": {"dim": [{"size": "3"}]}}}}, {"input": ["Preprocessor/map/while/add"], "op": "NextIteration", "name": "Preprocessor/map/while/NextIteration", "attr": {"T": {"type": "DT_INT32"}}}, {"input": ["Preprocessor/map/while/add_1"], "op": "NextIteration", "name": "Preprocessor/map/while/NextIteration_1", "attr": {"T": {"type": "DT_INT32"}}}, {"input": ["Preprocessor/map/while/ResizeToRange/strided_slice", "Preprocessor/map/while/ResizeToRange/strided_slice_1"], "op": "Less", "name": "Preprocessor/map/while/ResizeToRange/Less", "attr": {"T": {"type": "DT_INT32"}}}, {"input": ["Preprocessor/map/TensorArray_1", "Preprocessor/map/TensorArrayStack/range", "Preprocessor/map/while/Exit_2"], "op": "TensorArrayGatherV3", "name": "Preprocessor/map/TensorArrayStack/TensorArrayGatherV3", "attr": {"dtype": {"type": "DT_FLOAT"}, "element_shape": {"shape": {"dim": [{"size": "-1"}, {"size": "-1"}, {"size": "3"}]}}}}, {"input": ["Preprocessor/map/TensorArrayStack_1/TensorArrayGatherV3"], "op": "Shape", "name": "SecondStagePostprocessor/map/TensorArrayUnstack_1/Shape", "attr": {"T": {"type": "DT_INT32"}, "out_type": {"type": "DT_INT32"}}}, {"input": ["Preprocessor/map/TensorArrayStack_1/TensorArrayGatherV3", "strided_slice_11/stack", "strided_slice_11/stack_1", "strided_slice_11/stack_2"], "op": "StridedSlice", "name": "strided_slice_11", "attr": {"begin_mask": {"i": "1"}, "ellipsis_mask": {"i": "0"}, "Index": {"type": "DT_INT32"}, "T": {"type": "DT_INT32"}, "new_axis_mask": {"i": "0"}, "end_mask": {"i": "1"}, "shrink_axis_mask": {"i": "2"}}}, {"input": ["Preprocessor/map/TensorArrayStack_1/TensorArrayGatherV3", "strided_slice_11/stack_1", "strided_slice_12/stack_1", "strided_slice_11/stack_2"], "op": "StridedSlice", "name": "strided_slice_12", "attr": {"begin_mask": {"i": "1"}, "ellipsis_mask": {"i": "0"}, "Index": {"type": "DT_INT32"}, "T": {"type": "DT_INT32"}, "new_axis_mask": {"i": "0"}, "end_mask": {"i": "1"}, "shrink_axis_mask": {"i": "2"}}}, {"input": ["Preprocessor/map/while/ResizeToRange/Less", "Preprocessor/map/while/ResizeToRange/Less"], "op": "Switch", "name": "Preprocessor/map/while/ResizeToRange/cond/Switch", "attr": {"T": {"type": "DT_BOOL"}}}, {"input": ["Preprocessor/map/while/TensorArrayReadV3", "Preprocessor/map/while/ResizeToRange/Less"], "op": "Switch", "name": "Preprocessor/map/while/ResizeToRange/cond/resize_1/ExpandDims/Switch", "attr": {"T": {"type": "DT_FLOAT"}}}, {"input": ["Preprocessor/map/TensorArrayStack/TensorArrayGatherV3", "Preprocessor/mul/x"], "op": "Mul", "name": "Preprocessor/mul", "attr": {"T": {"type": "DT_FLOAT"}}}, {"input": ["SecondStagePostprocessor/map/TensorArrayUnstack_1/Shape", "FirstStageBoxPredictor/strided_slice_1/stack", "FirstStageBoxPredictor/strided_slice_1/stack_1", "FirstStageBoxPredictor/strided_slice_1/stack_1"], "op": "StridedSlice", "name": "SecondStagePostprocessor/map/TensorArrayUnstack_1/strided_slice", "attr": {"begin_mask": {"i": "0"}, "ellipsis_mask": {"i": "0"}, "Index": {"type": "DT_INT32"}, "T": {"type": "DT_INT32"}, "new_axis_mask": {"i": "0"}, "end_mask": {"i": "0"}, "shrink_axis_mask": {"i": "1"}}}, {"input": ["strided_slice_11"], "op": "ZerosLike", "name": "zeros_like", "attr": {"T": {"type": "DT_INT32"}}}, {"input": ["Preprocessor/map/while/ResizeToRange/cond/Switch"], "op": "Identity", "name": "Preprocessor/map/while/ResizeToRange/cond/switch_f", "attr": {"T": {"type": "DT_BOOL"}}}, {"input": ["Preprocessor/map/while/ResizeToRange/cond/Switch:1"], "op": "Identity", "name": "Preprocessor/map/while/ResizeToRange/cond/switch_t", "attr": {"T": {"type": "DT_BOOL"}}}, {"input": ["Preprocessor/mul", "Preprocessor/sub/y"], "op": "Sub", "name": "Preprocessor/sub", "attr": {"T": {"type": "DT_FLOAT"}}}, {"input": ["BatchMultiClassNonMaxSuppression/map/Const", "SecondStagePostprocessor/map/TensorArrayUnstack_1/strided_slice", "BatchMultiClassNonMaxSuppression/map/TensorArrayUnstack_1/range/delta"], "op": "Range", "name": "SecondStagePostprocessor/map/TensorArrayUnstack_1/range", "attr": {"Tidx": {"type": "DT_INT32"}}}, {"input": ["zeros_like", "zeros_like", "strided_slice_11", "strided_slice_12"], "op": "Pack", "name": "stack_2", "attr": {"T": {"type": "DT_INT32"}, "N": {"i": "4"}, "axis": {"i": "1"}}}, {"input": ["^Preprocessor/map/while/ResizeToRange/cond/switch_f"], "op": "Const", "name": "Preprocessor/map/while/ResizeToRange/cond/resize_1/Cast", "attr": {"dtype": {"type": "DT_FLOAT"}, "value": {"tensor": {"dtype": "DT_FLOAT", "tensorShape": {}}}}}, {"input": ["^Preprocessor/map/while/ResizeToRange/cond/switch_f"], "op": "Const", "name": "Preprocessor/map/while/ResizeToRange/cond/resize_1/ExpandDims/dim", "attr": {"dtype": {"type": "DT_INT32"}, "value": {"tensor": {"dtype": "DT_INT32", "tensorShape": {}}}}}, {"input": ["^Preprocessor/map/while/ResizeToRange/cond/switch_f"], "op": "Const", "name": "Preprocessor/map/while/ResizeToRange/cond/resize_1/Cast_2", "attr": {"dtype": {"type": "DT_FLOAT"}, "value": {"tensor": {"dtype": "DT_FLOAT", "tensorShape": {}}}}}, {"input": ["^Preprocessor/map/while/ResizeToRange/cond/switch_t"], "op": "Const", "name": "Preprocessor/map/while/ResizeToRange/cond/resize/Cast", "attr": {"dtype": {"type": "DT_FLOAT"}, "value": {"tensor": {"dtype": "DT_FLOAT", "tensorShape": {}}}}}, {"input": ["^Preprocessor/map/while/ResizeToRange/cond/switch_t"], "op": "Const", "name": "Preprocessor/map/while/ResizeToRange/cond/resize/ExpandDims/dim", "attr": {"dtype": {"type": "DT_INT32"}, "value": {"tensor": {"dtype": "DT_INT32", "tensorShape": {}}}}}, {"input": ["^Preprocessor/map/while/ResizeToRange/cond/switch_t"], "op": "Const", "name": "Preprocessor/map/while/ResizeToRange/cond/resize/Cast_2", "attr": {"dtype": {"type": "DT_FLOAT"}, "value": {"tensor": {"dtype": "DT_FLOAT", "tensorShape": {}}}}}, {"input": ["Preprocessor/sub"], "op": "Shape", "name": "Shape", "attr": {"T": {"type": "DT_FLOAT"}, "out_type": {"type": "DT_INT32"}}}, {"input": ["stack_2"], "op": "Cast", "name": "Cast_2", "attr": {"Truncate": {"b": false}, "DstT": {"type": "DT_FLOAT"}, "SrcT": {"type": "DT_INT32"}}}, {"input": ["Preprocessor/map/while/ResizeToRange/cond/resize_1/ExpandDims/Switch", "Preprocessor/map/while/ResizeToRange/cond/resize_1/ExpandDims/dim"], "op": "ExpandDims", "name": "Preprocessor/map/while/ResizeToRange/cond/resize_1/ExpandDims", "attr": {"T": {"type": "DT_FLOAT"}, "Tdim": {"type": "DT_INT32"}}}, {"input": ["Preprocessor/map/while/ResizeToRange/cond/resize_1/ExpandDims/Switch:1", "Preprocessor/map/while/ResizeToRange/cond/resize/ExpandDims/dim"], "op": "ExpandDims", "name": "Preprocessor/map/while/ResizeToRange/cond/resize/ExpandDims", "attr": {"T": {"type": "DT_FLOAT"}, "Tdim": {"type": "DT_INT32"}}}, {"input": ["Shape", "FirstStageBoxPredictor/strided_slice_1/stack_1", "BatchMultiClassNonMaxSuppression/strided_slice_1/stack_1", "FirstStageBoxPredictor/strided_slice_1/stack_1"], "op": "StridedSlice", "name": "strided_slice_2", "attr": {"begin_mask": {"i": "0"}, "ellipsis_mask": {"i": "0"}, "Index": {"type": "DT_INT32"}, "T": {"type": "DT_INT32"}, "new_axis_mask": {"i": "0"}, "end_mask": {"i": "0"}, "shrink_axis_mask": {"i": "1"}}}, {"input": ["Shape", "BatchMultiClassNonMaxSuppression/strided_slice_1/stack_1", "strided_slice_1/stack_1", "FirstStageBoxPredictor/strided_slice_1/stack_1"], "op": "StridedSlice", "name": "strided_slice_3", "attr": {"begin_mask": {"i": "0"}, "ellipsis_mask": {"i": "0"}, "Index": {"type": "DT_INT32"}, "T": {"type": "DT_INT32"}, "new_axis_mask": {"i": "0"}, "end_mask": {"i": "0"}, "shrink_axis_mask": {"i": "1"}}}, {"input": ["Shape", "FirstStageBoxPredictor/strided_slice_1/stack_1", "FirstStageBoxPredictor/strided_slice_1/stack", "FirstStageBoxPredictor/strided_slice_1/stack_1"], "op": "StridedSlice", "name": "strided_slice_4", "attr": {"begin_mask": {"i": "0"}, "ellipsis_mask": {"i": "0"}, "Index": {"type": "DT_INT32"}, "T": {"type": "DT_INT32"}, "new_axis_mask": {"i": "0"}, "end_mask": {"i": "1"}, "shrink_axis_mask": {"i": "0"}}}, {"input": ["Shape", "FirstStageBoxPredictor/strided_slice_1/stack", "FirstStageBoxPredictor/strided_slice_1/stack_1", "FirstStageBoxPredictor/strided_slice_1/stack_1"], "op": "StridedSlice", "name": "strided_slice_5", "attr": {"begin_mask": {"i": "0"}, "ellipsis_mask": {"i": "0"}, "Index": {"type": "DT_INT32"}, "T": {"type": "DT_INT32"}, "new_axis_mask": {"i": "0"}, "end_mask": {"i": "0"}, "shrink_axis_mask": {"i": "1"}}}, {"input": ["Cast_2"], "op": "Shape", "name": "BatchMultiClassNonMaxSuppression/map/TensorArrayUnstack_3/Shape", "attr": {"T": {"type": "DT_FLOAT"}, "out_type": {"type": "DT_INT32"}}}, {"input": ["Preprocessor/map/while/ResizeToRange/cond/resize_1/ExpandDims"], "op": "Shape", "name": "Preprocessor/map/while/ResizeToRange/cond/resize_1/Shape", "attr": {"T": {"type": "DT_FLOAT"}, "out_type": {"type": "DT_INT32"}}}, {"input": ["Preprocessor/map/while/ResizeToRange/cond/resize/ExpandDims"], "op": "Shape", "name": "Preprocessor/map/while/ResizeToRange/cond/resize/Shape", "attr": {"T": {"type": "DT_FLOAT"}, "out_type": {"type": "DT_INT32"}}}, {"input": ["strided_slice_2"], "op": "Cast", "name": "Cast_4", "attr": {"Truncate": {"b": false}, "DstT": {"type": "DT_FLOAT"}, "SrcT": {"type": "DT_INT32"}}}, {"input": ["BatchMultiClassNonMaxSuppression/map/Const", "BatchMultiClassNonMaxSuppression/map/Const", "strided_slice_2", "strided_slice_3"], "op": "Pack", "name": "stack", "attr": {"T": {"type": "DT_INT32"}, "N": {"i": "4"}, "axis": {"i": "0"}}}, {"input": ["strided_slice_3"], "op": "Cast", "name": "Cast_3", "attr": {"Truncate": {"b": false}, "DstT": {"type": "DT_FLOAT"}, "SrcT": {"type": "DT_INT32"}}}, {"input": ["^strided_slice_2", "^strided_slice_3"], "op": "Const", "name": "FirstStageFeatureExtractor/InceptionV2/InceptionV2/Mixed_3b/concat/axis", "attr": {"dtype": {"type": "DT_INT32"}, "value": {"tensor": {"dtype": "DT_INT32", "tensorShape": {}}}}}, {"input": ["Preprocessor/sub", "FirstStageFeatureExtractor/InceptionV2/Conv2d_1a_7x7/depthwise_weights", "^strided_slice_2", "^strided_slice_3"], "op": "DepthwiseConv2dNative", "name": "FirstStageFeatureExtractor/InceptionV2/InceptionV2/Conv2d_1a_7x7/separable_conv2d/depthwise", "attr": {"T": {"type": "DT_FLOAT"}, "data_format": {"s": "TkhXQw=="}, "dilations": {"list": {"i": ["1", "1", "1", "1"]}}, "padding": {"s": "U0FNRQ=="}, "strides": {"list": {"i": ["1", "2", "2", "1"]}}}}, {"input": ["strided_slice_4", "BatchMultiClassNonMaxSuppression/map/Const"], "op": "ExpandDims", "name": "ExpandDims", "attr": {"T": {"type": "DT_INT32"}, "Tdim": {"type": "DT_INT32"}}}, {"input": ["strided_slice_5", "BatchMultiClassNonMaxSuppression/map/TensorArrayUnstack_1/range/delta"], "op": "Pack", "name": "Tile/multiples", "attr": {"T": {"type": "DT_INT32"}, "N": {"i": "2"}, "axis": {"i": "0"}}}, {"input": ["BatchMultiClassNonMaxSuppression/map/TensorArrayUnstack_3/Shape", "FirstStageBoxPredictor/strided_slice_1/stack", "FirstStageBoxPredictor/strided_slice_1/stack_1", "FirstStageBoxPredictor/strided_slice_1/stack_1"], "op": "StridedSlice", "name": "BatchMultiClassNonMaxSuppression/map/TensorArrayUnstack_3/strided_slice", "attr": {"begin_mask": {"i": "0"}, "ellipsis_mask": {"i": "0"}, "Index": {"type": "DT_INT32"}, "T": {"type": "DT_INT32"}, "new_axis_mask": {"i": "0"}, "end_mask": {"i": "0"}, "shrink_axis_mask": {"i": "1"}}}, {"input": ["Preprocessor/map/while/ResizeToRange/cond/resize_1/Shape"], "op": "Unpack", "name": "Preprocessor/map/while/ResizeToRange/cond/resize_1/unstack", "attr": {"T": {"type": "DT_INT32"}, "num": {"i": "4"}, "axis": {"i": "0"}}}, {"input": ["Preprocessor/map/while/ResizeToRange/cond/resize/Shape"], "op": "Unpack", "name": "Preprocessor/map/while/ResizeToRange/cond/resize/unstack", "attr": {"T": {"type": "DT_INT32"}, "num": {"i": "4"}, "axis": {"i": "0"}}}, {"input": ["Cast_4"], "op": "Enter", "name": "map_2/while/mul/Enter", "attr": {"T": {"type": "DT_FLOAT"}, "is_constant": {"b": true}, "parallel_iterations": {"i": "16"}, "frame_name": {"s": "bWFwXzIvd2hpbGUvd2hpbGVfY29udGV4dA=="}}}, {"input": ["stack"], "op": "Cast", "name": "Cast_1", "attr": {"Truncate": {"b": false}, "DstT": {"type": "DT_FLOAT"}, "SrcT": {"type": "DT_INT32"}}}, {"input": ["Cast_3"], "op": "Enter", "name": "map_2/while/mul_2/Enter", "attr": {"T": {"type": "DT_FLOAT"}, "is_constant": {"b": true}, "parallel_iterations": {"i": "16"}, "frame_name": {"s": "bWFwXzIvd2hpbGUvd2hpbGVfY29udGV4dA=="}}}, {"device": "/device:CPU:0", "input": ["FirstStageFeatureExtractor/InceptionV2/InceptionV2/Conv2d_1a_7x7/separable_conv2d/depthwise", "FirstStageFeatureExtractor/InceptionV2/InceptionV2/Conv2d_1a_7x7/separable_conv2d_weights", "FirstStageFeatureExtractor/InceptionV2/InceptionV2/Conv2d_1a_7x7/separable_conv2d_bn_offset"], "op": "_FusedConv2D", "name": "FirstStageFeatureExtractor/InceptionV2/InceptionV2/Conv2d_1a_7x7/BatchNorm/FusedBatchNormV3", "attr": {"fused_ops": {"list": {"s": ["Qmlhc0FkZA=="]}}, "epsilon": {"f": 0.0}, "num_args": {"i": "1"}, "strides": {"list": {"i": ["1", "1", "1", "1"]}}, "data_format": {"s": "TkhXQw=="}, "explicit_paddings": {"list": {}}, "T": {"type": "DT_FLOAT"}, "use_cudnn_on_gpu": {"b": true}, "padding": {"s": "VkFMSUQ="}, "dilations": {"list": {"i": ["1", "1", "1", "1"]}}}}, {"input": ["ExpandDims", "Tile/multiples"], "op": "Tile", "name": "Tile", "attr": {"Tmultiples": {"type": "DT_INT32"}, "T": {"type": "DT_INT32"}}}, {"input": ["BatchMultiClassNonMaxSuppression/map/Const", "BatchMultiClassNonMaxSuppression/map/TensorArrayUnstack_3/strided_slice", "BatchMultiClassNonMaxSuppression/map/TensorArrayUnstack_1/range/delta"], "op": "Range", "name": "BatchMultiClassNonMaxSuppression/map/TensorArrayUnstack_3/range", "attr": {"Tidx": {"type": "DT_INT32"}}}, {"input": ["Preprocessor/map/while/ResizeToRange/cond/resize_1/unstack:1"], "op": "Cast", "name": "Preprocessor/map/while/ResizeToRange/cond/resize_1/Cast_1", "attr": {"Truncate": {"b": false}, "DstT": {"type": "DT_FLOAT"}, "SrcT": {"type": "DT_INT32"}}}, {"input": ["Preprocessor/map/while/ResizeToRange/cond/resize_1/unstack:2"], "op": "Cast", "name": "Preprocessor/map/while/ResizeToRange/cond/resize_1/Cast_3", "attr": {"Truncate": {"b": false}, "DstT": {"type": "DT_FLOAT"}, "SrcT": {"type": "DT_INT32"}}}, {"input": ["Preprocessor/map/while/ResizeToRange/cond/resize/unstack:1"], "op": "Cast", "name": "Preprocessor/map/while/ResizeToRange/cond/resize/Cast_1", "attr": {"Truncate": {"b": false}, "DstT": {"type": "DT_FLOAT"}, "SrcT": {"type": "DT_INT32"}}}, {"input": ["Preprocessor/map/while/ResizeToRange/cond/resize/unstack:2"], "op": "Cast", "name": "Preprocessor/map/while/ResizeToRange/cond/resize/Cast_3", "attr": {"Truncate": {"b": false}, "DstT": {"type": "DT_FLOAT"}, "SrcT": {"type": "DT_INT32"}}}, {"input": ["Cast_1"], "op": "Unpack", "name": "ClipToWindow/unstack", "attr": {"T": {"type": "DT_FLOAT"}, "num": {"i": "4"}, "axis": {"i": "0"}}}, {"input": ["FirstStageFeatureExtractor/InceptionV2/InceptionV2/Conv2d_1a_7x7/BatchNorm/FusedBatchNormV3"], "op": "MaxPool", "name": "FirstStageFeatureExtractor/InceptionV2/InceptionV2/MaxPool_2a_3x3/MaxPool", "attr": {"T": {"type": "DT_FLOAT"}, "ksize": {"list": {"i": ["1", "3", "3", "1"]}}, "strides": {"list": {"i": ["1", "2", "2", "1"]}}, "padding": {"s": "U0FNRQ=="}, "data_format": {"s": "TkhXQw=="}}}, {"input": ["Tile"], "op": "Shape", "name": "map/TensorArrayUnstack_1/Shape", "attr": {"T": {"type": "DT_INT32"}, "out_type": {"type": "DT_INT32"}}}, {"input": ["Preprocessor/map/while/ResizeToRange/cond/resize_1/Cast", "Preprocessor/map/while/ResizeToRange/cond/resize_1/Cast_1"], "op": "RealDiv", "name": "Preprocessor/map/while/ResizeToRange/cond/resize_1/truediv", "attr": {"T": {"type": "DT_FLOAT"}}}, {"input": ["Preprocessor/map/while/ResizeToRange/cond/resize_1/Cast_2", "Preprocessor/map/while/ResizeToRange/cond/resize_1/Cast_3"], "op": "RealDiv", "name": "Preprocessor/map/while/ResizeToRange/cond/resize_1/truediv_1", "attr": {"T": {"type": "DT_FLOAT"}}}, {"input": ["Preprocessor/map/while/ResizeToRange/cond/resize/Cast", "Preprocessor/map/while/ResizeToRange/cond/resize/Cast_1"], "op": "RealDiv", "name": "Preprocessor/map/while/ResizeToRange/cond/resize/truediv", "attr": {"T": {"type": "DT_FLOAT"}}}, {"input": ["Preprocessor/map/while/ResizeToRange/cond/resize/Cast_2", "Preprocessor/map/while/ResizeToRange/cond/resize/Cast_3"], "op": "RealDiv", "name": "Preprocessor/map/while/ResizeToRange/cond/resize/truediv_1", "attr": {"T": {"type": "DT_FLOAT"}}}, {"input": ["FirstStageFeatureExtractor/InceptionV2/InceptionV2/MaxPool_2a_3x3/MaxPool"], "op": "Relu", "name": "FirstStageFeatureExtractor/InceptionV2/InceptionV2/Conv2d_1a_7x7/Relu", "attr": {"T": {"type": "DT_FLOAT"}}}, {"input": ["map/TensorArrayUnstack_1/Shape", "FirstStageBoxPredictor/strided_slice_1/stack", "FirstStageBoxPredictor/strided_slice_1/stack_1", "FirstStageBoxPredictor/strided_slice_1/stack_1"], "op": "StridedSlice", "name": "map/TensorArrayUnstack_1/strided_slice", "attr": {"begin_mask": {"i": "0"}, "ellipsis_mask": {"i": "0"}, "Index": {"type": "DT_INT32"}, "T": {"type": "DT_INT32"}, "new_axis_mask": {"i": "0"}, "end_mask": {"i": "0"}, "shrink_axis_mask": {"i": "1"}}}, {"input": ["Preprocessor/map/while/ResizeToRange/cond/resize_1/truediv", "Preprocessor/map/while/ResizeToRange/cond/resize_1/truediv_1"], "op": "Minimum", "name": "Preprocessor/map/while/ResizeToRange/cond/resize_1/Minimum", "attr": {"T": {"type": "DT_FLOAT"}}}, {"input": ["Preprocessor/map/while/ResizeToRange/cond/resize/truediv", "Preprocessor/map/while/ResizeToRange/cond/resize/truediv_1"], "op": "Minimum", "name": "Preprocessor/map/while/ResizeToRange/cond/resize/Minimum", "attr": {"T": {"type": "DT_FLOAT"}}}, {"device": "/device:CPU:0", "input": ["FirstStageFeatureExtractor/InceptionV2/InceptionV2/Conv2d_1a_7x7/Relu", "FirstStageFeatureExtractor/InceptionV2/InceptionV2/Conv2d_2b_1x1/Conv2D_weights", "FirstStageFeatureExtractor/InceptionV2/InceptionV2/Conv2d_2b_1x1/Conv2D_bn_offset"], "op": "_FusedConv2D", "name": "FirstStageFeatureExtractor/InceptionV2/InceptionV2/Conv2d_2b_1x1/Relu", "attr": {"fused_ops": {"list": {"s": ["Qmlhc0FkZA==", "UmVsdQ=="]}}, "epsilon": {"f": 0.0}, "num_args": {"i": "1"}, "strides": {"list": {"i": ["1", "1", "1", "1"]}}, "data_format": {"s": "TkhXQw=="}, "explicit_paddings": {"list": {}}, "T": {"type": "DT_FLOAT"}, "use_cudnn_on_gpu": {"b": true}, "padding": {"s": "U0FNRQ=="}, "dilations": {"list": {"i": ["1", "1", "1", "1"]}}}}, {"input": ["BatchMultiClassNonMaxSuppression/map/Const", "map/TensorArrayUnstack_1/strided_slice", "BatchMultiClassNonMaxSuppression/map/TensorArrayUnstack_1/range/delta"], "op": "Range", "name": "map/TensorArrayUnstack_1/range", "attr": {"Tidx": {"type": "DT_INT32"}}}, {"input": ["Preprocessor/map/while/ResizeToRange/cond/resize_1/Cast_1", "Preprocessor/map/while/ResizeToRange/cond/resize_1/Minimum"], "op": "Mul", "name": "Preprocessor/map/while/ResizeToRange/cond/resize_1/mul", "attr": {"T": {"type": "DT_FLOAT"}}}, {"input": ["Preprocessor/map/while/ResizeToRange/cond/resize_1/Cast_3", "Preprocessor/map/while/ResizeToRange/cond/resize_1/Minimum"], "op": "Mul", "name": "Preprocessor/map/while/ResizeToRange/cond/resize_1/mul_1", "attr": {"T": {"type": "DT_FLOAT"}}}, {"input": ["Preprocessor/map/while/ResizeToRange/cond/resize/Cast_1", "Preprocessor/map/while/ResizeToRange/cond/resize/Minimum"], "op": "Mul", "name": "Preprocessor/map/while/ResizeToRange/cond/resize/mul", "attr": {"T": {"type": "DT_FLOAT"}}}, {"input": ["Preprocessor/map/while/ResizeToRange/cond/resize/Cast_3", "Preprocessor/map/while/ResizeToRange/cond/resize/Minimum"], "op": "Mul", "name": "Preprocessor/map/while/ResizeToRange/cond/resize/mul_1", "attr": {"T": {"type": "DT_FLOAT"}}}, {"device": "/device:CPU:0", "input": ["FirstStageFeatureExtractor/InceptionV2/InceptionV2/Conv2d_2b_1x1/Relu", "FirstStageFeatureExtractor/InceptionV2/InceptionV2/Conv2d_2c_3x3/Conv2D_weights", "FirstStageFeatureExtractor/InceptionV2/InceptionV2/Conv2d_2c_3x3/Conv2D_bn_offset"], "op": "_FusedConv2D", "name": "FirstStageFeatureExtractor/InceptionV2/InceptionV2/Conv2d_2c_3x3/BatchNorm/FusedBatchNormV3", "attr": {"fused_ops": {"list": {"s": ["Qmlhc0FkZA=="]}}, "epsilon": {"f": 0.0}, "num_args": {"i": "1"}, "strides": {"list": {"i": ["1", "1", "1", "1"]}}, "data_format": {"s": "TkhXQw=="}, "explicit_paddings": {"list": {}}, "T": {"type": "DT_FLOAT"}, "use_cudnn_on_gpu": {"b": true}, "padding": {"s": "U0FNRQ=="}, "dilations": {"list": {"i": ["1", "1", "1", "1"]}}}}, {"input": ["Preprocessor/map/while/ResizeToRange/cond/resize_1/mul"], "op": "Round", "name": "Preprocessor/map/while/ResizeToRange/cond/resize_1/Round", "attr": {"T": {"type": "DT_FLOAT"}}}, {"input": ["Preprocessor/map/while/ResizeToRange/cond/resize_1/mul_1"], "op": "Round", "name": "Preprocessor/map/while/ResizeToRange/cond/resize_1/Round_1", "attr": {"T": {"type": "DT_FLOAT"}}}, {"input": ["Preprocessor/map/while/ResizeToRange/cond/resize/mul"], "op": "Round", "name": "Preprocessor/map/while/ResizeToRange/cond/resize/Round", "attr": {"T": {"type": "DT_FLOAT"}}}, {"input": ["Preprocessor/map/while/ResizeToRange/cond/resize/mul_1"], "op": "Round", "name": "Preprocessor/map/while/ResizeToRange/cond/resize/Round_1", "attr": {"T": {"type": "DT_FLOAT"}}}, {"input": ["FirstStageFeatureExtractor/InceptionV2/InceptionV2/Conv2d_2c_3x3/BatchNorm/FusedBatchNormV3"], "op": "MaxPool", "name": "FirstStageFeatureExtractor/InceptionV2/InceptionV2/MaxPool_3a_3x3/MaxPool", "attr": {"T": {"type": "DT_FLOAT"}, "ksize": {"list": {"i": ["1", "3", "3", "1"]}}, "strides": {"list": {"i": ["1", "2", "2", "1"]}}, "padding": {"s": "U0FNRQ=="}, "data_format": {"s": "TkhXQw=="}}}, {"input": ["Preprocessor/map/while/ResizeToRange/cond/resize_1/Round"], "op": "Cast", "name": "Preprocessor/map/while/ResizeToRange/cond/resize_1/Cast_5", "attr": {"Truncate": {"b": false}, "DstT": {"type": "DT_INT32"}, "SrcT": {"type": "DT_FLOAT"}}}, {"input": ["Preprocessor/map/while/ResizeToRange/cond/resize_1/Round_1"], "op": "Cast", "name": "Preprocessor/map/while/ResizeToRange/cond/resize_1/Cast_7", "attr": {"Truncate": {"b": false}, "DstT": {"type": "DT_INT32"}, "SrcT": {"type": "DT_FLOAT"}}}, {"input": ["Preprocessor/map/while/ResizeToRange/cond/resize/Round"], "op": "Cast", "name": "Preprocessor/map/while/ResizeToRange/cond/resize/Cast_5", "attr": {"Truncate": {"b": false}, "DstT": {"type": "DT_INT32"}, "SrcT": {"type": "DT_FLOAT"}}}, {"input": ["Preprocessor/map/while/ResizeToRange/cond/resize/Round_1"], "op": "Cast", "name": "Preprocessor/map/while/ResizeToRange/cond/resize/Cast_7", "attr": {"Truncate": {"b": false}, "DstT": {"type": "DT_INT32"}, "SrcT": {"type": "DT_FLOAT"}}}, {"input": ["FirstStageFeatureExtractor/InceptionV2/InceptionV2/MaxPool_3a_3x3/MaxPool"], "op": "Relu", "name": "FirstStageFeatureExtractor/InceptionV2/InceptionV2/Conv2d_2c_3x3/Relu", "attr": {"T": {"type": "DT_FLOAT"}}}, {"input": ["Preprocessor/map/while/ResizeToRange/cond/resize_1/Cast_5", "Preprocessor/map/while/ResizeToRange/cond/resize_1/Cast_7"], "op": "Pack", "name": "Preprocessor/map/while/ResizeToRange/cond/resize_1/size", "attr": {"T": {"type": "DT_INT32"}, "N": {"i": "2"}, "axis": {"i": "0"}}}, {"input": ["Preprocessor/map/while/ResizeToRange/cond/resize/Cast_5", "Preprocessor/map/while/ResizeToRange/cond/resize/Cast_7"], "op": "Pack", "name": "Preprocessor/map/while/ResizeToRange/cond/resize/size", "attr": {"T": {"type": "DT_INT32"}, "N": {"i": "2"}, "axis": {"i": "0"}}}, {"input": ["FirstStageFeatureExtractor/InceptionV2/InceptionV2/Conv2d_2c_3x3/Relu"], "op": "AvgPool", "name": "FirstStageFeatureExtractor/InceptionV2/InceptionV2/Mixed_3b/Branch_3/AvgPool_0a_3x3/AvgPool", "attr": {"T": {"type": "DT_FLOAT"}, "ksize": {"list": {"i": ["1", "3", "3", "1"]}}, "strides": {"list": {"i": ["1", "1", "1", "1"]}}, "padding": {"s": "U0FNRQ=="}, "data_format": {"s": "TkhXQw=="}}}, {"device": "/device:CPU:0", "input": ["FirstStageFeatureExtractor/InceptionV2/InceptionV2/Conv2d_2c_3x3/Relu", "FirstStageFeatureExtractor/InceptionV2/InceptionV2/Mixed_3b/Branch_0/Conv2d_0a_1x1/Conv2D_weights", "FirstStageFeatureExtractor/InceptionV2/InceptionV2/Mixed_3b/Branch_0/Conv2d_0a_1x1/Conv2D_bn_offset"], "op": "_FusedConv2D", "name": "FirstStageFeatureExtractor/InceptionV2/InceptionV2/Mixed_3b/Branch_0/Conv2d_0a_1x1/BatchNorm/FusedBatchNormV3", "attr": {"fused_ops": {"list": {"s": ["Qmlhc0FkZA=="]}}, "epsilon": {"f": 0.0}, "num_args": {"i": "1"}, "strides": {"list": {"i": ["1", "1", "1", "1"]}}, "data_format": {"s": "TkhXQw=="}, "explicit_paddings": {"list": {}}, "T": {"type": "DT_FLOAT"}, "use_cudnn_on_gpu": {"b": true}, "padding": {"s": "U0FNRQ=="}, "dilations": {"list": {"i": ["1", "1", "1", "1"]}}}}, {"device": "/device:CPU:0", "input": ["FirstStageFeatureExtractor/InceptionV2/InceptionV2/Conv2d_2c_3x3/Relu", "FirstStageFeatureExtractor/InceptionV2/InceptionV2/Mixed_3b/Branch_1/Conv2d_0a_1x1/Conv2D_weights", "FirstStageFeatureExtractor/InceptionV2/InceptionV2/Mixed_3b/Branch_1/Conv2d_0a_1x1/Conv2D_bn_offset"], "op": "_FusedConv2D", "name": "FirstStageFeatureExtractor/InceptionV2/InceptionV2/Mixed_3b/Branch_1/Conv2d_0a_1x1/Relu", "attr": {"fused_ops": {"list": {"s": ["Qmlhc0FkZA==", "UmVsdQ=="]}}, "epsilon": {"f": 0.0}, "num_args": {"i": "1"}, "strides": {"list": {"i": ["1", "1", "1", "1"]}}, "data_format": {"s": "TkhXQw=="}, "explicit_paddings": {"list": {}}, "T": {"type": "DT_FLOAT"}, "use_cudnn_on_gpu": {"b": true}, "padding": {"s": "U0FNRQ=="}, "dilations": {"list": {"i": ["1", "1", "1", "1"]}}}}, {"device": "/device:CPU:0", "input": ["FirstStageFeatureExtractor/InceptionV2/InceptionV2/Conv2d_2c_3x3/Relu", "FirstStageFeatureExtractor/InceptionV2/InceptionV2/Mixed_3b/Branch_2/Conv2d_0a_1x1/Conv2D_weights", "FirstStageFeatureExtractor/InceptionV2/InceptionV2/Mixed_3b/Branch_2/Conv2d_0a_1x1/Conv2D_bn_offset"], "op": "_FusedConv2D", "name": "FirstStageFeatureExtractor/InceptionV2/InceptionV2/Mixed_3b/Branch_2/Conv2d_0a_1x1/Relu", "attr": {"fused_ops": {"list": {"s": ["Qmlhc0FkZA==", "UmVsdQ=="]}}, "epsilon": {"f": 0.0}, "num_args": {"i": "1"}, "strides": {"list": {"i": ["1", "1", "1", "1"]}}, "data_format": {"s": "TkhXQw=="}, "explicit_paddings": {"list": {}}, "T": {"type": "DT_FLOAT"}, "use_cudnn_on_gpu": {"b": true}, "padding": {"s": "U0FNRQ=="}, "dilations": {"list": {"i": ["1", "1", "1", "1"]}}}}, {"input": ["Preprocessor/map/while/ResizeToRange/cond/resize_1/ExpandDims", "Preprocessor/map/while/ResizeToRange/cond/resize_1/size"], "op": "ResizeBilinear", "name": "Preprocessor/map/while/ResizeToRange/cond/resize_1/ResizeBilinear", "attr": {"half_pixel_centers": {"b": false}, "align_corners": {"b": false}, "T": {"type": "DT_FLOAT"}}}, {"input": ["Preprocessor/map/while/ResizeToRange/cond/resize/ExpandDims", "Preprocessor/map/while/ResizeToRange/cond/resize/size"], "op": "ResizeBilinear", "name": "Preprocessor/map/while/ResizeToRange/cond/resize/ResizeBilinear", "attr": {"half_pixel_centers": {"b": false}, "align_corners": {"b": false}, "T": {"type": "DT_FLOAT"}}}, {"device": "/device:CPU:0", "input": ["FirstStageFeatureExtractor/InceptionV2/InceptionV2/Mixed_3b/Branch_3/AvgPool_0a_3x3/AvgPool", "FirstStageFeatureExtractor/InceptionV2/InceptionV2/Mixed_3b/Branch_3/Conv2d_0b_1x1/Conv2D_weights", "FirstStageFeatureExtractor/InceptionV2/InceptionV2/Mixed_3b/Branch_3/Conv2d_0b_1x1/Conv2D_bn_offset"], "op": "_FusedConv2D", "name": "FirstStageFeatureExtractor/InceptionV2/InceptionV2/Mixed_3b/Branch_3/Conv2d_0b_1x1/BatchNorm/FusedBatchNormV3", "attr": {"fused_ops": {"list": {"s": ["Qmlhc0FkZA=="]}}, "epsilon": {"f": 0.0}, "num_args": {"i": "1"}, "strides": {"list": {"i": ["1", "1", "1", "1"]}}, "data_format": {"s": "TkhXQw=="}, "explicit_paddings": {"list": {}}, "T": {"type": "DT_FLOAT"}, "use_cudnn_on_gpu": {"b": true}, "padding": {"s": "U0FNRQ=="}, "dilations": {"list": {"i": ["1", "1", "1", "1"]}}}}, {"device": "/device:CPU:0", "input": ["FirstStageFeatureExtractor/InceptionV2/InceptionV2/Mixed_3b/Branch_1/Conv2d_0a_1x1/Relu", "FirstStageFeatureExtractor/InceptionV2/InceptionV2/Mixed_3b/Branch_1/Conv2d_0b_3x3/Conv2D_weights", "FirstStageFeatureExtractor/InceptionV2/InceptionV2/Mixed_3b/Branch_1/Conv2d_0b_3x3/Conv2D_bn_offset"], "op": "_FusedConv2D", "name": "FirstStageFeatureExtractor/InceptionV2/InceptionV2/Mixed_3b/Branch_1/Conv2d_0b_3x3/BatchNorm/FusedBatchNormV3", "attr": {"fused_ops": {"list": {"s": ["Qmlhc0FkZA=="]}}, "epsilon": {"f": 0.0}, "num_args": {"i": "1"}, "strides": {"list": {"i": ["1", "1", "1", "1"]}}, "data_format": {"s": "TkhXQw=="}, "explicit_paddings": {"list": {}}, "T": {"type": "DT_FLOAT"}, "use_cudnn_on_gpu": {"b": true}, "padding": {"s": "U0FNRQ=="}, "dilations": {"list": {"i": ["1", "1", "1", "1"]}}}}, {"device": "/device:CPU:0", "input": ["FirstStageFeatureExtractor/InceptionV2/InceptionV2/Mixed_3b/Branch_2/Conv2d_0a_1x1/Relu", "FirstStageFeatureExtractor/InceptionV2/InceptionV2/Mixed_3b/Branch_2/Conv2d_0b_3x3/Conv2D_weights", "FirstStageFeatureExtractor/InceptionV2/InceptionV2/Mixed_3b/Branch_2/Conv2d_0b_3x3/Conv2D_bn_offset"], "op": "_FusedConv2D", "name": "FirstStageFeatureExtractor/InceptionV2/InceptionV2/Mixed_3b/Branch_2/Conv2d_0b_3x3/Relu", "attr": {"fused_ops": {"list": {"s": ["Qmlhc0FkZA==", "UmVsdQ=="]}}, "epsilon": {"f": 0.0}, "num_args": {"i": "1"}, "strides": {"list": {"i": ["1", "1", "1", "1"]}}, "data_format": {"s": "TkhXQw=="}, "explicit_paddings": {"list": {}}, "T": {"type": "DT_FLOAT"}, "use_cudnn_on_gpu": {"b": true}, "padding": {"s": "U0FNRQ=="}, "dilations": {"list": {"i": ["1", "1", "1", "1"]}}}}, {"input": ["Preprocessor/map/while/ResizeToRange/cond/resize_1/ResizeBilinear"], "op": "Squeeze", "name": "Preprocessor/map/while/ResizeToRange/cond/resize_1/Squeeze", "attr": {"T": {"type": "DT_FLOAT"}, "squeeze_dims": {"list": {"i": ["0"]}}}}, {"input": ["Preprocessor/map/while/ResizeToRange/cond/resize/ResizeBilinear"], "op": "Squeeze", "name": "Preprocessor/map/while/ResizeToRange/cond/resize/Squeeze", "attr": {"T": {"type": "DT_FLOAT"}, "squeeze_dims": {"list": {"i": ["0"]}}}}, {"device": "/device:CPU:0", "input": ["FirstStageFeatureExtractor/InceptionV2/InceptionV2/Mixed_3b/Branch_2/Conv2d_0b_3x3/Relu", "FirstStageFeatureExtractor/InceptionV2/InceptionV2/Mixed_3b/Branch_2/Conv2d_0c_3x3/Conv2D_weights", "FirstStageFeatureExtractor/InceptionV2/InceptionV2/Mixed_3b/Branch_2/Conv2d_0c_3x3/Conv2D_bn_offset"], "op": "_FusedConv2D", "name": "FirstStageFeatureExtractor/InceptionV2/InceptionV2/Mixed_3b/Branch_2/Conv2d_0c_3x3/BatchNorm/FusedBatchNormV3", "attr": {"fused_ops": {"list": {"s": ["Qmlhc0FkZA=="]}}, "epsilon": {"f": 0.0}, "num_args": {"i": "1"}, "strides": {"list": {"i": ["1", "1", "1", "1"]}}, "data_format": {"s": "TkhXQw=="}, "explicit_paddings": {"list": {}}, "T": {"type": "DT_FLOAT"}, "use_cudnn_on_gpu": {"b": true}, "padding": {"s": "U0FNRQ=="}, "dilations": {"list": {"i": ["1", "1", "1", "1"]}}}}, {"input": ["Preprocessor/map/while/ResizeToRange/cond/resize_1/Squeeze", "Preprocessor/map/while/ResizeToRange/cond/resize/Squeeze"], "op": "Merge", "name": "Preprocessor/map/while/ResizeToRange/cond/Merge", "attr": {"T": {"type": "DT_FLOAT"}, "N": {"i": "2"}}}, {"input": ["FirstStageFeatureExtractor/InceptionV2/InceptionV2/Mixed_3b/Branch_0/Conv2d_0a_1x1/BatchNorm/FusedBatchNormV3", "FirstStageFeatureExtractor/InceptionV2/InceptionV2/Mixed_3b/Branch_1/Conv2d_0b_3x3/BatchNorm/FusedBatchNormV3", "FirstStageFeatureExtractor/InceptionV2/InceptionV2/Mixed_3b/Branch_2/Conv2d_0c_3x3/BatchNorm/FusedBatchNormV3", "FirstStageFeatureExtractor/InceptionV2/InceptionV2/Mixed_3b/Branch_3/Conv2d_0b_1x1/BatchNorm/FusedBatchNormV3", "FirstStageFeatureExtractor/InceptionV2/InceptionV2/Mixed_3b/concat/axis"], "op": "ConcatV2", "name": "FirstStageFeatureExtractor/InceptionV2/InceptionV2/Mixed_3b/concat", "attr": {"T": {"type": "DT_FLOAT"}, "N": {"i": "4"}, "Tidx": {"type": "DT_INT32"}}}, {"input": ["Preprocessor/map/while/ResizeToRange/cond/Merge"], "op": "Shape", "name": "Preprocessor/map/while/ResizeToRange/Shape_2", "attr": {"T": {"type": "DT_FLOAT"}, "out_type": {"type": "DT_INT32"}}}, {"input": ["Preprocessor/map/while/TensorArrayWrite/TensorArrayWriteV3/Enter", "Preprocessor/map/while/Switch_1:1", "Preprocessor/map/while/ResizeToRange/cond/Merge", "Preprocessor/map/while/Switch_2:1"], "op": "TensorArrayWriteV3", "name": "Preprocessor/map/while/TensorArrayWrite/TensorArrayWriteV3", "attr": {"T": {"type": "DT_FLOAT"}}}, {"input": ["FirstStageFeatureExtractor/InceptionV2/InceptionV2/Mixed_3b/concat"], "op": "Relu", "name": "FirstStageFeatureExtractor/InceptionV2/InceptionV2/Mixed_3b/Branch_0/Conv2d_0a_1x1/Relu", "attr": {"T": {"type": "DT_FLOAT"}}}, {"input": ["Preprocessor/map/while/TensorArrayWrite_1/TensorArrayWriteV3/Enter", "Preprocessor/map/while/Switch_1:1", "Preprocessor/map/while/ResizeToRange/Shape_2", "Preprocessor/map/while/Switch_3:1"], "op": "TensorArrayWriteV3", "name": "Preprocessor/map/while/TensorArrayWrite_1/TensorArrayWriteV3", "attr": {"T": {"type": "DT_INT32"}}}, {"input": ["Preprocessor/map/while/TensorArrayWrite/TensorArrayWriteV3"], "op": "NextIteration", "name": "Preprocessor/map/while/NextIteration_2", "attr": {"T": {"type": "DT_FLOAT"}}}, {"input": ["FirstStageFeatureExtractor/InceptionV2/InceptionV2/Mixed_3b/Branch_0/Conv2d_0a_1x1/Relu"], "op": "AvgPool", "name": "FirstStageFeatureExtractor/InceptionV2/InceptionV2/Mixed_3c/Branch_3/AvgPool_0a_3x3/AvgPool", "attr": {"T": {"type": "DT_FLOAT"}, "ksize": {"list": {"i": ["1", "3", "3", "1"]}}, "strides": {"list": {"i": ["1", "1", "1", "1"]}}, "padding": {"s": "U0FNRQ=="}, "data_format": {"s": "TkhXQw=="}}}, {"device": "/device:CPU:0", "input": ["FirstStageFeatureExtractor/InceptionV2/InceptionV2/Mixed_3b/Branch_0/Conv2d_0a_1x1/Relu", "FirstStageFeatureExtractor/InceptionV2/InceptionV2/Mixed_3c/Branch_0/Conv2d_0a_1x1/Conv2D_weights", "FirstStageFeatureExtractor/InceptionV2/InceptionV2/Mixed_3c/Branch_0/Conv2d_0a_1x1/Conv2D_bn_offset"], "op": "_FusedConv2D", "name": "FirstStageFeatureExtractor/InceptionV2/InceptionV2/Mixed_3c/Branch_0/Conv2d_0a_1x1/BatchNorm/FusedBatchNormV3", "attr": {"fused_ops": {"list": {"s": ["Qmlhc0FkZA=="]}}, "epsilon": {"f": 0.0}, "num_args": {"i": "1"}, "strides": {"list": {"i": ["1", "1", "1", "1"]}}, "data_format": {"s": "TkhXQw=="}, "explicit_paddings": {"list": {}}, "T": {"type": "DT_FLOAT"}, "use_cudnn_on_gpu": {"b": true}, "padding": {"s": "U0FNRQ=="}, "dilations": {"list": {"i": ["1", "1", "1", "1"]}}}}, {"device": "/device:CPU:0", "input": ["FirstStageFeatureExtractor/InceptionV2/InceptionV2/Mixed_3b/Branch_0/Conv2d_0a_1x1/Relu", "FirstStageFeatureExtractor/InceptionV2/InceptionV2/Mixed_3c/Branch_1/Conv2d_0a_1x1/Conv2D_weights", "FirstStageFeatureExtractor/InceptionV2/InceptionV2/Mixed_3c/Branch_1/Conv2d_0a_1x1/Conv2D_bn_offset"], "op": "_FusedConv2D", "name": "FirstStageFeatureExtractor/InceptionV2/InceptionV2/Mixed_3c/Branch_1/Conv2d_0a_1x1/Relu", "attr": {"fused_ops": {"list": {"s": ["Qmlhc0FkZA==", "UmVsdQ=="]}}, "epsilon": {"f": 0.0}, "num_args": {"i": "1"}, "strides": {"list": {"i": ["1", "1", "1", "1"]}}, "data_format": {"s": "TkhXQw=="}, "explicit_paddings": {"list": {}}, "T": {"type": "DT_FLOAT"}, "use_cudnn_on_gpu": {"b": true}, "padding": {"s": "U0FNRQ=="}, "dilations": {"list": {"i": ["1", "1", "1", "1"]}}}}, {"device": "/device:CPU:0", "input": ["FirstStageFeatureExtractor/InceptionV2/InceptionV2/Mixed_3b/Branch_0/Conv2d_0a_1x1/Relu", "FirstStageFeatureExtractor/InceptionV2/InceptionV2/Mixed_3c/Branch_2/Conv2d_0a_1x1/Conv2D_weights", "FirstStageFeatureExtractor/InceptionV2/InceptionV2/Mixed_3c/Branch_2/Conv2d_0a_1x1/Conv2D_bn_offset"], "op": "_FusedConv2D", "name": "FirstStageFeatureExtractor/InceptionV2/InceptionV2/Mixed_3c/Branch_2/Conv2d_0a_1x1/Relu", "attr": {"fused_ops": {"list": {"s": ["Qmlhc0FkZA==", "UmVsdQ=="]}}, "epsilon": {"f": 0.0}, "num_args": {"i": "1"}, "strides": {"list": {"i": ["1", "1", "1", "1"]}}, "data_format": {"s": "TkhXQw=="}, "explicit_paddings": {"list": {}}, "T": {"type": "DT_FLOAT"}, "use_cudnn_on_gpu": {"b": true}, "padding": {"s": "U0FNRQ=="}, "dilations": {"list": {"i": ["1", "1", "1", "1"]}}}}, {"input": ["Preprocessor/map/while/TensorArrayWrite_1/TensorArrayWriteV3"], "op": "NextIteration", "name": "Preprocessor/map/while/NextIteration_3", "attr": {"T": {"type": "DT_FLOAT"}}}, {"device": "/device:CPU:0", "input": ["FirstStageFeatureExtractor/InceptionV2/InceptionV2/Mixed_3c/Branch_3/AvgPool_0a_3x3/AvgPool", "FirstStageFeatureExtractor/InceptionV2/InceptionV2/Mixed_3c/Branch_3/Conv2d_0b_1x1/Conv2D_weights", "FirstStageFeatureExtractor/InceptionV2/InceptionV2/Mixed_3c/Branch_3/Conv2d_0b_1x1/Conv2D_bn_offset"], "op": "_FusedConv2D", "name": "FirstStageFeatureExtractor/InceptionV2/InceptionV2/Mixed_3c/Branch_3/Conv2d_0b_1x1/BatchNorm/FusedBatchNormV3", "attr": {"fused_ops": {"list": {"s": ["Qmlhc0FkZA=="]}}, "epsilon": {"f": 0.0}, "num_args": {"i": "1"}, "strides": {"list": {"i": ["1", "1", "1", "1"]}}, "data_format": {"s": "TkhXQw=="}, "explicit_paddings": {"list": {}}, "T": {"type": "DT_FLOAT"}, "use_cudnn_on_gpu": {"b": true}, "padding": {"s": "U0FNRQ=="}, "dilations": {"list": {"i": ["1", "1", "1", "1"]}}}}, {"device": "/device:CPU:0", "input": ["FirstStageFeatureExtractor/InceptionV2/InceptionV2/Mixed_3c/Branch_1/Conv2d_0a_1x1/Relu", "FirstStageFeatureExtractor/InceptionV2/InceptionV2/Mixed_3c/Branch_1/Conv2d_0b_3x3/Conv2D_weights", "FirstStageFeatureExtractor/InceptionV2/InceptionV2/Mixed_3c/Branch_1/Conv2d_0b_3x3/Conv2D_bn_offset"], "op": "_FusedConv2D", "name": "FirstStageFeatureExtractor/InceptionV2/InceptionV2/Mixed_3c/Branch_1/Conv2d_0b_3x3/BatchNorm/FusedBatchNormV3", "attr": {"fused_ops": {"list": {"s": ["Qmlhc0FkZA=="]}}, "epsilon": {"f": 0.0}, "num_args": {"i": "1"}, "strides": {"list": {"i": ["1", "1", "1", "1"]}}, "data_format": {"s": "TkhXQw=="}, "explicit_paddings": {"list": {}}, "T": {"type": "DT_FLOAT"}, "use_cudnn_on_gpu": {"b": true}, "padding": {"s": "U0FNRQ=="}, "dilations": {"list": {"i": ["1", "1", "1", "1"]}}}}, {"device": "/device:CPU:0", "input": ["FirstStageFeatureExtractor/InceptionV2/InceptionV2/Mixed_3c/Branch_2/Conv2d_0a_1x1/Relu", "FirstStageFeatureExtractor/InceptionV2/InceptionV2/Mixed_3c/Branch_2/Conv2d_0b_3x3/Conv2D_weights", "FirstStageFeatureExtractor/InceptionV2/InceptionV2/Mixed_3c/Branch_2/Conv2d_0b_3x3/Conv2D_bn_offset"], "op": "_FusedConv2D", "name": "FirstStageFeatureExtractor/InceptionV2/InceptionV2/Mixed_3c/Branch_2/Conv2d_0b_3x3/Relu", "attr": {"fused_ops": {"list": {"s": ["Qmlhc0FkZA==", "UmVsdQ=="]}}, "epsilon": {"f": 0.0}, "num_args": {"i": "1"}, "strides": {"list": {"i": ["1", "1", "1", "1"]}}, "data_format": {"s": "TkhXQw=="}, "explicit_paddings": {"list": {}}, "T": {"type": "DT_FLOAT"}, "use_cudnn_on_gpu": {"b": true}, "padding": {"s": "U0FNRQ=="}, "dilations": {"list": {"i": ["1", "1", "1", "1"]}}}}, {"device": "/device:CPU:0", "input": ["FirstStageFeatureExtractor/InceptionV2/InceptionV2/Mixed_3c/Branch_2/Conv2d_0b_3x3/Relu", "FirstStageFeatureExtractor/InceptionV2/InceptionV2/Mixed_3c/Branch_2/Conv2d_0c_3x3/Conv2D_weights", "FirstStageFeatureExtractor/InceptionV2/InceptionV2/Mixed_3c/Branch_2/Conv2d_0c_3x3/Conv2D_bn_offset"], "op": "_FusedConv2D", "name": "FirstStageFeatureExtractor/InceptionV2/InceptionV2/Mixed_3c/Branch_2/Conv2d_0c_3x3/BatchNorm/FusedBatchNormV3", "attr": {"fused_ops": {"list": {"s": ["Qmlhc0FkZA=="]}}, "epsilon": {"f": 0.0}, "num_args": {"i": "1"}, "strides": {"list": {"i": ["1", "1", "1", "1"]}}, "data_format": {"s": "TkhXQw=="}, "explicit_paddings": {"list": {}}, "T": {"type": "DT_FLOAT"}, "use_cudnn_on_gpu": {"b": true}, "padding": {"s": "U0FNRQ=="}, "dilations": {"list": {"i": ["1", "1", "1", "1"]}}}}, {"input": ["FirstStageFeatureExtractor/InceptionV2/InceptionV2/Mixed_3c/Branch_0/Conv2d_0a_1x1/BatchNorm/FusedBatchNormV3", "FirstStageFeatureExtractor/InceptionV2/InceptionV2/Mixed_3c/Branch_1/Conv2d_0b_3x3/BatchNorm/FusedBatchNormV3", "FirstStageFeatureExtractor/InceptionV2/InceptionV2/Mixed_3c/Branch_2/Conv2d_0c_3x3/BatchNorm/FusedBatchNormV3", "FirstStageFeatureExtractor/InceptionV2/InceptionV2/Mixed_3c/Branch_3/Conv2d_0b_1x1/BatchNorm/FusedBatchNormV3", "FirstStageFeatureExtractor/InceptionV2/InceptionV2/Mixed_3b/concat/axis"], "op": "ConcatV2", "name": "FirstStageFeatureExtractor/InceptionV2/InceptionV2/Mixed_3c/concat", "attr": {"T": {"type": "DT_FLOAT"}, "N": {"i": "4"}, "Tidx": {"type": "DT_INT32"}}}, {"input": ["FirstStageFeatureExtractor/InceptionV2/InceptionV2/Mixed_3c/concat"], "op": "Relu", "name": "FirstStageFeatureExtractor/InceptionV2/InceptionV2/Mixed_3c/Branch_0/Conv2d_0a_1x1/Relu", "attr": {"T": {"type": "DT_FLOAT"}}}, {"input": ["FirstStageFeatureExtractor/InceptionV2/InceptionV2/Mixed_3c/Branch_0/Conv2d_0a_1x1/Relu"], "op": "MaxPool", "name": "FirstStageFeatureExtractor/InceptionV2/InceptionV2/Mixed_4a/Branch_2/MaxPool_1a_3x3/MaxPool", "attr": {"T": {"type": "DT_FLOAT"}, "ksize": {"list": {"i": ["1", "3", "3", "1"]}}, "strides": {"list": {"i": ["1", "2", "2", "1"]}}, "padding": {"s": "U0FNRQ=="}, "data_format": {"s": "TkhXQw=="}}}, {"device": "/device:CPU:0", "input": ["FirstStageFeatureExtractor/InceptionV2/InceptionV2/Mixed_3c/Branch_0/Conv2d_0a_1x1/Relu", "FirstStageFeatureExtractor/InceptionV2/InceptionV2/Mixed_4a/Branch_0/Conv2d_0a_1x1/Conv2D_weights", "FirstStageFeatureExtractor/InceptionV2/InceptionV2/Mixed_4a/Branch_0/Conv2d_0a_1x1/Conv2D_bn_offset"], "op": "_FusedConv2D", "name": "FirstStageFeatureExtractor/InceptionV2/InceptionV2/Mixed_4a/Branch_0/Conv2d_0a_1x1/Relu", "attr": {"fused_ops": {"list": {"s": ["Qmlhc0FkZA==", "UmVsdQ=="]}}, "epsilon": {"f": 0.0}, "num_args": {"i": "1"}, "strides": {"list": {"i": ["1", "1", "1", "1"]}}, "data_format": {"s": "TkhXQw=="}, "explicit_paddings": {"list": {}}, "T": {"type": "DT_FLOAT"}, "use_cudnn_on_gpu": {"b": true}, "padding": {"s": "U0FNRQ=="}, "dilations": {"list": {"i": ["1", "1", "1", "1"]}}}}, {"device": "/device:CPU:0", "input": ["FirstStageFeatureExtractor/InceptionV2/InceptionV2/Mixed_3c/Branch_0/Conv2d_0a_1x1/Relu", "FirstStageFeatureExtractor/InceptionV2/InceptionV2/Mixed_4a/Branch_1/Conv2d_0a_1x1/Conv2D_weights", "FirstStageFeatureExtractor/InceptionV2/InceptionV2/Mixed_4a/Branch_1/Conv2d_0a_1x1/Conv2D_bn_offset"], "op": "_FusedConv2D", "name": "FirstStageFeatureExtractor/InceptionV2/InceptionV2/Mixed_4a/Branch_1/Conv2d_0a_1x1/Relu", "attr": {"fused_ops": {"list": {"s": ["Qmlhc0FkZA==", "UmVsdQ=="]}}, "epsilon": {"f": 0.0}, "num_args": {"i": "1"}, "strides": {"list": {"i": ["1", "1", "1", "1"]}}, "data_format": {"s": "TkhXQw=="}, "explicit_paddings": {"list": {}}, "T": {"type": "DT_FLOAT"}, "use_cudnn_on_gpu": {"b": true}, "padding": {"s": "U0FNRQ=="}, "dilations": {"list": {"i": ["1", "1", "1", "1"]}}}}, {"device": "/device:CPU:0", "input": ["FirstStageFeatureExtractor/InceptionV2/InceptionV2/Mixed_4a/Branch_0/Conv2d_0a_1x1/Relu", "FirstStageFeatureExtractor/InceptionV2/InceptionV2/Mixed_4a/Branch_0/Conv2d_1a_3x3/Conv2D_weights", "FirstStageFeatureExtractor/InceptionV2/InceptionV2/Mixed_4a/Branch_0/Conv2d_1a_3x3/Conv2D_bn_offset"], "op": "_FusedConv2D", "name": "FirstStageFeatureExtractor/InceptionV2/InceptionV2/Mixed_4a/Branch_0/Conv2d_1a_3x3/Relu", "attr": {"fused_ops": {"list": {"s": ["Qmlhc0FkZA==", "UmVsdQ=="]}}, "epsilon": {"f": 0.0}, "num_args": {"i": "1"}, "strides": {"list": {"i": ["1", "2", "2", "1"]}}, "data_format": {"s": "TkhXQw=="}, "explicit_paddings": {"list": {}}, "T": {"type": "DT_FLOAT"}, "use_cudnn_on_gpu": {"b": true}, "padding": {"s": "U0FNRQ=="}, "dilations": {"list": {"i": ["1", "1", "1", "1"]}}}}, {"device": "/device:CPU:0", "input": ["FirstStageFeatureExtractor/InceptionV2/InceptionV2/Mixed_4a/Branch_1/Conv2d_0a_1x1/Relu", "FirstStageFeatureExtractor/InceptionV2/InceptionV2/Mixed_4a/Branch_1/Conv2d_0b_3x3/Conv2D_weights", "FirstStageFeatureExtractor/InceptionV2/InceptionV2/Mixed_4a/Branch_1/Conv2d_0b_3x3/Conv2D_bn_offset"], "op": "_FusedConv2D", "name": "FirstStageFeatureExtractor/InceptionV2/InceptionV2/Mixed_4a/Branch_1/Conv2d_0b_3x3/Relu", "attr": {"fused_ops": {"list": {"s": ["Qmlhc0FkZA==", "UmVsdQ=="]}}, "epsilon": {"f": 0.0}, "num_args": {"i": "1"}, "strides": {"list": {"i": ["1", "1", "1", "1"]}}, "data_format": {"s": "TkhXQw=="}, "explicit_paddings": {"list": {}}, "T": {"type": "DT_FLOAT"}, "use_cudnn_on_gpu": {"b": true}, "padding": {"s": "U0FNRQ=="}, "dilations": {"list": {"i": ["1", "1", "1", "1"]}}}}, {"device": "/device:CPU:0", "input": ["FirstStageFeatureExtractor/InceptionV2/InceptionV2/Mixed_4a/Branch_1/Conv2d_0b_3x3/Relu", "FirstStageFeatureExtractor/InceptionV2/InceptionV2/Mixed_4a/Branch_1/Conv2d_1a_3x3/Conv2D_weights", "FirstStageFeatureExtractor/InceptionV2/InceptionV2/Mixed_4a/Branch_1/Conv2d_1a_3x3/Conv2D_bn_offset"], "op": "_FusedConv2D", "name": "FirstStageFeatureExtractor/InceptionV2/InceptionV2/Mixed_4a/Branch_1/Conv2d_1a_3x3/Relu", "attr": {"fused_ops": {"list": {"s": ["Qmlhc0FkZA==", "UmVsdQ=="]}}, "epsilon": {"f": 0.0}, "num_args": {"i": "1"}, "strides": {"list": {"i": ["1", "2", "2", "1"]}}, "data_format": {"s": "TkhXQw=="}, "explicit_paddings": {"list": {}}, "T": {"type": "DT_FLOAT"}, "use_cudnn_on_gpu": {"b": true}, "padding": {"s": "U0FNRQ=="}, "dilations": {"list": {"i": ["1", "1", "1", "1"]}}}}, {"input": ["FirstStageFeatureExtractor/InceptionV2/InceptionV2/Mixed_4a/Branch_0/Conv2d_1a_3x3/Relu", "FirstStageFeatureExtractor/InceptionV2/InceptionV2/Mixed_4a/Branch_1/Conv2d_1a_3x3/Relu", "FirstStageFeatureExtractor/InceptionV2/InceptionV2/Mixed_4a/Branch_2/MaxPool_1a_3x3/MaxPool", "FirstStageFeatureExtractor/InceptionV2/InceptionV2/Mixed_3b/concat/axis"], "op": "ConcatV2", "name": "FirstStageFeatureExtractor/InceptionV2/InceptionV2/Mixed_4a/concat", "attr": {"T": {"type": "DT_FLOAT"}, "N": {"i": "3"}, "Tidx": {"type": "DT_INT32"}}}, {"input": ["FirstStageFeatureExtractor/InceptionV2/InceptionV2/Mixed_4a/concat"], "op": "AvgPool", "name": "FirstStageFeatureExtractor/InceptionV2/InceptionV2/Mixed_4b/Branch_3/AvgPool_0a_3x3/AvgPool", "attr": {"T": {"type": "DT_FLOAT"}, "ksize": {"list": {"i": ["1", "3", "3", "1"]}}, "strides": {"list": {"i": ["1", "1", "1", "1"]}}, "padding": {"s": "U0FNRQ=="}, "data_format": {"s": "TkhXQw=="}}}, {"device": "/device:CPU:0", "input": ["FirstStageFeatureExtractor/InceptionV2/InceptionV2/Mixed_4a/concat", "FirstStageFeatureExtractor/InceptionV2/InceptionV2/Mixed_4b/Branch_0/Conv2d_0a_1x1/Conv2D_weights", "FirstStageFeatureExtractor/InceptionV2/InceptionV2/Mixed_4b/Branch_0/Conv2d_0a_1x1/Conv2D_bn_offset"], "op": "_FusedConv2D", "name": "FirstStageFeatureExtractor/InceptionV2/InceptionV2/Mixed_4b/Branch_0/Conv2d_0a_1x1/BatchNorm/FusedBatchNormV3", "attr": {"fused_ops": {"list": {"s": ["Qmlhc0FkZA=="]}}, "epsilon": {"f": 0.0}, "num_args": {"i": "1"}, "strides": {"list": {"i": ["1", "1", "1", "1"]}}, "data_format": {"s": "TkhXQw=="}, "explicit_paddings": {"list": {}}, "T": {"type": "DT_FLOAT"}, "use_cudnn_on_gpu": {"b": true}, "padding": {"s": "U0FNRQ=="}, "dilations": {"list": {"i": ["1", "1", "1", "1"]}}}}, {"device": "/device:CPU:0", "input": ["FirstStageFeatureExtractor/InceptionV2/InceptionV2/Mixed_4a/concat", "FirstStageFeatureExtractor/InceptionV2/InceptionV2/Mixed_4b/Branch_1/Conv2d_0a_1x1/Conv2D_weights", "FirstStageFeatureExtractor/InceptionV2/InceptionV2/Mixed_4b/Branch_1/Conv2d_0a_1x1/Conv2D_bn_offset"], "op": "_FusedConv2D", "name": "FirstStageFeatureExtractor/InceptionV2/InceptionV2/Mixed_4b/Branch_1/Conv2d_0a_1x1/Relu", "attr": {"fused_ops": {"list": {"s": ["Qmlhc0FkZA==", "UmVsdQ=="]}}, "epsilon": {"f": 0.0}, "num_args": {"i": "1"}, "strides": {"list": {"i": ["1", "1", "1", "1"]}}, "data_format": {"s": "TkhXQw=="}, "explicit_paddings": {"list": {}}, "T": {"type": "DT_FLOAT"}, "use_cudnn_on_gpu": {"b": true}, "padding": {"s": "U0FNRQ=="}, "dilations": {"list": {"i": ["1", "1", "1", "1"]}}}}, {"device": "/device:CPU:0", "input": ["FirstStageFeatureExtractor/InceptionV2/InceptionV2/Mixed_4a/concat", "FirstStageFeatureExtractor/InceptionV2/InceptionV2/Mixed_4b/Branch_2/Conv2d_0a_1x1/Conv2D_weights", "FirstStageFeatureExtractor/InceptionV2/InceptionV2/Mixed_4b/Branch_2/Conv2d_0a_1x1/Conv2D_bn_offset"], "op": "_FusedConv2D", "name": "FirstStageFeatureExtractor/InceptionV2/InceptionV2/Mixed_4b/Branch_2/Conv2d_0a_1x1/Relu", "attr": {"fused_ops": {"list": {"s": ["Qmlhc0FkZA==", "UmVsdQ=="]}}, "epsilon": {"f": 0.0}, "num_args": {"i": "1"}, "strides": {"list": {"i": ["1", "1", "1", "1"]}}, "data_format": {"s": "TkhXQw=="}, "explicit_paddings": {"list": {}}, "T": {"type": "DT_FLOAT"}, "use_cudnn_on_gpu": {"b": true}, "padding": {"s": "U0FNRQ=="}, "dilations": {"list": {"i": ["1", "1", "1", "1"]}}}}, {"device": "/device:CPU:0", "input": ["FirstStageFeatureExtractor/InceptionV2/InceptionV2/Mixed_4b/Branch_3/AvgPool_0a_3x3/AvgPool", "FirstStageFeatureExtractor/InceptionV2/InceptionV2/Mixed_4b/Branch_3/Conv2d_0b_1x1/Conv2D_weights", "FirstStageFeatureExtractor/InceptionV2/InceptionV2/Mixed_4b/Branch_3/Conv2d_0b_1x1/Conv2D_bn_offset"], "op": "_FusedConv2D", "name": "FirstStageFeatureExtractor/InceptionV2/InceptionV2/Mixed_4b/Branch_3/Conv2d_0b_1x1/BatchNorm/FusedBatchNormV3", "attr": {"fused_ops": {"list": {"s": ["Qmlhc0FkZA=="]}}, "epsilon": {"f": 0.0}, "num_args": {"i": "1"}, "strides": {"list": {"i": ["1", "1", "1", "1"]}}, "data_format": {"s": "TkhXQw=="}, "explicit_paddings": {"list": {}}, "T": {"type": "DT_FLOAT"}, "use_cudnn_on_gpu": {"b": true}, "padding": {"s": "U0FNRQ=="}, "dilations": {"list": {"i": ["1", "1", "1", "1"]}}}}, {"device": "/device:CPU:0", "input": ["FirstStageFeatureExtractor/InceptionV2/InceptionV2/Mixed_4b/Branch_1/Conv2d_0a_1x1/Relu", "FirstStageFeatureExtractor/InceptionV2/InceptionV2/Mixed_4b/Branch_1/Conv2d_0b_3x3/Conv2D_weights", "FirstStageFeatureExtractor/InceptionV2/InceptionV2/Mixed_4b/Branch_1/Conv2d_0b_3x3/Conv2D_bn_offset"], "op": "_FusedConv2D", "name": "FirstStageFeatureExtractor/InceptionV2/InceptionV2/Mixed_4b/Branch_1/Conv2d_0b_3x3/BatchNorm/FusedBatchNormV3", "attr": {"fused_ops": {"list": {"s": ["Qmlhc0FkZA=="]}}, "epsilon": {"f": 0.0}, "num_args": {"i": "1"}, "strides": {"list": {"i": ["1", "1", "1", "1"]}}, "data_format": {"s": "TkhXQw=="}, "explicit_paddings": {"list": {}}, "T": {"type": "DT_FLOAT"}, "use_cudnn_on_gpu": {"b": true}, "padding": {"s": "U0FNRQ=="}, "dilations": {"list": {"i": ["1", "1", "1", "1"]}}}}, {"device": "/device:CPU:0", "input": ["FirstStageFeatureExtractor/InceptionV2/InceptionV2/Mixed_4b/Branch_2/Conv2d_0a_1x1/Relu", "FirstStageFeatureExtractor/InceptionV2/InceptionV2/Mixed_4b/Branch_2/Conv2d_0b_3x3/Conv2D_weights", "FirstStageFeatureExtractor/InceptionV2/InceptionV2/Mixed_4b/Branch_2/Conv2d_0b_3x3/Conv2D_bn_offset"], "op": "_FusedConv2D", "name": "FirstStageFeatureExtractor/InceptionV2/InceptionV2/Mixed_4b/Branch_2/Conv2d_0b_3x3/Relu", "attr": {"fused_ops": {"list": {"s": ["Qmlhc0FkZA==", "UmVsdQ=="]}}, "epsilon": {"f": 0.0}, "num_args": {"i": "1"}, "strides": {"list": {"i": ["1", "1", "1", "1"]}}, "data_format": {"s": "TkhXQw=="}, "explicit_paddings": {"list": {}}, "T": {"type": "DT_FLOAT"}, "use_cudnn_on_gpu": {"b": true}, "padding": {"s": "U0FNRQ=="}, "dilations": {"list": {"i": ["1", "1", "1", "1"]}}}}, {"device": "/device:CPU:0", "input": ["FirstStageFeatureExtractor/InceptionV2/InceptionV2/Mixed_4b/Branch_2/Conv2d_0b_3x3/Relu", "FirstStageFeatureExtractor/InceptionV2/InceptionV2/Mixed_4b/Branch_2/Conv2d_0c_3x3/Conv2D_weights", "FirstStageFeatureExtractor/InceptionV2/InceptionV2/Mixed_4b/Branch_2/Conv2d_0c_3x3/Conv2D_bn_offset"], "op": "_FusedConv2D", "name": "FirstStageFeatureExtractor/InceptionV2/InceptionV2/Mixed_4b/Branch_2/Conv2d_0c_3x3/BatchNorm/FusedBatchNormV3", "attr": {"fused_ops": {"list": {"s": ["Qmlhc0FkZA=="]}}, "epsilon": {"f": 0.0}, "num_args": {"i": "1"}, "strides": {"list": {"i": ["1", "1", "1", "1"]}}, "data_format": {"s": "TkhXQw=="}, "explicit_paddings": {"list": {}}, "T": {"type": "DT_FLOAT"}, "use_cudnn_on_gpu": {"b": true}, "padding": {"s": "U0FNRQ=="}, "dilations": {"list": {"i": ["1", "1", "1", "1"]}}}}, {"input": ["FirstStageFeatureExtractor/InceptionV2/InceptionV2/Mixed_4b/Branch_0/Conv2d_0a_1x1/BatchNorm/FusedBatchNormV3", "FirstStageFeatureExtractor/InceptionV2/InceptionV2/Mixed_4b/Branch_1/Conv2d_0b_3x3/BatchNorm/FusedBatchNormV3", "FirstStageFeatureExtractor/InceptionV2/InceptionV2/Mixed_4b/Branch_2/Conv2d_0c_3x3/BatchNorm/FusedBatchNormV3", "FirstStageFeatureExtractor/InceptionV2/InceptionV2/Mixed_4b/Branch_3/Conv2d_0b_1x1/BatchNorm/FusedBatchNormV3", "FirstStageFeatureExtractor/InceptionV2/InceptionV2/Mixed_3b/concat/axis"], "op": "ConcatV2", "name": "FirstStageFeatureExtractor/InceptionV2/InceptionV2/Mixed_4b/concat", "attr": {"T": {"type": "DT_FLOAT"}, "N": {"i": "4"}, "Tidx": {"type": "DT_INT32"}}}, {"input": ["FirstStageFeatureExtractor/InceptionV2/InceptionV2/Mixed_4b/concat"], "op": "Relu", "name": "FirstStageFeatureExtractor/InceptionV2/InceptionV2/Mixed_4b/Branch_0/Conv2d_0a_1x1/Relu", "attr": {"T": {"type": "DT_FLOAT"}}}, {"input": ["FirstStageFeatureExtractor/InceptionV2/InceptionV2/Mixed_4b/Branch_0/Conv2d_0a_1x1/Relu"], "op": "AvgPool", "name": "FirstStageFeatureExtractor/InceptionV2/InceptionV2/Mixed_4c/Branch_3/AvgPool_0a_3x3/AvgPool", "attr": {"T": {"type": "DT_FLOAT"}, "ksize": {"list": {"i": ["1", "3", "3", "1"]}}, "strides": {"list": {"i": ["1", "1", "1", "1"]}}, "padding": {"s": "U0FNRQ=="}, "data_format": {"s": "TkhXQw=="}}}, {"device": "/device:CPU:0", "input": ["FirstStageFeatureExtractor/InceptionV2/InceptionV2/Mixed_4b/Branch_0/Conv2d_0a_1x1/Relu", "FirstStageFeatureExtractor/InceptionV2/InceptionV2/Mixed_4c/Branch_0/Conv2d_0a_1x1/Conv2D_weights", "FirstStageFeatureExtractor/InceptionV2/InceptionV2/Mixed_4c/Branch_0/Conv2d_0a_1x1/Conv2D_bn_offset"], "op": "_FusedConv2D", "name": "FirstStageFeatureExtractor/InceptionV2/InceptionV2/Mixed_4c/Branch_0/Conv2d_0a_1x1/BatchNorm/FusedBatchNormV3", "attr": {"fused_ops": {"list": {"s": ["Qmlhc0FkZA=="]}}, "epsilon": {"f": 0.0}, "num_args": {"i": "1"}, "strides": {"list": {"i": ["1", "1", "1", "1"]}}, "data_format": {"s": "TkhXQw=="}, "explicit_paddings": {"list": {}}, "T": {"type": "DT_FLOAT"}, "use_cudnn_on_gpu": {"b": true}, "padding": {"s": "U0FNRQ=="}, "dilations": {"list": {"i": ["1", "1", "1", "1"]}}}}, {"device": "/device:CPU:0", "input": ["FirstStageFeatureExtractor/InceptionV2/InceptionV2/Mixed_4b/Branch_0/Conv2d_0a_1x1/Relu", "FirstStageFeatureExtractor/InceptionV2/InceptionV2/Mixed_4c/Branch_1/Conv2d_0a_1x1/Conv2D_weights", "FirstStageFeatureExtractor/InceptionV2/InceptionV2/Mixed_4c/Branch_1/Conv2d_0a_1x1/Conv2D_bn_offset"], "op": "_FusedConv2D", "name": "FirstStageFeatureExtractor/InceptionV2/InceptionV2/Mixed_4c/Branch_1/Conv2d_0a_1x1/Relu", "attr": {"fused_ops": {"list": {"s": ["Qmlhc0FkZA==", "UmVsdQ=="]}}, "epsilon": {"f": 0.0}, "num_args": {"i": "1"}, "strides": {"list": {"i": ["1", "1", "1", "1"]}}, "data_format": {"s": "TkhXQw=="}, "explicit_paddings": {"list": {}}, "T": {"type": "DT_FLOAT"}, "use_cudnn_on_gpu": {"b": true}, "padding": {"s": "U0FNRQ=="}, "dilations": {"list": {"i": ["1", "1", "1", "1"]}}}}, {"device": "/device:CPU:0", "input": ["FirstStageFeatureExtractor/InceptionV2/InceptionV2/Mixed_4b/Branch_0/Conv2d_0a_1x1/Relu", "FirstStageFeatureExtractor/InceptionV2/InceptionV2/Mixed_4c/Branch_2/Conv2d_0a_1x1/Conv2D_weights", "FirstStageFeatureExtractor/InceptionV2/InceptionV2/Mixed_4c/Branch_2/Conv2d_0a_1x1/Conv2D_bn_offset"], "op": "_FusedConv2D", "name": "FirstStageFeatureExtractor/InceptionV2/InceptionV2/Mixed_4c/Branch_2/Conv2d_0a_1x1/Relu", "attr": {"fused_ops": {"list": {"s": ["Qmlhc0FkZA==", "UmVsdQ=="]}}, "epsilon": {"f": 0.0}, "num_args": {"i": "1"}, "strides": {"list": {"i": ["1", "1", "1", "1"]}}, "data_format": {"s": "TkhXQw=="}, "explicit_paddings": {"list": {}}, "T": {"type": "DT_FLOAT"}, "use_cudnn_on_gpu": {"b": true}, "padding": {"s": "U0FNRQ=="}, "dilations": {"list": {"i": ["1", "1", "1", "1"]}}}}, {"device": "/device:CPU:0", "input": ["FirstStageFeatureExtractor/InceptionV2/InceptionV2/Mixed_4c/Branch_3/AvgPool_0a_3x3/AvgPool", "FirstStageFeatureExtractor/InceptionV2/InceptionV2/Mixed_4c/Branch_3/Conv2d_0b_1x1/Conv2D_weights", "FirstStageFeatureExtractor/InceptionV2/InceptionV2/Mixed_4c/Branch_3/Conv2d_0b_1x1/Conv2D_bn_offset"], "op": "_FusedConv2D", "name": "FirstStageFeatureExtractor/InceptionV2/InceptionV2/Mixed_4c/Branch_3/Conv2d_0b_1x1/BatchNorm/FusedBatchNormV3", "attr": {"fused_ops": {"list": {"s": ["Qmlhc0FkZA=="]}}, "epsilon": {"f": 0.0}, "num_args": {"i": "1"}, "strides": {"list": {"i": ["1", "1", "1", "1"]}}, "data_format": {"s": "TkhXQw=="}, "explicit_paddings": {"list": {}}, "T": {"type": "DT_FLOAT"}, "use_cudnn_on_gpu": {"b": true}, "padding": {"s": "U0FNRQ=="}, "dilations": {"list": {"i": ["1", "1", "1", "1"]}}}}, {"device": "/device:CPU:0", "input": ["FirstStageFeatureExtractor/InceptionV2/InceptionV2/Mixed_4c/Branch_1/Conv2d_0a_1x1/Relu", "FirstStageFeatureExtractor/InceptionV2/InceptionV2/Mixed_4c/Branch_1/Conv2d_0b_3x3/Conv2D_weights", "FirstStageFeatureExtractor/InceptionV2/InceptionV2/Mixed_4c/Branch_1/Conv2d_0b_3x3/Conv2D_bn_offset"], "op": "_FusedConv2D", "name": "FirstStageFeatureExtractor/InceptionV2/InceptionV2/Mixed_4c/Branch_1/Conv2d_0b_3x3/BatchNorm/FusedBatchNormV3", "attr": {"fused_ops": {"list": {"s": ["Qmlhc0FkZA=="]}}, "epsilon": {"f": 0.0}, "num_args": {"i": "1"}, "strides": {"list": {"i": ["1", "1", "1", "1"]}}, "data_format": {"s": "TkhXQw=="}, "explicit_paddings": {"list": {}}, "T": {"type": "DT_FLOAT"}, "use_cudnn_on_gpu": {"b": true}, "padding": {"s": "U0FNRQ=="}, "dilations": {"list": {"i": ["1", "1", "1", "1"]}}}}, {"device": "/device:CPU:0", "input": ["FirstStageFeatureExtractor/InceptionV2/InceptionV2/Mixed_4c/Branch_2/Conv2d_0a_1x1/Relu", "FirstStageFeatureExtractor/InceptionV2/InceptionV2/Mixed_4c/Branch_2/Conv2d_0b_3x3/Conv2D_weights", "FirstStageFeatureExtractor/InceptionV2/InceptionV2/Mixed_4c/Branch_2/Conv2d_0b_3x3/Conv2D_bn_offset"], "op": "_FusedConv2D", "name": "FirstStageFeatureExtractor/InceptionV2/InceptionV2/Mixed_4c/Branch_2/Conv2d_0b_3x3/Relu", "attr": {"fused_ops": {"list": {"s": ["Qmlhc0FkZA==", "UmVsdQ=="]}}, "epsilon": {"f": 0.0}, "num_args": {"i": "1"}, "strides": {"list": {"i": ["1", "1", "1", "1"]}}, "data_format": {"s": "TkhXQw=="}, "explicit_paddings": {"list": {}}, "T": {"type": "DT_FLOAT"}, "use_cudnn_on_gpu": {"b": true}, "padding": {"s": "U0FNRQ=="}, "dilations": {"list": {"i": ["1", "1", "1", "1"]}}}}, {"device": "/device:CPU:0", "input": ["FirstStageFeatureExtractor/InceptionV2/InceptionV2/Mixed_4c/Branch_2/Conv2d_0b_3x3/Relu", "FirstStageFeatureExtractor/InceptionV2/InceptionV2/Mixed_4c/Branch_2/Conv2d_0c_3x3/Conv2D_weights", "FirstStageFeatureExtractor/InceptionV2/InceptionV2/Mixed_4c/Branch_2/Conv2d_0c_3x3/Conv2D_bn_offset"], "op": "_FusedConv2D", "name": "FirstStageFeatureExtractor/InceptionV2/InceptionV2/Mixed_4c/Branch_2/Conv2d_0c_3x3/BatchNorm/FusedBatchNormV3", "attr": {"fused_ops": {"list": {"s": ["Qmlhc0FkZA=="]}}, "epsilon": {"f": 0.0}, "num_args": {"i": "1"}, "strides": {"list": {"i": ["1", "1", "1", "1"]}}, "data_format": {"s": "TkhXQw=="}, "explicit_paddings": {"list": {}}, "T": {"type": "DT_FLOAT"}, "use_cudnn_on_gpu": {"b": true}, "padding": {"s": "U0FNRQ=="}, "dilations": {"list": {"i": ["1", "1", "1", "1"]}}}}, {"input": ["FirstStageFeatureExtractor/InceptionV2/InceptionV2/Mixed_4c/Branch_0/Conv2d_0a_1x1/BatchNorm/FusedBatchNormV3", "FirstStageFeatureExtractor/InceptionV2/InceptionV2/Mixed_4c/Branch_1/Conv2d_0b_3x3/BatchNorm/FusedBatchNormV3", "FirstStageFeatureExtractor/InceptionV2/InceptionV2/Mixed_4c/Branch_2/Conv2d_0c_3x3/BatchNorm/FusedBatchNormV3", "FirstStageFeatureExtractor/InceptionV2/InceptionV2/Mixed_4c/Branch_3/Conv2d_0b_1x1/BatchNorm/FusedBatchNormV3", "FirstStageFeatureExtractor/InceptionV2/InceptionV2/Mixed_3b/concat/axis"], "op": "ConcatV2", "name": "FirstStageFeatureExtractor/InceptionV2/InceptionV2/Mixed_4c/concat", "attr": {"T": {"type": "DT_FLOAT"}, "N": {"i": "4"}, "Tidx": {"type": "DT_INT32"}}}, {"input": ["FirstStageFeatureExtractor/InceptionV2/InceptionV2/Mixed_4c/concat"], "op": "Relu", "name": "FirstStageFeatureExtractor/InceptionV2/InceptionV2/Mixed_4c/Branch_0/Conv2d_0a_1x1/Relu", "attr": {"T": {"type": "DT_FLOAT"}}}, {"input": ["FirstStageFeatureExtractor/InceptionV2/InceptionV2/Mixed_4c/Branch_0/Conv2d_0a_1x1/Relu"], "op": "AvgPool", "name": "FirstStageFeatureExtractor/InceptionV2/InceptionV2/Mixed_4d/Branch_3/AvgPool_0a_3x3/AvgPool", "attr": {"T": {"type": "DT_FLOAT"}, "ksize": {"list": {"i": ["1", "3", "3", "1"]}}, "strides": {"list": {"i": ["1", "1", "1", "1"]}}, "padding": {"s": "U0FNRQ=="}, "data_format": {"s": "TkhXQw=="}}}, {"device": "/device:CPU:0", "input": ["FirstStageFeatureExtractor/InceptionV2/InceptionV2/Mixed_4c/Branch_0/Conv2d_0a_1x1/Relu", "FirstStageFeatureExtractor/InceptionV2/InceptionV2/Mixed_4d/Branch_0/Conv2d_0a_1x1/Conv2D_weights", "FirstStageFeatureExtractor/InceptionV2/InceptionV2/Mixed_4d/Branch_0/Conv2d_0a_1x1/Conv2D_bn_offset"], "op": "_FusedConv2D", "name": "FirstStageFeatureExtractor/InceptionV2/InceptionV2/Mixed_4d/Branch_0/Conv2d_0a_1x1/BatchNorm/FusedBatchNormV3", "attr": {"fused_ops": {"list": {"s": ["Qmlhc0FkZA=="]}}, "epsilon": {"f": 0.0}, "num_args": {"i": "1"}, "strides": {"list": {"i": ["1", "1", "1", "1"]}}, "data_format": {"s": "TkhXQw=="}, "explicit_paddings": {"list": {}}, "T": {"type": "DT_FLOAT"}, "use_cudnn_on_gpu": {"b": true}, "padding": {"s": "U0FNRQ=="}, "dilations": {"list": {"i": ["1", "1", "1", "1"]}}}}, {"device": "/device:CPU:0", "input": ["FirstStageFeatureExtractor/InceptionV2/InceptionV2/Mixed_4c/Branch_0/Conv2d_0a_1x1/Relu", "FirstStageFeatureExtractor/InceptionV2/InceptionV2/Mixed_4d/Branch_1/Conv2d_0a_1x1/Conv2D_weights", "FirstStageFeatureExtractor/InceptionV2/InceptionV2/Mixed_4d/Branch_1/Conv2d_0a_1x1/Conv2D_bn_offset"], "op": "_FusedConv2D", "name": "FirstStageFeatureExtractor/InceptionV2/InceptionV2/Mixed_4d/Branch_1/Conv2d_0a_1x1/Relu", "attr": {"fused_ops": {"list": {"s": ["Qmlhc0FkZA==", "UmVsdQ=="]}}, "epsilon": {"f": 0.0}, "num_args": {"i": "1"}, "strides": {"list": {"i": ["1", "1", "1", "1"]}}, "data_format": {"s": "TkhXQw=="}, "explicit_paddings": {"list": {}}, "T": {"type": "DT_FLOAT"}, "use_cudnn_on_gpu": {"b": true}, "padding": {"s": "U0FNRQ=="}, "dilations": {"list": {"i": ["1", "1", "1", "1"]}}}}, {"device": "/device:CPU:0", "input": ["FirstStageFeatureExtractor/InceptionV2/InceptionV2/Mixed_4c/Branch_0/Conv2d_0a_1x1/Relu", "FirstStageFeatureExtractor/InceptionV2/InceptionV2/Mixed_4d/Branch_2/Conv2d_0a_1x1/Conv2D_weights", "FirstStageFeatureExtractor/InceptionV2/InceptionV2/Mixed_4d/Branch_2/Conv2d_0a_1x1/Conv2D_bn_offset"], "op": "_FusedConv2D", "name": "FirstStageFeatureExtractor/InceptionV2/InceptionV2/Mixed_4d/Branch_2/Conv2d_0a_1x1/Relu", "attr": {"fused_ops": {"list": {"s": ["Qmlhc0FkZA==", "UmVsdQ=="]}}, "epsilon": {"f": 0.0}, "num_args": {"i": "1"}, "strides": {"list": {"i": ["1", "1", "1", "1"]}}, "data_format": {"s": "TkhXQw=="}, "explicit_paddings": {"list": {}}, "T": {"type": "DT_FLOAT"}, "use_cudnn_on_gpu": {"b": true}, "padding": {"s": "U0FNRQ=="}, "dilations": {"list": {"i": ["1", "1", "1", "1"]}}}}, {"device": "/device:CPU:0", "input": ["FirstStageFeatureExtractor/InceptionV2/InceptionV2/Mixed_4d/Branch_3/AvgPool_0a_3x3/AvgPool", "FirstStageFeatureExtractor/InceptionV2/InceptionV2/Mixed_4d/Branch_3/Conv2d_0b_1x1/Conv2D_weights", "FirstStageFeatureExtractor/InceptionV2/InceptionV2/Mixed_4d/Branch_3/Conv2d_0b_1x1/Conv2D_bn_offset"], "op": "_FusedConv2D", "name": "FirstStageFeatureExtractor/InceptionV2/InceptionV2/Mixed_4d/Branch_3/Conv2d_0b_1x1/BatchNorm/FusedBatchNormV3", "attr": {"fused_ops": {"list": {"s": ["Qmlhc0FkZA=="]}}, "epsilon": {"f": 0.0}, "num_args": {"i": "1"}, "strides": {"list": {"i": ["1", "1", "1", "1"]}}, "data_format": {"s": "TkhXQw=="}, "explicit_paddings": {"list": {}}, "T": {"type": "DT_FLOAT"}, "use_cudnn_on_gpu": {"b": true}, "padding": {"s": "U0FNRQ=="}, "dilations": {"list": {"i": ["1", "1", "1", "1"]}}}}, {"device": "/device:CPU:0", "input": ["FirstStageFeatureExtractor/InceptionV2/InceptionV2/Mixed_4d/Branch_1/Conv2d_0a_1x1/Relu", "FirstStageFeatureExtractor/InceptionV2/InceptionV2/Mixed_4d/Branch_1/Conv2d_0b_3x3/Conv2D_weights", "FirstStageFeatureExtractor/InceptionV2/InceptionV2/Mixed_4d/Branch_1/Conv2d_0b_3x3/Conv2D_bn_offset"], "op": "_FusedConv2D", "name": "FirstStageFeatureExtractor/InceptionV2/InceptionV2/Mixed_4d/Branch_1/Conv2d_0b_3x3/BatchNorm/FusedBatchNormV3", "attr": {"fused_ops": {"list": {"s": ["Qmlhc0FkZA=="]}}, "epsilon": {"f": 0.0}, "num_args": {"i": "1"}, "strides": {"list": {"i": ["1", "1", "1", "1"]}}, "data_format": {"s": "TkhXQw=="}, "explicit_paddings": {"list": {}}, "T": {"type": "DT_FLOAT"}, "use_cudnn_on_gpu": {"b": true}, "padding": {"s": "U0FNRQ=="}, "dilations": {"list": {"i": ["1", "1", "1", "1"]}}}}, {"device": "/device:CPU:0", "input": ["FirstStageFeatureExtractor/InceptionV2/InceptionV2/Mixed_4d/Branch_2/Conv2d_0a_1x1/Relu", "FirstStageFeatureExtractor/InceptionV2/InceptionV2/Mixed_4d/Branch_2/Conv2d_0b_3x3/Conv2D_weights", "FirstStageFeatureExtractor/InceptionV2/InceptionV2/Mixed_4d/Branch_2/Conv2d_0b_3x3/Conv2D_bn_offset"], "op": "_FusedConv2D", "name": "FirstStageFeatureExtractor/InceptionV2/InceptionV2/Mixed_4d/Branch_2/Conv2d_0b_3x3/Relu", "attr": {"fused_ops": {"list": {"s": ["Qmlhc0FkZA==", "UmVsdQ=="]}}, "epsilon": {"f": 0.0}, "num_args": {"i": "1"}, "strides": {"list": {"i": ["1", "1", "1", "1"]}}, "data_format": {"s": "TkhXQw=="}, "explicit_paddings": {"list": {}}, "T": {"type": "DT_FLOAT"}, "use_cudnn_on_gpu": {"b": true}, "padding": {"s": "U0FNRQ=="}, "dilations": {"list": {"i": ["1", "1", "1", "1"]}}}}, {"device": "/device:CPU:0", "input": ["FirstStageFeatureExtractor/InceptionV2/InceptionV2/Mixed_4d/Branch_2/Conv2d_0b_3x3/Relu", "FirstStageFeatureExtractor/InceptionV2/InceptionV2/Mixed_4d/Branch_2/Conv2d_0c_3x3/Conv2D_weights", "FirstStageFeatureExtractor/InceptionV2/InceptionV2/Mixed_4d/Branch_2/Conv2d_0c_3x3/Conv2D_bn_offset"], "op": "_FusedConv2D", "name": "FirstStageFeatureExtractor/InceptionV2/InceptionV2/Mixed_4d/Branch_2/Conv2d_0c_3x3/BatchNorm/FusedBatchNormV3", "attr": {"fused_ops": {"list": {"s": ["Qmlhc0FkZA=="]}}, "epsilon": {"f": 0.0}, "num_args": {"i": "1"}, "strides": {"list": {"i": ["1", "1", "1", "1"]}}, "data_format": {"s": "TkhXQw=="}, "explicit_paddings": {"list": {}}, "T": {"type": "DT_FLOAT"}, "use_cudnn_on_gpu": {"b": true}, "padding": {"s": "U0FNRQ=="}, "dilations": {"list": {"i": ["1", "1", "1", "1"]}}}}, {"input": ["FirstStageFeatureExtractor/InceptionV2/InceptionV2/Mixed_4d/Branch_0/Conv2d_0a_1x1/BatchNorm/FusedBatchNormV3", "FirstStageFeatureExtractor/InceptionV2/InceptionV2/Mixed_4d/Branch_1/Conv2d_0b_3x3/BatchNorm/FusedBatchNormV3", "FirstStageFeatureExtractor/InceptionV2/InceptionV2/Mixed_4d/Branch_2/Conv2d_0c_3x3/BatchNorm/FusedBatchNormV3", "FirstStageFeatureExtractor/InceptionV2/InceptionV2/Mixed_4d/Branch_3/Conv2d_0b_1x1/BatchNorm/FusedBatchNormV3", "FirstStageFeatureExtractor/InceptionV2/InceptionV2/Mixed_3b/concat/axis"], "op": "ConcatV2", "name": "FirstStageFeatureExtractor/InceptionV2/InceptionV2/Mixed_4d/concat", "attr": {"T": {"type": "DT_FLOAT"}, "N": {"i": "4"}, "Tidx": {"type": "DT_INT32"}}}, {"input": ["FirstStageFeatureExtractor/InceptionV2/InceptionV2/Mixed_4d/concat"], "op": "Relu", "name": "FirstStageFeatureExtractor/InceptionV2/InceptionV2/Mixed_4d/Branch_0/Conv2d_0a_1x1/Relu", "attr": {"T": {"type": "DT_FLOAT"}}}, {"input": ["FirstStageFeatureExtractor/InceptionV2/InceptionV2/Mixed_4d/Branch_0/Conv2d_0a_1x1/Relu"], "op": "AvgPool", "name": "FirstStageFeatureExtractor/InceptionV2/InceptionV2/Mixed_4e/Branch_3/AvgPool_0a_3x3/AvgPool", "attr": {"T": {"type": "DT_FLOAT"}, "ksize": {"list": {"i": ["1", "3", "3", "1"]}}, "strides": {"list": {"i": ["1", "1", "1", "1"]}}, "padding": {"s": "U0FNRQ=="}, "data_format": {"s": "TkhXQw=="}}}, {"device": "/device:CPU:0", "input": ["FirstStageFeatureExtractor/InceptionV2/InceptionV2/Mixed_4d/Branch_0/Conv2d_0a_1x1/Relu", "FirstStageFeatureExtractor/InceptionV2/InceptionV2/Mixed_4e/Branch_0/Conv2d_0a_1x1/Conv2D_weights", "FirstStageFeatureExtractor/InceptionV2/InceptionV2/Mixed_4e/Branch_0/Conv2d_0a_1x1/Conv2D_bn_offset"], "op": "_FusedConv2D", "name": "FirstStageFeatureExtractor/InceptionV2/InceptionV2/Mixed_4e/Branch_0/Conv2d_0a_1x1/BatchNorm/FusedBatchNormV3", "attr": {"fused_ops": {"list": {"s": ["Qmlhc0FkZA=="]}}, "epsilon": {"f": 0.0}, "num_args": {"i": "1"}, "strides": {"list": {"i": ["1", "1", "1", "1"]}}, "data_format": {"s": "TkhXQw=="}, "explicit_paddings": {"list": {}}, "T": {"type": "DT_FLOAT"}, "use_cudnn_on_gpu": {"b": true}, "padding": {"s": "U0FNRQ=="}, "dilations": {"list": {"i": ["1", "1", "1", "1"]}}}}, {"device": "/device:CPU:0", "input": ["FirstStageFeatureExtractor/InceptionV2/InceptionV2/Mixed_4d/Branch_0/Conv2d_0a_1x1/Relu", "FirstStageFeatureExtractor/InceptionV2/InceptionV2/Mixed_4e/Branch_1/Conv2d_0a_1x1/Conv2D_weights", "FirstStageFeatureExtractor/InceptionV2/InceptionV2/Mixed_4e/Branch_1/Conv2d_0a_1x1/Conv2D_bn_offset"], "op": "_FusedConv2D", "name": "FirstStageFeatureExtractor/InceptionV2/InceptionV2/Mixed_4e/Branch_1/Conv2d_0a_1x1/Relu", "attr": {"fused_ops": {"list": {"s": ["Qmlhc0FkZA==", "UmVsdQ=="]}}, "epsilon": {"f": 0.0}, "num_args": {"i": "1"}, "strides": {"list": {"i": ["1", "1", "1", "1"]}}, "data_format": {"s": "TkhXQw=="}, "explicit_paddings": {"list": {}}, "T": {"type": "DT_FLOAT"}, "use_cudnn_on_gpu": {"b": true}, "padding": {"s": "U0FNRQ=="}, "dilations": {"list": {"i": ["1", "1", "1", "1"]}}}}, {"device": "/device:CPU:0", "input": ["FirstStageFeatureExtractor/InceptionV2/InceptionV2/Mixed_4d/Branch_0/Conv2d_0a_1x1/Relu", "FirstStageFeatureExtractor/InceptionV2/InceptionV2/Mixed_4e/Branch_2/Conv2d_0a_1x1/Conv2D_weights", "FirstStageFeatureExtractor/InceptionV2/InceptionV2/Mixed_4e/Branch_2/Conv2d_0a_1x1/Conv2D_bn_offset"], "op": "_FusedConv2D", "name": "FirstStageFeatureExtractor/InceptionV2/InceptionV2/Mixed_4e/Branch_2/Conv2d_0a_1x1/Relu", "attr": {"fused_ops": {"list": {"s": ["Qmlhc0FkZA==", "UmVsdQ=="]}}, "epsilon": {"f": 0.0}, "num_args": {"i": "1"}, "strides": {"list": {"i": ["1", "1", "1", "1"]}}, "data_format": {"s": "TkhXQw=="}, "explicit_paddings": {"list": {}}, "T": {"type": "DT_FLOAT"}, "use_cudnn_on_gpu": {"b": true}, "padding": {"s": "U0FNRQ=="}, "dilations": {"list": {"i": ["1", "1", "1", "1"]}}}}, {"device": "/device:CPU:0", "input": ["FirstStageFeatureExtractor/InceptionV2/InceptionV2/Mixed_4e/Branch_3/AvgPool_0a_3x3/AvgPool", "FirstStageFeatureExtractor/InceptionV2/InceptionV2/Mixed_4e/Branch_3/Conv2d_0b_1x1/Conv2D_weights", "FirstStageFeatureExtractor/InceptionV2/InceptionV2/Mixed_4e/Branch_3/Conv2d_0b_1x1/Conv2D_bn_offset"], "op": "_FusedConv2D", "name": "FirstStageFeatureExtractor/InceptionV2/InceptionV2/Mixed_4e/Branch_3/Conv2d_0b_1x1/BatchNorm/FusedBatchNormV3", "attr": {"fused_ops": {"list": {"s": ["Qmlhc0FkZA=="]}}, "epsilon": {"f": 0.0}, "num_args": {"i": "1"}, "strides": {"list": {"i": ["1", "1", "1", "1"]}}, "data_format": {"s": "TkhXQw=="}, "explicit_paddings": {"list": {}}, "T": {"type": "DT_FLOAT"}, "use_cudnn_on_gpu": {"b": true}, "padding": {"s": "U0FNRQ=="}, "dilations": {"list": {"i": ["1", "1", "1", "1"]}}}}, {"device": "/device:CPU:0", "input": ["FirstStageFeatureExtractor/InceptionV2/InceptionV2/Mixed_4e/Branch_1/Conv2d_0a_1x1/Relu", "FirstStageFeatureExtractor/InceptionV2/InceptionV2/Mixed_4e/Branch_1/Conv2d_0b_3x3/Conv2D_weights", "FirstStageFeatureExtractor/InceptionV2/InceptionV2/Mixed_4e/Branch_1/Conv2d_0b_3x3/Conv2D_bn_offset"], "op": "_FusedConv2D", "name": "FirstStageFeatureExtractor/InceptionV2/InceptionV2/Mixed_4e/Branch_1/Conv2d_0b_3x3/BatchNorm/FusedBatchNormV3", "attr": {"fused_ops": {"list": {"s": ["Qmlhc0FkZA=="]}}, "epsilon": {"f": 0.0}, "num_args": {"i": "1"}, "strides": {"list": {"i": ["1", "1", "1", "1"]}}, "data_format": {"s": "TkhXQw=="}, "explicit_paddings": {"list": {}}, "T": {"type": "DT_FLOAT"}, "use_cudnn_on_gpu": {"b": true}, "padding": {"s": "U0FNRQ=="}, "dilations": {"list": {"i": ["1", "1", "1", "1"]}}}}, {"device": "/device:CPU:0", "input": ["FirstStageFeatureExtractor/InceptionV2/InceptionV2/Mixed_4e/Branch_2/Conv2d_0a_1x1/Relu", "FirstStageFeatureExtractor/InceptionV2/InceptionV2/Mixed_4e/Branch_2/Conv2d_0b_3x3/Conv2D_weights", "FirstStageFeatureExtractor/InceptionV2/InceptionV2/Mixed_4e/Branch_2/Conv2d_0b_3x3/Conv2D_bn_offset"], "op": "_FusedConv2D", "name": "FirstStageFeatureExtractor/InceptionV2/InceptionV2/Mixed_4e/Branch_2/Conv2d_0b_3x3/Relu", "attr": {"fused_ops": {"list": {"s": ["Qmlhc0FkZA==", "UmVsdQ=="]}}, "epsilon": {"f": 0.0}, "num_args": {"i": "1"}, "strides": {"list": {"i": ["1", "1", "1", "1"]}}, "data_format": {"s": "TkhXQw=="}, "explicit_paddings": {"list": {}}, "T": {"type": "DT_FLOAT"}, "use_cudnn_on_gpu": {"b": true}, "padding": {"s": "U0FNRQ=="}, "dilations": {"list": {"i": ["1", "1", "1", "1"]}}}}, {"device": "/device:CPU:0", "input": ["FirstStageFeatureExtractor/InceptionV2/InceptionV2/Mixed_4e/Branch_2/Conv2d_0b_3x3/Relu", "FirstStageFeatureExtractor/InceptionV2/InceptionV2/Mixed_4e/Branch_2/Conv2d_0c_3x3/Conv2D_weights", "FirstStageFeatureExtractor/InceptionV2/InceptionV2/Mixed_4e/Branch_2/Conv2d_0c_3x3/Conv2D_bn_offset"], "op": "_FusedConv2D", "name": "FirstStageFeatureExtractor/InceptionV2/InceptionV2/Mixed_4e/Branch_2/Conv2d_0c_3x3/BatchNorm/FusedBatchNormV3", "attr": {"fused_ops": {"list": {"s": ["Qmlhc0FkZA=="]}}, "epsilon": {"f": 0.0}, "num_args": {"i": "1"}, "strides": {"list": {"i": ["1", "1", "1", "1"]}}, "data_format": {"s": "TkhXQw=="}, "explicit_paddings": {"list": {}}, "T": {"type": "DT_FLOAT"}, "use_cudnn_on_gpu": {"b": true}, "padding": {"s": "U0FNRQ=="}, "dilations": {"list": {"i": ["1", "1", "1", "1"]}}}}, {"input": ["FirstStageFeatureExtractor/InceptionV2/InceptionV2/Mixed_4e/Branch_0/Conv2d_0a_1x1/BatchNorm/FusedBatchNormV3", "FirstStageFeatureExtractor/InceptionV2/InceptionV2/Mixed_4e/Branch_1/Conv2d_0b_3x3/BatchNorm/FusedBatchNormV3", "FirstStageFeatureExtractor/InceptionV2/InceptionV2/Mixed_4e/Branch_2/Conv2d_0c_3x3/BatchNorm/FusedBatchNormV3", "FirstStageFeatureExtractor/InceptionV2/InceptionV2/Mixed_4e/Branch_3/Conv2d_0b_1x1/BatchNorm/FusedBatchNormV3", "FirstStageFeatureExtractor/InceptionV2/InceptionV2/Mixed_3b/concat/axis"], "op": "ConcatV2", "name": "FirstStageFeatureExtractor/InceptionV2/InceptionV2/Mixed_4e/concat", "attr": {"T": {"type": "DT_FLOAT"}, "N": {"i": "4"}, "Tidx": {"type": "DT_INT32"}}}, {"input": ["FirstStageFeatureExtractor/InceptionV2/InceptionV2/Mixed_4e/concat"], "op": "Relu", "name": "FirstStageFeatureExtractor/InceptionV2/InceptionV2/Mixed_4e/Branch_0/Conv2d_0a_1x1/Relu", "attr": {"T": {"type": "DT_FLOAT"}}}, {"device": "/device:CPU:0", "input": ["FirstStageFeatureExtractor/InceptionV2/InceptionV2/Mixed_4e/Branch_0/Conv2d_0a_1x1/Relu", "Conv/weights", "Conv/biases"], "op": "_FusedConv2D", "name": "Conv/Relu6", "attr": {"fused_ops": {"list": {"s": ["Qmlhc0FkZA==", "UmVsdTY="]}}, "epsilon": {"f": 0.0}, "num_args": {"i": "1"}, "strides": {"list": {"i": ["1", "1", "1", "1"]}}, "data_format": {"s": "TkhXQw=="}, "explicit_paddings": {"list": {}}, "T": {"type": "DT_FLOAT"}, "use_cudnn_on_gpu": {"b": true}, "padding": {"s": "U0FNRQ=="}, "dilations": {"list": {"i": ["1", "1", "1", "1"]}}}}, {"input": ["FirstStageFeatureExtractor/InceptionV2/InceptionV2/Mixed_4e/Branch_0/Conv2d_0a_1x1/Relu"], "op": "Shape", "name": "Shape_1", "attr": {"T": {"type": "DT_FLOAT"}, "out_type": {"type": "DT_INT32"}}}, {"device": "/device:CPU:0", "input": ["Conv/Relu6", "FirstStageBoxPredictor/ClassPredictor/weights", "FirstStageBoxPredictor/ClassPredictor/biases"], "op": "_FusedConv2D", "name": "FirstStageBoxPredictor/ClassPredictor/BiasAdd", "attr": {"fused_ops": {"list": {"s": ["Qmlhc0FkZA=="]}}, "epsilon": {"f": 0.0}, "num_args": {"i": "1"}, "strides": {"list": {"i": ["1", "1", "1", "1"]}}, "data_format": {"s": "TkhXQw=="}, "explicit_paddings": {"list": {}}, "T": {"type": "DT_FLOAT"}, "use_cudnn_on_gpu": {"b": true}, "padding": {"s": "U0FNRQ=="}, "dilations": {"list": {"i": ["1", "1", "1", "1"]}}}}, {"input": ["Conv/Relu6"], "op": "Shape", "name": "FirstStageBoxPredictor/Shape_1", "attr": {"T": {"type": "DT_FLOAT"}, "out_type": {"type": "DT_INT32"}}}, {"device": "/device:CPU:0", "input": ["Conv/Relu6", "FirstStageBoxPredictor/BoxEncodingPredictor/weights", "FirstStageBoxPredictor/BoxEncodingPredictor/biases"], "op": "_FusedConv2D", "name": "FirstStageBoxPredictor/BoxEncodingPredictor/BiasAdd", "attr": {"fused_ops": {"list": {"s": ["Qmlhc0FkZA=="]}}, "epsilon": {"f": 0.0}, "num_args": {"i": "1"}, "strides": {"list": {"i": ["1", "1", "1", "1"]}}, "data_format": {"s": "TkhXQw=="}, "explicit_paddings": {"list": {}}, "T": {"type": "DT_FLOAT"}, "use_cudnn_on_gpu": {"b": true}, "padding": {"s": "U0FNRQ=="}, "dilations": {"list": {"i": ["1", "1", "1", "1"]}}}}, {"input": ["Shape_1", "FirstStageBoxPredictor/strided_slice_1/stack_1", "BatchMultiClassNonMaxSuppression/strided_slice_1/stack_1", "FirstStageBoxPredictor/strided_slice_1/stack_1"], "op": "StridedSlice", "name": "strided_slice", "attr": {"begin_mask": {"i": "0"}, "ellipsis_mask": {"i": "0"}, "Index": {"type": "DT_INT32"}, "T": {"type": "DT_INT32"}, "new_axis_mask": {"i": "0"}, "end_mask": {"i": "0"}, "shrink_axis_mask": {"i": "1"}}}, {"input": ["Shape_1", "BatchMultiClassNonMaxSuppression/strided_slice_1/stack_1", "strided_slice_1/stack_1", "FirstStageBoxPredictor/strided_slice_1/stack_1"], "op": "StridedSlice", "name": "strided_slice_1", "attr": {"begin_mask": {"i": "0"}, "ellipsis_mask": {"i": "0"}, "Index": {"type": "DT_INT32"}, "T": {"type": "DT_INT32"}, "new_axis_mask": {"i": "0"}, "end_mask": {"i": "0"}, "shrink_axis_mask": {"i": "1"}}}, {"input": ["FirstStageBoxPredictor/Shape_1", "FirstStageBoxPredictor/strided_slice_1/stack", "FirstStageBoxPredictor/strided_slice_1/stack_1", "FirstStageBoxPredictor/strided_slice_1/stack_1"], "op": "StridedSlice", "name": "FirstStageBoxPredictor/strided_slice_1", "attr": {"begin_mask": {"i": "0"}, "ellipsis_mask": {"i": "0"}, "Index": {"type": "DT_INT32"}, "T": {"type": "DT_INT32"}, "new_axis_mask": {"i": "0"}, "end_mask": {"i": "0"}, "shrink_axis_mask": {"i": "1"}}}, {"input": ["BatchMultiClassNonMaxSuppression/map/Const", "strided_slice", "BatchMultiClassNonMaxSuppression/map/TensorArrayUnstack_1/range/delta"], "op": "Range", "name": "GridAnchorGenerator/range", "attr": {"Tidx": {"type": "DT_INT32"}}}, {"input": ["BatchMultiClassNonMaxSuppression/map/Const", "strided_slice_1", "BatchMultiClassNonMaxSuppression/map/TensorArrayUnstack_1/range/delta"], "op": "Range", "name": "GridAnchorGenerator/range_1", "attr": {"Tidx": {"type": "DT_INT32"}}}, {"input": ["FirstStageBoxPredictor/strided_slice_1", "FirstStageBoxPredictor/Reshape_1/shape/1", "FirstStageBoxPredictor/Reshape_1/shape/2"], "op": "Pack", "name": "FirstStageBoxPredictor/Reshape_1/shape", "attr": {"T": {"type": "DT_INT32"}, "N": {"i": "3"}, "axis": {"i": "0"}}}, {"input": ["FirstStageBoxPredictor/strided_slice_1", "FirstStageBoxPredictor/Reshape_1/shape/1", "BatchMultiClassNonMaxSuppression/map/TensorArrayUnstack_1/range/delta", "FirstStageBoxPredictor/Reshape/shape/3"], "op": "Pack", "name": "FirstStageBoxPredictor/Reshape/shape", "attr": {"T": {"type": "DT_INT32"}, "N": {"i": "4"}, "axis": {"i": "0"}}}, {"input": ["GridAnchorGenerator/range"], "op": "Cast", "name": "GridAnchorGenerator/Cast_3", "attr": {"Truncate": {"b": false}, "DstT": {"type": "DT_FLOAT"}, "SrcT": {"type": "DT_INT32"}}}, {"input": ["GridAnchorGenerator/range_1"], "op": "Cast", "name": "GridAnchorGenerator/Cast_4", "attr": {"Truncate": {"b": false}, "DstT": {"type": "DT_FLOAT"}, "SrcT": {"type": "DT_INT32"}}}, {"input": ["FirstStageBoxPredictor/ClassPredictor/BiasAdd", "FirstStageBoxPredictor/Reshape_1/shape"], "op": "Reshape", "name": "FirstStageBoxPredictor/Reshape_1", "attr": {"T": {"type": "DT_FLOAT"}, "Tshape": {"type": "DT_INT32"}}}, {"input": ["FirstStageBoxPredictor/BoxEncodingPredictor/BiasAdd", "FirstStageBoxPredictor/Reshape/shape"], "op": "Reshape", "name": "FirstStageBoxPredictor/Reshape", "attr": {"T": {"type": "DT_FLOAT"}, "Tshape": {"type": "DT_INT32"}}}, {"input": ["GridAnchorGenerator/Cast_3", "GridAnchorGenerator/strided_slice_2"], "op": "Mul", "name": "GridAnchorGenerator/mul_3", "attr": {"T": {"type": "DT_FLOAT"}}}, {"input": ["GridAnchorGenerator/Cast_4", "GridAnchorGenerator/strided_slice_2"], "op": "Mul", "name": "GridAnchorGenerator/mul_4", "attr": {"T": {"type": "DT_FLOAT"}}}, {"input": ["FirstStageBoxPredictor/Reshape_1"], "op": "Softmax", "name": "Softmax", "attr": {"T": {"type": "DT_FLOAT"}}}, {"input": ["FirstStageBoxPredictor/Reshape"], "op": "Squeeze", "name": "Squeeze", "attr": {"T": {"type": "DT_FLOAT"}, "squeeze_dims": {"list": {"i": ["2"]}}}}, {"input": ["GridAnchorGenerator/mul_3"], "op": "Shape", "name": "GridAnchorGenerator/Meshgrid_1/Shape_1", "attr": {"T": {"type": "DT_FLOAT"}, "out_type": {"type": "DT_INT32"}}}, {"input": ["GridAnchorGenerator/mul_4"], "op": "Shape", "name": "GridAnchorGenerator/Meshgrid_1/Shape", "attr": {"T": {"type": "DT_FLOAT"}, "out_type": {"type": "DT_INT32"}}}, {"input": ["Softmax", "strided_slice_10/stack", "strided_slice_10/stack_1", "strided_slice_10/stack_2"], "op": "StridedSlice", "name": "strided_slice_10", "attr": {"begin_mask": {"i": "3"}, "ellipsis_mask": {"i": "0"}, "Index": {"type": "DT_INT32"}, "T": {"type": "DT_FLOAT"}, "new_axis_mask": {"i": "0"}, "end_mask": {"i": "3"}, "shrink_axis_mask": {"i": "4"}}}, {"input": ["Squeeze", "FirstStageBoxPredictor/Reshape_1/shape/2"], "op": "ExpandDims", "name": "ExpandDims_1", "attr": {"T": {"type": "DT_FLOAT"}, "Tdim": {"type": "DT_INT32"}}}, {"input": ["GridAnchorGenerator/Meshgrid_1/Shape_1", "FirstStageBoxPredictor/strided_slice_1/stack_1", "GridAnchorGenerator/Meshgrid_1/ExpandedShape_1/Slice_1/size"], "op": "Slice", "name": "GridAnchorGenerator/Meshgrid_1/ExpandedShape_1/Slice_1", "attr": {"Index": {"type": "DT_INT32"}, "T": {"type": "DT_INT32"}}}, {"input": ["GridAnchorGenerator/Meshgrid_1/Shape", "FirstStageBoxPredictor/strided_slice_1/stack", "FirstStageBoxPredictor/strided_slice_1/stack"], "op": "Slice", "name": "GridAnchorGenerator/Meshgrid_1/ExpandedShape/Slice", "attr": {"Index": {"type": "DT_INT32"}, "T": {"type": "DT_INT32"}}}, {"input": ["strided_slice_10", "FirstStageBoxPredictor/Reshape_1/shape/2"], "op": "ExpandDims", "name": "ExpandDims_5", "attr": {"T": {"type": "DT_FLOAT"}, "Tdim": {"type": "DT_INT32"}}}, {"input": ["ExpandDims_1", "Reshape_1/shape"], "op": "Reshape", "name": "Reshape_1", "attr": {"T": {"type": "DT_FLOAT"}, "Tshape": {"type": "DT_INT32"}}}, {"input": ["ExpandDims_1"], "op": "Shape", "name": "Shape_2", "attr": {"T": {"type": "DT_FLOAT"}, "out_type": {"type": "DT_INT32"}}}, {"input": ["GridAnchorGenerator/Meshgrid_1/Shape_1", "FirstStageBoxPredictor/strided_slice_1/stack_1", "GridAnchorGenerator/Meshgrid_1/ExpandedShape_1/Slice_1", "BatchMultiClassNonMaxSuppression/map/Const"], "op": "ConcatV2", "name": "GridAnchorGenerator/Meshgrid_1/ExpandedShape_1/concat", "attr": {"T": {"type": "DT_INT32"}, "N": {"i": "3"}, "Tidx": {"type": "DT_INT32"}}}, {"input": ["GridAnchorGenerator/Meshgrid_1/ExpandedShape/Slice", "FirstStageBoxPredictor/strided_slice_1/stack_1", "GridAnchorGenerator/Meshgrid_1/Shape", "BatchMultiClassNonMaxSuppression/map/Const"], "op": "ConcatV2", "name": "GridAnchorGenerator/Meshgrid_1/ExpandedShape/concat", "attr": {"T": {"type": "DT_INT32"}, "N": {"i": "3"}, "Tidx": {"type": "DT_INT32"}}}, {"input": ["ExpandDims_5"], "op": "Shape", "name": "BatchMultiClassNonMaxSuppression/map/TensorArrayUnstack_1/Shape", "attr": {"T": {"type": "DT_FLOAT"}, "out_type": {"type": "DT_INT32"}}}, {"input": ["Reshape_1", "Decode/transpose/perm"], "op": "Transpose", "name": "Decode/transpose", "attr": {"Tperm": {"type": "DT_INT32"}, "T": {"type": "DT_FLOAT"}}}, {"input": ["Shape_2", "FirstStageBoxPredictor/strided_slice_1/stack", "FirstStageBoxPredictor/strided_slice_1/stack_1", "FirstStageBoxPredictor/strided_slice_1/stack_1"], "op": "StridedSlice", "name": "strided_slice_6", "attr": {"begin_mask": {"i": "0"}, "ellipsis_mask": {"i": "0"}, "Index": {"type": "DT_INT32"}, "T": {"type": "DT_INT32"}, "new_axis_mask": {"i": "0"}, "end_mask": {"i": "0"}, "shrink_axis_mask": {"i": "1"}}}, {"input": ["Shape_2", "FirstStageBoxPredictor/strided_slice_1/stack_1", "BatchMultiClassNonMaxSuppression/strided_slice_1/stack_1", "FirstStageBoxPredictor/strided_slice_1/stack_1"], "op": "StridedSlice", "name": "strided_slice_9", "attr": {"begin_mask": {"i": "0"}, "ellipsis_mask": {"i": "0"}, "Index": {"type": "DT_INT32"}, "T": {"type": "DT_INT32"}, "new_axis_mask": {"i": "0"}, "end_mask": {"i": "0"}, "shrink_axis_mask": {"i": "1"}}}, {"input": ["GridAnchorGenerator/mul_3", "GridAnchorGenerator/Meshgrid_1/ExpandedShape_1/concat"], "op": "Reshape", "name": "GridAnchorGenerator/Meshgrid_1/Reshape_1", "attr": {"T": {"type": "DT_FLOAT"}, "Tshape": {"type": "DT_INT32"}}}, {"input": ["GridAnchorGenerator/mul_4", "GridAnchorGenerator/Meshgrid_1/ExpandedShape/concat"], "op": "Reshape", "name": "GridAnchorGenerator/Me…
sNonMaxSuppression/map/while/PadOrClipBoxList/strided_slice_17", "attr": {"begin_mask": {"i": "0"}, "ellipsis_mask": {"i": "0"}, "Index": {"type": "DT_INT32"}, "T": {"type": "DT_INT32"}, "new_axis_mask": {"i": "0"}, "end_mask": {"i": "0"}, "shrink_axis_mask": {"i": "1"}}}, {"input": ["SecondStagePostprocessor/BatchMultiClassNonMaxSuppression/map/while/PadOrClipBoxList/Shape_1", "SecondStagePostprocessor/BatchMultiClassNonMaxSuppression/map/while/PadOrClipBoxList/strided_slice_18/stack", "SecondStagePostprocessor/BatchMultiClassNonMaxSuppression/map/while/PadOrClipBoxList/zeros_11/shape_as_tensor", "SecondStagePostprocessor/BatchMultiClassNonMaxSuppression/map/while/PadOrClipBoxList/zeros_11/shape_as_tensor"], "op": "StridedSlice", "name": "SecondStagePostprocessor/BatchMultiClassNonMaxSuppression/map/while/PadOrClipBoxList/strided_slice_2", "attr": {"begin_mask": {"i": "0"}, "ellipsis_mask": {"i": "0"}, "Index": {"type": "DT_INT32"}, "T": {"type": "DT_INT32"}, "new_axis_mask": {"i": "0"}, "end_mask": {"i": "0"}, "shrink_axis_mask": {"i": "1"}}}, {"input": ["SecondStagePostprocessor/BatchMultiClassNonMaxSuppression/map/while/PadOrClipBoxList/Shape_1", "SecondStagePostprocessor/BatchMultiClassNonMaxSuppression/map/while/PadOrClipBoxList/zeros_11/shape_as_tensor", "SecondStagePostprocessor/BatchMultiClassNonMaxSuppression/map/while/PadOrClipBoxList/zeros_9/shape_as_tensor", "SecondStagePostprocessor/BatchMultiClassNonMaxSuppression/map/while/PadOrClipBoxList/zeros_11/shape_as_tensor"], "op": "StridedSlice", "name": "SecondStagePostprocessor/BatchMultiClassNonMaxSuppression/map/while/PadOrClipBoxList/strided_slice_3", "attr": {"begin_mask": {"i": "0"}, "ellipsis_mask": {"i": "0"}, "Index": {"type": "DT_INT32"}, "T": {"type": "DT_INT32"}, "new_axis_mask": {"i": "0"}, "end_mask": {"i": "0"}, "shrink_axis_mask": {"i": "1"}}}, {"input": ["SecondStagePostprocessor/BatchMultiClassNonMaxSuppression/map/while/PadOrClipBoxList/Shape_11", "SecondStagePostprocessor/BatchMultiClassNonMaxSuppression/map/while/PadOrClipBoxList/strided_slice_18/stack", "SecondStagePostprocessor/BatchMultiClassNonMaxSuppression/map/while/PadOrClipBoxList/zeros_11/shape_as_tensor", "SecondStagePostprocessor/BatchMultiClassNonMaxSuppression/map/while/PadOrClipBoxList/zeros_11/shape_as_tensor"], "op": "StridedSlice", "name": "SecondStagePostprocessor/BatchMultiClassNonMaxSuppression/map/while/PadOrClipBoxList/strided_slice_19", "attr": {"begin_mask": {"i": "0"}, "ellipsis_mask": {"i": "0"}, "Index": {"type": "DT_INT32"}, "T": {"type": "DT_INT32"}, "new_axis_mask": {"i": "0"}, "end_mask": {"i": "0"}, "shrink_axis_mask": {"i": "1"}}}, {"input": ["SecondStagePostprocessor/BatchMultiClassNonMaxSuppression/map/while/PadOrClipBoxList/Shape_3", "SecondStagePostprocessor/BatchMultiClassNonMaxSuppression/map/while/PadOrClipBoxList/strided_slice_18/stack", "SecondStagePostprocessor/BatchMultiClassNonMaxSuppression/map/while/PadOrClipBoxList/zeros_11/shape_as_tensor", "SecondStagePostprocessor/BatchMultiClassNonMaxSuppression/map/while/PadOrClipBoxList/zeros_11/shape_as_tensor"], "op": "StridedSlice", "name": "SecondStagePostprocessor/BatchMultiClassNonMaxSuppression/map/while/PadOrClipBoxList/strided_slice_5", "attr": {"begin_mask": {"i": "0"}, "ellipsis_mask": {"i": "0"}, "Index": {"type": "DT_INT32"}, "T": {"type": "DT_INT32"}, "new_axis_mask": {"i": "0"}, "end_mask": {"i": "0"}, "shrink_axis_mask": {"i": "1"}}}, {"input": ["SecondStagePostprocessor/BatchMultiClassNonMaxSuppression/map/while/PadOrClipBoxList/sub_19/x", "SecondStagePostprocessor/BatchMultiClassNonMaxSuppression/map/while/PadOrClipBoxList/strided_slice_16"], "op": "Sub", "name": "SecondStagePostprocessor/BatchMultiClassNonMaxSuppression/map/while/PadOrClipBoxList/sub_16", "attr": {"T": {"type": "DT_INT32"}}}, {"input": ["SecondStagePostprocessor/BatchMultiClassNonMaxSuppression/map/while/PadOrClipBoxList/sub_15/y", "SecondStagePostprocessor/BatchMultiClassNonMaxSuppression/map/while/PadOrClipBoxList/strided_slice_17"], "op": "Sub", "name": "SecondStagePostprocessor/BatchMultiClassNonMaxSuppression/map/while/PadOrClipBoxList/sub_17", "attr": {"T": {"type": "DT_INT32"}}}, {"input": ["SecondStagePostprocessor/BatchMultiClassNonMaxSuppression/map/while/PadOrClipBoxList/sub_19/x", "SecondStagePostprocessor/BatchMultiClassNonMaxSuppression/map/while/PadOrClipBoxList/strided_slice_2"], "op": "Sub", "name": "SecondStagePostprocessor/BatchMultiClassNonMaxSuppression/map/while/PadOrClipBoxList/sub_2", "attr": {"T": {"type": "DT_INT32"}}}, {"input": ["SecondStagePostprocessor/BatchMultiClassNonMaxSuppression/map/while/PadOrClipBoxList/sub_1/y", "SecondStagePostprocessor/BatchMultiClassNonMaxSuppression/map/while/PadOrClipBoxList/strided_slice_3"], "op": "Sub", "name": "SecondStagePostprocessor/BatchMultiClassNonMaxSuppression/map/while/PadOrClipBoxList/sub_3", "attr": {"T": {"type": "DT_INT32"}}}, {"input": ["SecondStagePostprocessor/BatchMultiClassNonMaxSuppression/map/while/PadOrClipBoxList/sub_19/x", "SecondStagePostprocessor/BatchMultiClassNonMaxSuppression/map/while/PadOrClipBoxList/strided_slice_19"], "op": "Sub", "name": "SecondStagePostprocessor/BatchMultiClassNonMaxSuppression/map/while/PadOrClipBoxList/sub_19", "attr": {"T": {"type": "DT_INT32"}}}, {"input": ["SecondStagePostprocessor/BatchMultiClassNonMaxSuppression/map/while/PadOrClipBoxList/sub_19/x", "SecondStagePostprocessor/BatchMultiClassNonMaxSuppression/map/while/PadOrClipBoxList/strided_slice_5"], "op": "Sub", "name": "SecondStagePostprocessor/BatchMultiClassNonMaxSuppression/map/while/PadOrClipBoxList/sub_5", "attr": {"T": {"type": "DT_INT32"}}}, {"input": ["SecondStagePostprocessor/BatchMultiClassNonMaxSuppression/map/while/PadOrClipBoxList/sub_16", "SecondStagePostprocessor/BatchMultiClassNonMaxSuppression/map/while/PadOrClipBoxList/sub_17"], "op": "Pack", "name": "SecondStagePostprocessor/BatchMultiClassNonMaxSuppression/map/while/PadOrClipBoxList/stack_4/values_1", "attr": {"T": {"type": "DT_INT32"}, "N": {"i": "2"}, "axis": {"i": "0"}}}, {"input": ["SecondStagePostprocessor/BatchMultiClassNonMaxSuppression/map/while/PadOrClipBoxList/sub_2", "SecondStagePostprocessor/BatchMultiClassNonMaxSuppression/map/while/PadOrClipBoxList/sub_3"], "op": "Pack", "name": "SecondStagePostprocessor/BatchMultiClassNonMaxSuppression/map/while/PadOrClipBoxList/stack/values_1", "attr": {"T": {"type": "DT_INT32"}, "N": {"i": "2"}, "axis": {"i": "0"}}}, {"input": ["^SecondStagePostprocessor/BatchMultiClassNonMaxSuppression/map/while/PadOrClipBoxList/sub_19"], "op": "Const", "name": "ConstantFolding/SecondStagePostprocessor/BatchMultiClassNonMaxSuppression/map/while/PadOrClipBoxList/stack_5/values_1_const_axis", "attr": {"dtype": {"type": "DT_INT32"}, "value": {"tensor": {"dtype": "DT_INT32", "tensorShape": {}}}}}, {"input": ["^SecondStagePostprocessor/BatchMultiClassNonMaxSuppression/map/while/PadOrClipBoxList/sub_5"], "op": "Const", "name": "ConstantFolding/SecondStagePostprocessor/BatchMultiClassNonMaxSuppression/map/while/PadOrClipBoxList/stack_1/values_1_const_axis", "attr": {"dtype": {"type": "DT_INT32"}, "value": {"tensor": {"dtype": "DT_INT32", "tensorShape": {}}}}}, {"input": ["SecondStagePostprocessor/BatchMultiClassNonMaxSuppression/map/while/PadOrClipBoxList/zeros_9", "SecondStagePostprocessor/BatchMultiClassNonMaxSuppression/map/while/PadOrClipBoxList/stack_4/values_1"], "op": "Pack", "name": "SecondStagePostprocessor/BatchMultiClassNonMaxSuppression/map/while/PadOrClipBoxList/stack_4", "attr": {"T": {"type": "DT_INT32"}, "N": {"i": "2"}, "axis": {"i": "1"}}}, {"input": ["SecondStagePostprocessor/BatchMultiClassNonMaxSuppression/map/while/PadOrClipBoxList/zeros_9", "SecondStagePostprocessor/BatchMultiClassNonMaxSuppression/map/while/PadOrClipBoxList/stack/values_1"], "op": "Pack", "name": "SecondStagePostprocessor/BatchMultiClassNonMaxSuppression/map/while/PadOrClipBoxList/stack", "attr": {"T": {"type": "DT_INT32"}, "N": {"i": "2"}, "axis": {"i": "1"}}}, {"input": ["SecondStagePostprocessor/BatchMultiClassNonMaxSuppression/map/while/PadOrClipBoxList/sub_19", "ConstantFolding/SecondStagePostprocessor/BatchMultiClassNonMaxSuppression/map/while/PadOrClipBoxList/stack_5/values_1_const_axis"], "op": "ExpandDims", "name": "SecondStagePostprocessor/BatchMultiClassNonMaxSuppression/map/while/PadOrClipBoxList/stack_5/values_1", "attr": {"T": {"type": "DT_INT32"}, "Tdim": {"type": "DT_INT32"}}}, {"input": ["SecondStagePostprocessor/BatchMultiClassNonMaxSuppression/map/while/PadOrClipBoxList/sub_5", "ConstantFolding/SecondStagePostprocessor/BatchMultiClassNonMaxSuppression/map/while/PadOrClipBoxList/stack_1/values_1_const_axis"], "op": "ExpandDims", "name": "SecondStagePostprocessor/BatchMultiClassNonMaxSuppression/map/while/PadOrClipBoxList/stack_1/values_1", "attr": {"T": {"type": "DT_INT32"}, "Tdim": {"type": "DT_INT32"}}}, {"input": ["SecondStagePostprocessor/BatchMultiClassNonMaxSuppression/map/while/PadOrClipBoxList/Slice_4", "SecondStagePostprocessor/BatchMultiClassNonMaxSuppression/map/while/PadOrClipBoxList/stack_4"], "op": "Pad", "name": "SecondStagePostprocessor/BatchMultiClassNonMaxSuppression/map/while/PadOrClipBoxList/Pad_4", "attr": {"T": {"type": "DT_FLOAT"}, "Tpaddings": {"type": "DT_INT32"}}}, {"input": ["SecondStagePostprocessor/BatchMultiClassNonMaxSuppression/map/while/PadOrClipBoxList/Slice", "SecondStagePostprocessor/BatchMultiClassNonMaxSuppression/map/while/PadOrClipBoxList/stack"], "op": "Pad", "name": "SecondStagePostprocessor/BatchMultiClassNonMaxSuppression/map/while/PadOrClipBoxList/Pad", "attr": {"T": {"type": "DT_FLOAT"}, "Tpaddings": {"type": "DT_INT32"}}}, {"input": ["SecondStagePostprocessor/BatchMultiClassNonMaxSuppression/map/while/PadOrClipBoxList/zeros_11", "SecondStagePostprocessor/BatchMultiClassNonMaxSuppression/map/while/PadOrClipBoxList/stack_5/values_1"], "op": "Pack", "name": "SecondStagePostprocessor/BatchMultiClassNonMaxSuppression/map/while/PadOrClipBoxList/stack_5", "attr": {"T": {"type": "DT_INT32"}, "N": {"i": "2"}, "axis": {"i": "1"}}}, {"input": ["SecondStagePostprocessor/BatchMultiClassNonMaxSuppression/map/while/PadOrClipBoxList/zeros_11", "SecondStagePostprocessor/BatchMultiClassNonMaxSuppression/map/while/PadOrClipBoxList/stack_1/values_1"], "op": "Pack", "name": "SecondStagePostprocessor/BatchMultiClassNonMaxSuppression/map/while/PadOrClipBoxList/stack_1", "attr": {"T": {"type": "DT_INT32"}, "N": {"i": "2"}, "axis": {"i": "1"}}}, {"input": ["SecondStagePostprocessor/BatchMultiClassNonMaxSuppression/map/while/TensorArrayWrite_5/TensorArrayWriteV3/Enter", "SecondStagePostprocessor/BatchMultiClassNonMaxSuppression/map/while/Switch_1:1", "SecondStagePostprocessor/BatchMultiClassNonMaxSuppression/map/while/PadOrClipBoxList/Pad_4", "SecondStagePostprocessor/BatchMultiClassNonMaxSuppression/map/while/Switch_7:1"], "op": "TensorArrayWriteV3", "name": "SecondStagePostprocessor/BatchMultiClassNonMaxSuppression/map/while/TensorArrayWrite_5/TensorArrayWriteV3", "attr": {"T": {"type": "DT_FLOAT"}}}, {"input": ["SecondStagePostprocessor/BatchMultiClassNonMaxSuppression/map/while/TensorArrayWrite/TensorArrayWriteV3/Enter", "SecondStagePostprocessor/BatchMultiClassNonMaxSuppression/map/while/Switch_1:1", "SecondStagePostprocessor/BatchMultiClassNonMaxSuppression/map/while/PadOrClipBoxList/Pad", "SecondStagePostprocessor/BatchMultiClassNonMaxSuppression/map/while/Switch_2:1"], "op": "TensorArrayWriteV3", "name": "SecondStagePostprocessor/BatchMultiClassNonMaxSuppression/map/while/TensorArrayWrite/TensorArrayWriteV3", "attr": {"T": {"type": "DT_FLOAT"}}}, {"input": ["SecondStagePostprocessor/BatchMultiClassNonMaxSuppression/map/while/PadOrClipBoxList/Slice_5", "SecondStagePostprocessor/BatchMultiClassNonMaxSuppression/map/while/PadOrClipBoxList/stack_5"], "op": "Pad", "name": "SecondStagePostprocessor/BatchMultiClassNonMaxSuppression/map/while/PadOrClipBoxList/Pad_5", "attr": {"T": {"type": "DT_FLOAT"}, "Tpaddings": {"type": "DT_INT32"}}}, {"input": ["SecondStagePostprocessor/BatchMultiClassNonMaxSuppression/map/while/PadOrClipBoxList/Slice_1", "SecondStagePostprocessor/BatchMultiClassNonMaxSuppression/map/while/PadOrClipBoxList/stack_1"], "op": "Pad", "name": "SecondStagePostprocessor/BatchMultiClassNonMaxSuppression/map/while/PadOrClipBoxList/Pad_1", "attr": {"T": {"type": "DT_FLOAT"}, "Tpaddings": {"type": "DT_INT32"}}}, {"input": ["SecondStagePostprocessor/BatchMultiClassNonMaxSuppression/map/while/TensorArrayWrite_5/TensorArrayWriteV3"], "op": "NextIteration", "name": "SecondStagePostprocessor/BatchMultiClassNonMaxSuppression/map/while/NextIteration_7", "attr": {"T": {"type": "DT_FLOAT"}}}, {"input": ["SecondStagePostprocessor/BatchMultiClassNonMaxSuppression/map/while/TensorArrayWrite/TensorArrayWriteV3"], "op": "NextIteration", "name": "SecondStagePostprocessor/BatchMultiClassNonMaxSuppression/map/while/NextIteration_2", "attr": {"T": {"type": "DT_FLOAT"}}}, {"input": ["SecondStagePostprocessor/BatchMultiClassNonMaxSuppression/map/while/TensorArrayWrite_2/TensorArrayWriteV3/Enter", "SecondStagePostprocessor/BatchMultiClassNonMaxSuppression/map/while/Switch_1:1", "SecondStagePostprocessor/BatchMultiClassNonMaxSuppression/map/while/PadOrClipBoxList/Pad_5", "SecondStagePostprocessor/BatchMultiClassNonMaxSuppression/map/while/Switch_4:1"], "op": "TensorArrayWriteV3", "name": "SecondStagePostprocessor/BatchMultiClassNonMaxSuppression/map/while/TensorArrayWrite_2/TensorArrayWriteV3", "attr": {"T": {"type": "DT_FLOAT"}}}, {"input": ["SecondStagePostprocessor/BatchMultiClassNonMaxSuppression/map/while/TensorArrayWrite_1/TensorArrayWriteV3/Enter", "SecondStagePostprocessor/BatchMultiClassNonMaxSuppression/map/while/Switch_1:1", "SecondStagePostprocessor/BatchMultiClassNonMaxSuppression/map/while/PadOrClipBoxList/Pad_1", "SecondStagePostprocessor/BatchMultiClassNonMaxSuppression/map/while/Switch_3:1"], "op": "TensorArrayWriteV3", "name": "SecondStagePostprocessor/BatchMultiClassNonMaxSuppression/map/while/TensorArrayWrite_1/TensorArrayWriteV3", "attr": {"T": {"type": "DT_FLOAT"}}}, {"input": ["SecondStagePostprocessor/BatchMultiClassNonMaxSuppression/map/while/TensorArrayWrite_2/TensorArrayWriteV3"], "op": "NextIteration", "name": "SecondStagePostprocessor/BatchMultiClassNonMaxSuppression/map/while/NextIteration_4", "attr": {"T": {"type": "DT_FLOAT"}}}, {"input": ["SecondStagePostprocessor/BatchMultiClassNonMaxSuppression/map/while/TensorArrayWrite_1/TensorArrayWriteV3"], "op": "NextIteration", "name": "SecondStagePostprocessor/BatchMultiClassNonMaxSuppression/map/while/NextIteration_3", "attr": {"T": {"type": "DT_FLOAT"}}}]}, "convertedBy": "TensorFlow.js Converter v1.5.2", "generatedBy": "1.15.0", "format": "graph-model", "weightsManifest": [{"paths": ["group1-shard1of13.bin", "group1-shard2of13.bin", "group1-shard3of13.bin", "group1-shard4of13.bin", "group1-shard5of13.bin", "group1-shard6of13.bin", "group1-shard7of13.bin", "group1-shard8of13.bin", "group1-shard9of13.bin", "group1-shard10of13.bin", "group1-shard11of13.bin", "group1-shard12of13.bin", "group1-shard13of13.bin"], "weights": [{"dtype": "int32", "name": "BatchMultiClassNonMaxSuppression/map/Const", "shape": []}, {"dtype": "float32", "name": "Conv/weights", "shape": [3, 3, 576, 512]}, {"dtype": "float32", "name": "Conv/biases", "shape": [512]}, {"dtype": "float32", "name": "FirstStageBoxPredictor/ClassPredictor/weights", "shape": [1, 1, 512, 24]}, {"dtype": "float32", "name": "FirstStageBoxPredictor/ClassPredictor/biases", "shape": [24]}, {"dtype": "int32", "name": "FirstStageBoxPredictor/strided_slice_1/stack", "shape": [1]}, {"dtype": "int32", "name": "FirstStageBoxPredictor/strided_slice_1/stack_1", "shape": [1]}, {"dtype": "int32", "name": "FirstStageBoxPredictor/Reshape_1/shape/1", "shape": []}, {"dtype": "int32", "name": "FirstStageBoxPredictor/Reshape_1/shape/2", "shape": []}, {"dtype": "int32", "name": "strided_slice_10/stack", "shape": [3]}, {"dtype": "int32", "name": "strided_slice_10/stack_1", "shape": [3]}, {"dtype": "int32", "name": "strided_slice_10/stack_2", "shape": [3]}, {"dtype": "int32", "name": "BatchMultiClassNonMaxSuppression/map/TensorArrayUnstack_1/range/delta", "shape": []}, {"dtype": "int32", "name": "BatchMultiClassNonMaxSuppression/strided_slice_1/stack_1", "shape": [1]}, {"dtype": "int32", "name": "strided_slice_11/stack", "shape": [2]}, {"dtype": "int32", "name": "strided_slice_11/stack_1", "shape": [2]}, {"dtype": "int32", "name": "strided_slice_11/stack_2", "shape": [2]}, {"dtype": "int32", "name": "strided_slice_12/stack_1", "shape": [2]}, {"dtype": "float32", "name": "FirstStageBoxPredictor/BoxEncodingPredictor/weights", "shape": [1, 1, 512, 48]}, {"dtype": "float32", "name": "FirstStageBoxPredictor/BoxEncodingPredictor/biases", "shape": [48]}, {"dtype": "int32", "name": "FirstStageBoxPredictor/Reshape/shape/3", "shape": []}, {"dtype": "int32", "name": "Reshape_1/shape", "shape": [2]}, {"dtype": "int32", "name": "Decode/transpose/perm", "shape": [2]}, {"dtype": "int32", "name": "strided_slice_1/stack_1", "shape": [1]}, {"dtype": "float32", "name": "GridAnchorGenerator/strided_slice_2", "shape": []}, {"dtype": "float32", "name": "GridAnchorGenerator/strided_slice_3", "shape": []}, {"dtype": "int32", "name": "GridAnchorGenerator/Meshgrid_1/ExpandedShape_1/Slice_1/size", "shape": [1]}, {"dtype": "int32", "name": "GridAnchorGenerator/Meshgrid_3/ExpandedShape/concat", "shape": [3]}, {"dtype": "int32", "name": "GridAnchorGenerator/Reshape_2/shape", "shape": [2]}, {"dtype": "float32", "name": "GridAnchorGenerator/mul_5/x", "shape": []}, {"dtype": "float32", "name": "GridAnchorGenerator/Meshgrid_3/Reshape", "shape": [1, 1, 12]}, {"dtype": "float32", "name": "GridAnchorGenerator/Meshgrid_2/Reshape", "shape": [1, 1, 12]}, {"dtype": "int32", "name": "SecondStagePostprocessor/Slice/size", "shape": [3]}, {"dtype": "float32", "name": "Preprocessor/mul/x", "shape": []}, {"dtype": "float32", "name": "Preprocessor/sub/y", "shape": []}, {"dtype": "float32", "name": "FirstStageFeatureExtractor/InceptionV2/Conv2d_1a_7x7/depthwise_weights", "shape": [7, 7, 3, 8]}, {"dtype": "int32", "name": "SecondStageBoxPredictor/AvgPool_1/reduction_indices", "shape": [2]}, {"dtype": "float32", "name": "SecondStageBoxPredictor/ClassPredictor/weights", "shape": [1024, 2]}, {"dtype": "float32", "name": "SecondStageBoxPredictor/ClassPredictor/biases", "shape": [2]}, {"dtype": "int32", "name": "SecondStageBoxPredictor/Reshape_1/shape", "shape": [3]}, {"dtype": "int32", "name": "SecondStagePostprocessor/Reshape_1/shape", "shape": [3]}, {"dtype": "float32", "name": "SecondStageBoxPredictor/BoxEncodingPredictor/weights", "shape": [1024, 4]}, {"dtype": "float32", "name": "SecondStageBoxPredictor/BoxEncodingPredictor/biases", "shape": [4]}, {"dtype": "int32", "name": "SecondStageBoxPredictor/Reshape/shape", "shape": [4]}, {"dtype": "int32", "name": "SecondStagePostprocessor/Reshape/shape", "shape": [4]}, {"dtype": "int32", "name": "SecondStagePostprocessor/stack/1", "shape": []}, {"dtype": "int32", "name": "CropAndResize/CropAndResize/crop_size", "shape": [2]}, {"dtype": "int32", "name": "SecondStageFeatureExtractor/InceptionV2/Mixed_5a/concat/axis", "shape": []}, {"dtype": "float32", "name": "ConstantFolding/Decode/truediv_recip", "shape": []}, {"dtype": "float32", "name": "ConstantFolding/Decode/truediv_2_recip", "shape": []}, {"dtype": "float32", "name": "FirstStageFeatureExtractor/InceptionV2/InceptionV2/Conv2d_1a_7x7/separable_conv2d_weights", "shape": [1, 1, 24, 64]}, {"dtype": "float32", "name": "FirstStageFeatureExtractor/InceptionV2/InceptionV2/Conv2d_1a_7x7/separable_conv2d_bn_offset", "shape": [64]}, {"dtype": "float32", "name": "FirstStageFeatureExtractor/InceptionV2/InceptionV2/Conv2d_2b_1x1/Conv2D_weights", "shape": [1, 1, 64, 64]}, {"dtype": "float32", "name": "FirstStageFeatureExtractor/InceptionV2/InceptionV2/Conv2d_2b_1x1/Conv2D_bn_offset", "shape": [64]}, {"dtype": "float32", "name": "FirstStageFeatureExtractor/InceptionV2/InceptionV2/Conv2d_2c_3x3/Conv2D_weights", "shape": [3, 3, 64, 192]}, {"dtype": "float32", "name": "FirstStageFeatureExtractor/InceptionV2/InceptionV2/Conv2d_2c_3x3/Conv2D_bn_offset", "shape": [192]}, {"dtype": "float32", "name": "FirstStageFeatureExtractor/InceptionV2/InceptionV2/Mixed_3b/Branch_0/Conv2d_0a_1x1/Conv2D_weights", "shape": [1, 1, 192, 64]}, {"dtype": "float32", "name": "FirstStageFeatureExtractor/InceptionV2/InceptionV2/Mixed_3b/Branch_0/Conv2d_0a_1x1/Conv2D_bn_offset", "shape": [64]}, {"dtype": "float32", "name": "FirstStageFeatureExtractor/InceptionV2/InceptionV2/Mixed_3b/Branch_1/Conv2d_0a_1x1/Conv2D_weights", "shape": [1, 1, 192, 64]}, {"dtype": "float32", "name": "FirstStageFeatureExtractor/InceptionV2/InceptionV2/Mixed_3b/Branch_1/Conv2d_0a_1x1/Conv2D_bn_offset", "shape": [64]}, {"dtype": "float32", "name": "FirstStageFeatureExtractor/InceptionV2/InceptionV2/Mixed_3b/Branch_2/Conv2d_0a_1x1/Conv2D_weights", "shape": [1, 1, 192, 64]}, {"dtype": "float32", "name": "FirstStageFeatureExtractor/InceptionV2/InceptionV2/Mixed_3b/Branch_2/Conv2d_0a_1x1/Conv2D_bn_offset", "shape": [64]}, {"dtype": "float32", "name": "FirstStageFeatureExtractor/InceptionV2/InceptionV2/Mixed_3b/Branch_3/Conv2d_0b_1x1/Conv2D_weights", "shape": [1, 1, 192, 32]}, {"dtype": "float32", "name": "FirstStageFeatureExtractor/InceptionV2/InceptionV2/Mixed_3b/Branch_3/Conv2d_0b_1x1/Conv2D_bn_offset", "shape": [32]}, {"dtype": "float32", "name": "FirstStageFeatureExtractor/InceptionV2/InceptionV2/Mixed_3b/Branch_1/Conv2d_0b_3x3/Conv2D_weights", "shape": [3, 3, 64, 64]}, {"dtype": "float32", "name": "FirstStageFeatureExtractor/InceptionV2/InceptionV2/Mixed_3b/Branch_1/Conv2d_0b_3x3/Conv2D_bn_offset", "shape": [64]}, {"dtype": "float32", "name": "FirstStageFeatureExtractor/InceptionV2/InceptionV2/Mixed_3b/Branch_2/Conv2d_0b_3x3/Conv2D_weights", "shape": [3, 3, 64, 96]}, {"dtype": "float32", "name": "FirstStageFeatureExtractor/InceptionV2/InceptionV2/Mixed_3b/Branch_2/Conv2d_0b_3x3/Conv2D_bn_offset", "shape": [96]}, {"dtype": "float32", "name": "FirstStageFeatureExtractor/InceptionV2/InceptionV2/Mixed_3b/Branch_2/Conv2d_0c_3x3/Conv2D_weights", "shape": [3, 3, 96, 96]}, {"dtype": "float32", "name": "FirstStageFeatureExtractor/InceptionV2/InceptionV2/Mixed_3b/Branch_2/Conv2d_0c_3x3/Conv2D_bn_offset", "shape": [96]}, {"dtype": "float32", "name": "FirstStageFeatureExtractor/InceptionV2/InceptionV2/Mixed_3c/Branch_0/Conv2d_0a_1x1/Conv2D_weights", "shape": [1, 1, 256, 64]}, {"dtype": "float32", "name": "FirstStageFeatureExtractor/InceptionV2/InceptionV2/Mixed_3c/Branch_0/Conv2d_0a_1x1/Conv2D_bn_offset", "shape": [64]}, {"dtype": "float32", "name": "FirstStageFeatureExtractor/InceptionV2/InceptionV2/Mixed_3c/Branch_1/Conv2d_0a_1x1/Conv2D_weights", "shape": [1, 1, 256, 64]}, {"dtype": "float32", "name": "FirstStageFeatureExtractor/InceptionV2/InceptionV2/Mixed_3c/Branch_1/Conv2d_0a_1x1/Conv2D_bn_offset", "shape": [64]}, {"dtype": "float32", "name": "FirstStageFeatureExtractor/InceptionV2/InceptionV2/Mixed_3c/Branch_2/Conv2d_0a_1x1/Conv2D_weights", "shape": [1, 1, 256, 64]}, {"dtype": "float32", "name": "FirstStageFeatureExtractor/InceptionV2/InceptionV2/Mixed_3c/Branch_2/Conv2d_0a_1x1/Conv2D_bn_offset", "shape": [64]}, {"dtype": "float32", "name": "FirstStageFeatureExtractor/InceptionV2/InceptionV2/Mixed_3c/Branch_3/Conv2d_0b_1x1/Conv2D_weights", "shape": [1, 1, 256, 64]}, {"dtype": "float32", "name": "FirstStageFeatureExtractor/InceptionV2/InceptionV2/Mixed_3c/Branch_3/Conv2d_0b_1x1/Conv2D_bn_offset", "shape": [64]}, {"dtype": "float32", "name": "FirstStageFeatureExtractor/InceptionV2/InceptionV2/Mixed_3c/Branch_1/Conv2d_0b_3x3/Conv2D_weights", "shape": [3, 3, 64, 96]}, {"dtype": "float32", "name": "FirstStageFeatureExtractor/InceptionV2/InceptionV2/Mixed_3c/Branch_1/Conv2d_0b_3x3/Conv2D_bn_offset", "shape": [96]}, {"dtype": "float32", "name": "FirstStageFeatureExtractor/InceptionV2/InceptionV2/Mixed_3c/Branch_2/Conv2d_0b_3x3/Conv2D_weights", "shape": [3, 3, 64, 96]}, {"dtype": "float32", "name": "FirstStageFeatureExtractor/InceptionV2/InceptionV2/Mixed_3c/Branch_2/Conv2d_0b_3x3/Conv2D_bn_offset", "shape": [96]}, {"dtype": "float32", "name": "FirstStageFeatureExtractor/InceptionV2/InceptionV2/Mixed_3c/Branch_2/Conv2d_0c_3x3/Conv2D_weights", "shape": [3, 3, 96, 96]}, {"dtype": "float32", "name": "FirstStageFeatureExtractor/InceptionV2/InceptionV2/Mixed_3c/Branch_2/Conv2d_0c_3x3/Conv2D_bn_offset", "shape": [96]}, {"dtype": "float32", "name": "FirstStageFeatureExtractor/InceptionV2/InceptionV2/Mixed_4a/Branch_0/Conv2d_0a_1x1/Conv2D_weights", "shape": [1, 1, 320, 128]}, {"dtype": "float32", "name": "FirstStageFeatureExtractor/InceptionV2/InceptionV2/Mixed_4a/Branch_0/Conv2d_0a_1x1/Conv2D_bn_offset", "shape": [128]}, {"dtype": "float32", "name": "FirstStageFeatureExtractor/InceptionV2/InceptionV2/Mixed_4a/Branch_1/Conv2d_0a_1x1/Conv2D_weights", "shape": [1, 1, 320, 64]}, {"dtype": "float32", "name": "FirstStageFeatureExtractor/InceptionV2/InceptionV2/Mixed_4a/Branch_1/Conv2d_0a_1x1/Conv2D_bn_offset", "shape": [64]}, {"dtype": "float32", "name": "FirstStageFeatureExtractor/InceptionV2/InceptionV2/Mixed_4a/Branch_0/Conv2d_1a_3x3/Conv2D_weights", "shape": [3, 3, 128, 160]}, {"dtype": "float32", "name": "FirstStageFeatureExtractor/InceptionV2/InceptionV2/Mixed_4a/Branch_0/Conv2d_1a_3x3/Conv2D_bn_offset", "shape": [160]}, {"dtype": "float32", "name": "FirstStageFeatureExtractor/InceptionV2/InceptionV2/Mixed_4a/Branch_1/Conv2d_0b_3x3/Conv2D_weights", "shape": [3, 3, 64, 96]}, {"dtype": "float32", "name": "FirstStageFeatureExtractor/InceptionV2/InceptionV2/Mixed_4a/Branch_1/Conv2d_0b_3x3/Conv2D_bn_offset", "shape": [96]}, {"dtype": "float32", "name": "FirstStageFeatureExtractor/InceptionV2/InceptionV2/Mixed_4a/Branch_1/Conv2d_1a_3x3/Conv2D_weights", "shape": [3, 3, 96, 96]}, {"dtype": "float32", "name": "FirstStageFeatureExtractor/InceptionV2/InceptionV2/Mixed_4a/Branch_1/Conv2d_1a_3x3/Conv2D_bn_offset", "shape": [96]}, {"dtype": "float32", "name": "FirstStageFeatureExtractor/InceptionV2/InceptionV2/Mixed_4b/Branch_0/Conv2d_0a_1x1/Conv2D_weights", "shape": [1, 1, 576, 224]}, {"dtype": "float32", "name": "FirstStageFeatureExtractor/InceptionV2/InceptionV2/Mixed_4b/Branch_0/Conv2d_0a_1x1/Conv2D_bn_offset", "shape": [224]}, {"dtype": "float32", "name": "FirstStageFeatureExtractor/InceptionV2/InceptionV2/Mixed_4b/Branch_1/Conv2d_0a_1x1/Conv2D_weights", "shape": [1, 1, 576, 64]}, {"dtype": "float32", "name": "FirstStageFeatureExtractor/InceptionV2/InceptionV2/Mixed_4b/Branch_1/Conv2d_0a_1x1/Conv2D_bn_offset", "shape": [64]}, {"dtype": "float32", "name": "FirstStageFeatureExtractor/InceptionV2/InceptionV2/Mixed_4b/Branch_2/Conv2d_0a_1x1/Conv2D_weights", "shape": [1, 1, 576, 96]}, {"dtype": "float32", "name": "FirstStageFeatureExtractor/InceptionV2/InceptionV2/Mixed_4b/Branch_2/Conv2d_0a_1x1/Conv2D_bn_offset", "shape": [96]}, {"dtype": "float32", "name": "FirstStageFeatureExtractor/InceptionV2/InceptionV2/Mixed_4b/Branch_3/Conv2d_0b_1x1/Conv2D_weights", "shape": [1, 1, 576, 128]}, {"dtype": "float32", "name": "FirstStageFeatureExtractor/InceptionV2/InceptionV2/Mixed_4b/Branch_3/Conv2d_0b_1x1/Conv2D_bn_offset", "shape": [128]}, {"dtype": "float32", "name": "FirstStageFeatureExtractor/InceptionV2/InceptionV2/Mixed_4b/Branch_1/Conv2d_0b_3x3/Conv2D_weights", "shape": [3, 3, 64, 96]}, {"dtype": "float32", "name": "FirstStageFeatureExtractor/InceptionV2/InceptionV2/Mixed_4b/Branch_1/Conv2d_0b_3x3/Conv2D_bn_offset", "shape": [96]}, {"dtype": "float32", "name": "FirstStageFeatureExtractor/InceptionV2/InceptionV2/Mixed_4b/Branch_2/Conv2d_0b_3x3/Conv2D_weights", "shape": [3, 3, 96, 128]}, {"dtype": "float32", "name": "FirstStageFeatureExtractor/InceptionV2/InceptionV2/Mixed_4b/Branch_2/Conv2d_0b_3x3/Conv2D_bn_offset", "shape": [128]}, {"dtype": "float32", "name": "FirstStageFeatureExtractor/InceptionV2/InceptionV2/Mixed_4b/Branch_2/Conv2d_0c_3x3/Conv2D_weights", "shape": [3, 3, 128, 128]}, {"dtype": "float32", "name": "FirstStageFeatureExtractor/InceptionV2/InceptionV2/Mixed_4b/Branch_2/Conv2d_0c_3x3/Conv2D_bn_offset", "shape": [128]}, {"dtype": "float32", "name": "FirstStageFeatureExtractor/InceptionV2/InceptionV2/Mixed_4c/Branch_0/Conv2d_0a_1x1/Conv2D_weights", "shape": [1, 1, 576, 192]}, {"dtype": "float32", "name": "FirstStageFeatureExtractor/InceptionV2/InceptionV2/Mixed_4c/Branch_0/Conv2d_0a_1x1/Conv2D_bn_offset", "shape": [192]}, {"dtype": "float32", "name": "FirstStageFeatureExtractor/InceptionV2/InceptionV2/Mixed_4c/Branch_1/Conv2d_0a_1x1/Conv2D_weights", "shape": [1, 1, 576, 96]}, {"dtype": "float32", "name": "FirstStageFeatureExtractor/InceptionV2/InceptionV2/Mixed_4c/Branch_1/Conv2d_0a_1x1/Conv2D_bn_offset", "shape": [96]}, {"dtype": "float32", "name": "FirstStageFeatureExtractor/InceptionV2/InceptionV2/Mixed_4c/Branch_2/Conv2d_0a_1x1/Conv2D_weights", "shape": [1, 1, 576, 96]}, {"dtype": "float32", "name": "FirstStageFeatureExtractor/InceptionV2/InceptionV2/Mixed_4c/Branch_2/Conv2d_0a_1x1/Conv2D_bn_offset", "shape": [96]}, {"dtype": "float32", "name": "FirstStageFeatureExtractor/InceptionV2/InceptionV2/Mixed_4c/Branch_3/Conv2d_0b_1x1/Conv2D_weights", "shape": [1, 1, 576, 128]}, {"dtype": "float32", "name": "FirstStageFeatureExtractor/InceptionV2/InceptionV2/Mixed_4c/Branch_3/Conv2d_0b_1x1/Conv2D_bn_offset", "shape": [128]}, {"dtype": "float32", "name": "FirstStageFeatureExtractor/InceptionV2/InceptionV2/Mixed_4c/Branch_1/Conv2d_0b_3x3/Conv2D_weights", "shape": [3, 3, 96, 128]}, {"dtype": "float32", "name": "FirstStageFeatureExtractor/InceptionV2/InceptionV2/Mixed_4c/Branch_1/Conv2d_0b_3x3/Conv2D_bn_offset", "shape": [128]}, {"dtype": "float32", "name": "FirstStageFeatureExtractor/InceptionV2/InceptionV2/Mixed_4c/Branch_2/Conv2d_0b_3x3/Conv2D_weights", "shape": [3, 3, 96, 128]}, {"dtype": "float32", "name": "FirstStageFeatureExtractor/InceptionV2/InceptionV2/Mixed_4c/Branch_2/Conv2d_0b_3x3/Conv2D_bn_offset", "shape": [128]}, {"dtype": "float32", "name": "FirstStageFeatureExtractor/InceptionV2/InceptionV2/Mixed_4c/Branch_2/Conv2d_0c_3x3/Conv2D_weights", "shape": [3, 3, 128, 128]}, {"dtype": "float32", "name": "FirstStageFeatureExtractor/InceptionV2/InceptionV2/Mixed_4c/Branch_2/Conv2d_0c_3x3/Conv2D_bn_offset", "shape": [128]}, {"dtype": "float32", "name": "FirstStageFeatureExtractor/InceptionV2/InceptionV2/Mixed_4d/Branch_0/Conv2d_0a_1x1/Conv2D_weights", "shape": [1, 1, 576, 160]}, {"dtype": "float32", "name": "FirstStageFeatureExtractor/InceptionV2/InceptionV2/Mixed_4d/Branch_0/Conv2d_0a_1x1/Conv2D_bn_offset", "shape": [160]}, {"dtype": "float32", "name": "FirstStageFeatureExtractor/InceptionV2/InceptionV2/Mixed_4d/Branch_1/Conv2d_0a_1x1/Conv2D_weights", "shape": [1, 1, 576, 128]}, {"dtype": "float32", "name": "FirstStageFeatureExtractor/InceptionV2/InceptionV2/Mixed_4d/Branch_1/Conv2d_0a_1x1/Conv2D_bn_offset", "shape": [128]}, {"dtype": "float32", "name": "FirstStageFeatureExtractor/InceptionV2/InceptionV2/Mixed_4d/Branch_2/Conv2d_0a_1x1/Conv2D_weights", "shape": [1, 1, 576, 128]}, {"dtype": "float32", "name": "FirstStageFeatureExtractor/InceptionV2/InceptionV2/Mixed_4d/Branch_2/Conv2d_0a_1x1/Conv2D_bn_offset", "shape": [128]}, {"dtype": "float32", "name": "FirstStageFeatureExtractor/InceptionV2/InceptionV2/Mixed_4d/Branch_3/Conv2d_0b_1x1/Conv2D_weights", "shape": [1, 1, 576, 96]}, {"dtype": "float32", "name": "FirstStageFeatureExtractor/InceptionV2/InceptionV2/Mixed_4d/Branch_3/Conv2d_0b_1x1/Conv2D_bn_offset", "shape": [96]}, {"dtype": "float32", "name": "FirstStageFeatureExtractor/InceptionV2/InceptionV2/Mixed_4d/Branch_1/Conv2d_0b_3x3/Conv2D_weights", "shape": [3, 3, 128, 160]}, {"dtype": "float32", "name": "FirstStageFeatureExtractor/InceptionV2/InceptionV2/Mixed_4d/Branch_1/Conv2d_0b_3x3/Conv2D_bn_offset", "shape": [160]}, {"dtype": "float32", "name": "FirstStageFeatureExtractor/InceptionV2/InceptionV2/Mixed_4d/Branch_2/Conv2d_0b_3x3/Conv2D_weights", "shape": [3, 3, 128, 160]}, {"dtype": "float32", "name": "FirstStageFeatureExtractor/InceptionV2/InceptionV2/Mixed_4d/Branch_2/Conv2d_0b_3x3/Conv2D_bn_offset", "shape": [160]}, {"dtype": "float32", "name": "FirstStageFeatureExtractor/InceptionV2/InceptionV2/Mixed_4d/Branch_2/Conv2d_0c_3x3/Conv2D_weights", "shape": [3, 3, 160, 160]}, {"dtype": "float32", "name": "FirstStageFeatureExtractor/InceptionV2/InceptionV2/Mixed_4d/Branch_2/Conv2d_0c_3x3/Conv2D_bn_offset", "shape": [160]}, {"dtype": "float32", "name": "FirstStageFeatureExtractor/InceptionV2/InceptionV2/Mixed_4e/Branch_0/Conv2d_0a_1x1/Conv2D_weights", "shape": [1, 1, 576, 96]}, {"dtype": "float32", "name": "FirstStageFeatureExtractor/InceptionV2/InceptionV2/Mixed_4e/Branch_0/Conv2d_0a_1x1/Conv2D_bn_offset", "shape": [96]}, {"dtype": "float32", "name": "FirstStageFeatureExtractor/InceptionV2/InceptionV2/Mixed_4e/Branch_1/Conv2d_0a_1x1/Conv2D_weights", "shape": [1, 1, 576, 128]}, {"dtype": "float32", "name": "FirstStageFeatureExtractor/InceptionV2/InceptionV2/Mixed_4e/Branch_1/Conv2d_0a_1x1/Conv2D_bn_offset", "shape": [128]}, {"dtype": "float32", "name": "FirstStageFeatureExtractor/InceptionV2/InceptionV2/Mixed_4e/Branch_2/Conv2d_0a_1x1/Conv2D_weights", "shape": [1, 1, 576, 160]}, {"dtype": "float32", "name": "FirstStageFeatureExtractor/InceptionV2/InceptionV2/Mixed_4e/Branch_2/Conv2d_0a_1x1/Conv2D_bn_offset", "shape": [160]}, {"dtype": "float32", "name": "FirstStageFeatureExtractor/InceptionV2/InceptionV2/Mixed_4e/Branch_3/Conv2d_0b_1x1/Conv2D_weights", "shape": [1, 1, 576, 96]}, {"dtype": "float32", "name": "FirstStageFeatureExtractor/InceptionV2/InceptionV2/Mixed_4e/Branch_3/Conv2d_0b_1x1/Conv2D_bn_offset", "shape": [96]}, {"dtype": "float32", "name": "FirstStageFeatureExtractor/InceptionV2/InceptionV2/Mixed_4e/Branch_1/Conv2d_0b_3x3/Conv2D_weights", "shape": [3, 3, 128, 192]}, {"dtype": "float32", "name": "FirstStageFeatureExtractor/InceptionV2/InceptionV2/Mixed_4e/Branch_1/Conv2d_0b_3x3/Conv2D_bn_offset", "shape": [192]}, {"dtype": "float32", "name": "FirstStageFeatureExtractor/InceptionV2/InceptionV2/Mixed_4e/Branch_2/Conv2d_0b_3x3/Conv2D_weights", "shape": [3, 3, 160, 192]}, {"dtype": "float32", "name": "FirstStageFeatureExtractor/InceptionV2/InceptionV2/Mixed_4e/Branch_2/Conv2d_0b_3x3/Conv2D_bn_offset", "shape": [192]}, {"dtype": "float32", "name": "FirstStageFeatureExtractor/InceptionV2/InceptionV2/Mixed_4e/Branch_2/Conv2d_0c_3x3/Conv2D_weights", "shape": [3, 3, 192, 192]}, {"dtype": "float32", "name": "FirstStageFeatureExtractor/InceptionV2/InceptionV2/Mixed_4e/Branch_2/Conv2d_0c_3x3/Conv2D_bn_offset", "shape": [192]}, {"dtype": "float32", "name": "SecondStageFeatureExtractor/InceptionV2/Mixed_5a/Branch_0/Conv2d_0a_1x1/Conv2D_weights", "shape": [1, 1, 576, 128]}, {"dtype": "float32", "name": "SecondStageFeatureExtractor/InceptionV2/Mixed_5a/Branch_0/Conv2d_0a_1x1/Conv2D_bn_offset", "shape": [128]}, {"dtype": "float32", "name": "SecondStageFeatureExtractor/InceptionV2/Mixed_5a/Branch_1/Conv2d_0a_1x1/Conv2D_weights", "shape": [1, 1, 576, 192]}, {"dtype": "float32", "name": "SecondStageFeatureExtractor/InceptionV2/Mixed_5a/Branch_1/Conv2d_0a_1x1/Conv2D_bn_offset", "shape": [192]}, {"dtype": "float32", "name": "SecondStageFeatureExtractor/InceptionV2/Mixed_5a/Branch_0/Conv2d_1a_3x3/Conv2D_weights", "shape": [3, 3, 128, 192]}, {"dtype": "float32", "name": "SecondStageFeatureExtractor/InceptionV2/Mixed_5a/Branch_0/Conv2d_1a_3x3/Conv2D_bn_offset", "shape": [192]}, {"dtype": "float32", "name": "SecondStageFeatureExtractor/InceptionV2/Mixed_5a/Branch_1/Conv2d_0b_3x3/Conv2D_weights", "shape": [3, 3, 192, 256]}, {"dtype": "float32", "name": "SecondStageFeatureExtractor/InceptionV2/Mixed_5a/Branch_1/Conv2d_0b_3x3/Conv2D_bn_offset", "shape": [256]}, {"dtype": "float32", "name": "SecondStageFeatureExtractor/InceptionV2/Mixed_5a/Branch_1/Conv2d_1a_3x3/Conv2D_weights", "shape": [3, 3, 256, 256]}, {"dtype": "float32", "name": "SecondStageFeatureExtractor/InceptionV2/Mixed_5a/Branch_1/Conv2d_1a_3x3/Conv2D_bn_offset", "shape": [256]}, {"dtype": "float32", "name": "SecondStageFeatureExtractor/InceptionV2/Mixed_5b/Branch_0/Conv2d_0a_1x1/Conv2D_weights", "shape": [1, 1, 1024, 352]}, {"dtype": "float32", "name": "SecondStageFeatureExtractor/InceptionV2/Mixed_5b/Branch_0/Conv2d_0a_1x1/Conv2D_bn_offset", "shape": [352]}, {"dtype": "float32", "name": "SecondStageFeatureExtractor/InceptionV2/Mixed_5b/Branch_1/Conv2d_0a_1x1/Conv2D_weights", "shape": [1, 1, 1024, 192]}, {"dtype": "float32", "name": "SecondStageFeatureExtractor/InceptionV2/Mixed_5b/Branch_1/Conv2d_0a_1x1/Conv2D_bn_offset", "shape": [192]}, {"dtype": "float32", "name": "SecondStageFeatureExtractor/InceptionV2/Mixed_5b/Branch_2/Conv2d_0a_1x1/Conv2D_weights", "shape": [1, 1, 1024, 160]}, {"dtype": "float32", "name": "SecondStageFeatureExtractor/InceptionV2/Mixed_5b/Branch_2/Conv2d_0a_1x1/Conv2D_bn_offset", "shape": [160]}, {"dtype": "float32", "name": "SecondStageFeatureExtractor/InceptionV2/Mixed_5b/Branch_3/Conv2d_0b_1x1/Conv2D_weights", "shape": [1, 1, 1024, 128]}, {"dtype": "float32", "name": "SecondStageFeatureExtractor/InceptionV2/Mixed_5b/Branch_3/Conv2d_0b_1x1/Conv2D_bn_offset", "shape": [128]}, {"dtype": "float32", "name": "SecondStageFeatureExtractor/InceptionV2/Mixed_5b/Branch_1/Conv2d_0b_3x3/Conv2D_weights", "shape": [3, 3, 192, 320]}, {"dtype": "float32", "name": "SecondStageFeatureExtractor/InceptionV2/Mixed_5b/Branch_1/Conv2d_0b_3x3/Conv2D_bn_offset", "shape": [320]}, {"dtype": "float32", "name": "SecondStageFeatureExtractor/InceptionV2/Mixed_5b/Branch_2/Conv2d_0b_3x3/Conv2D_weights", "shape": [3, 3, 160, 224]}, {"dtype": "float32", "name": "SecondStageFeatureExtractor/InceptionV2/Mixed_5b/Branch_2/Conv2d_0b_3x3/Conv2D_bn_offset", "shape": [224]}, {"dtype": "float32", "name": "SecondStageFeatureExtractor/InceptionV2/Mixed_5b/Branch_2/Conv2d_0c_3x3/Conv2D_weights", "shape": [3, 3, 224, 224]}, {"dtype": "float32", "name": "SecondStageFeatureExtractor/InceptionV2/Mixed_5b/Branch_2/Conv2d_0c_3x3/Conv2D_bn_offset", "shape": [224]}, {"dtype": "float32", "name": "SecondStageFeatureExtractor/InceptionV2/Mixed_5c/Branch_0/Conv2d_0a_1x1/Conv2D_weights", "shape": [1, 1, 1024, 352]}, {"dtype": "float32", "name": "SecondStageFeatureExtractor/InceptionV2/Mixed_5c/Branch_0/Conv2d_0a_1x1/Conv2D_bn_offset", "shape": [352]}, {"dtype": "float32", "name": "SecondStageFeatureExtractor/InceptionV2/Mixed_5c/Branch_1/Conv2d_0a_1x1/Conv2D_weights", "shape": [1, 1, 1024, 192]}, {"dtype": "float32", "name": "SecondStageFeatureExtractor/InceptionV2/Mixed_5c/Branch_1/Conv2d_0a_1x1/Conv2D_bn_offset", "shape": [192]}, {"dtype": "float32", "name": "SecondStageFeatureExtractor/InceptionV2/Mixed_5c/Branch_2/Conv2d_0a_1x1/Conv2D_weights", "shape": [1, 1, 1024, 192]}, {"dtype": "float32", "name": "SecondStageFeatureExtractor/InceptionV2/Mixed_5c/Branch_2/Conv2d_0a_1x1/Conv2D_bn_offset", "shape": [192]}, {"dtype": "float32", "name": "SecondStageFeatureExtractor/InceptionV2/Mixed_5c/Branch_3/Conv2d_0b_1x1/Conv2D_weights", "shape": [1, 1, 1024, 128]}, {"dtype": "float32", "name": "SecondStageFeatureExtractor/InceptionV2/Mixed_5c/Branch_3/Conv2d_0b_1x1/Conv2D_bn_offset", "shape": [128]}, {"dtype": "float32", "name": "SecondStageFeatureExtractor/InceptionV2/Mixed_5c/Branch_1/Conv2d_0b_3x3/Conv2D_weights", "shape": [3, 3, 192, 320]}, {"dtype": "float32", "name": "SecondStageFeatureExtractor/InceptionV2/Mixed_5c/Branch_1/Conv2d_0b_3x3/Conv2D_bn_offset", "shape": [320]}, {"dtype": "float32", "name": "SecondStageFeatureExtractor/InceptionV2/Mixed_5c/Branch_2/Conv2d_0b_3x3/Conv2D_weights", "shape": [3, 3, 192, 224]}, {"dtype": "float32", "name": "SecondStageFeatureExtractor/InceptionV2/Mixed_5c/Branch_2/Conv2d_0b_3x3/Conv2D_bn_offset", "shape": [224]}, {"dtype": "float32", "name": "SecondStageFeatureExtractor/InceptionV2/Mixed_5c/Branch_2/Conv2d_0c_3x3/Conv2D_weights", "shape": [3, 3, 224, 224]}, {"dtype": "float32", "name": "SecondStageFeatureExtractor/InceptionV2/Mixed_5c/Branch_2/Conv2d_0c_3x3/Conv2D_bn_offset", "shape": [224]}, {"dtype": "int32", "name": "Preprocessor/map/while/add/y", "shape": []}, {"dtype": "int32", "name": "Preprocessor/map/while/ResizeToRange/strided_slice/stack", "shape": [1]}, {"dtype": "int32", "name": "Preprocessor/map/while/ResizeToRange/strided_slice/stack_1", "shape": [1]}, {"dtype": "int32", "name": "Preprocessor/map/while/ResizeToRange/strided_slice_1/stack_1", "shape": [1]}, {"dtype": "float32", "name": "Preprocessor/map/while/ResizeToRange/cond/resize_1/Cast", "shape": []}, {"dtype": "int32", "name": "Preprocessor/map/while/ResizeToRange/cond/resize_1/ExpandDims/dim", "shape": []}, {"dtype": "float32", "name": "Preprocessor/map/while/ResizeToRange/cond/resize_1/Cast_2", "shape": []}, {"dtype": "float32", "name": "Preprocessor/map/while/ResizeToRange/cond/resize/Cast", "shape": []}, {"dtype": "int32", "name": "Preprocessor/map/while/ResizeToRange/cond/resize/ExpandDims/dim", "shape": []}, {"dtype": "float32", "name": "Preprocessor/map/while/ResizeToRange/cond/resize/Cast_2", "shape": []}, {"dtype": "int32", "name": "FirstStageFeatureExtractor/InceptionV2/InceptionV2/Mixed_3b/concat/axis", "shape": []}, {"dtype": "int32", "name": "ConstantFolding/BatchMultiClassNonMaxSuppression/ones/packed_const_axis", "shape": []}, {"dtype": "int32", "name": "BatchMultiClassNonMaxSuppression/map/while/add_1/y", "shape": []}, {"dtype": "int32", "name": "BatchMultiClassNonMaxSuppression/map/while/PadOrClipBoxList/zeros_1/shape_as_tensor", "shape": [1]}, {"dtype": "int32", "name": "BatchMultiClassNonMaxSuppression/map/while/PadOrClipBoxList/zeros_1/Const", "shape": []}, {"dtype": "int32", "name": "BatchMultiClassNonMaxSuppression/map/while/PadOrClipBoxList/sub_2/x", "shape": []}, {"dtype": "int32", "name": "BatchMultiClassNonMaxSuppression/map/while/MultiClassNonMaxSuppression/Slice/begin", "shape": [2]}, {"dtype": "int32", "name": "BatchMultiClassNonMaxSuppression/map/while/stack_1/1", "shape": []}, {"dtype": "int32", "name": "BatchMultiClassNonMaxSuppression/map/while/Reshape_1/shape", "shape": [2]}, {"dtype": "int32", "name": "BatchMultiClassNonMaxSuppression/map/while/MultiClassNonMaxSuppression/strided_slice/stack", "shape": [1]}, {"dtype": "int32", "name": "BatchMultiClassNonMaxSuppression/map/while/MultiClassNonMaxSuppression/strided_slice/stack_1", "shape": [1]}, {"dtype": "int32", "name": "BatchMultiClassNonMaxSuppression/map/while/MultiClassNonMaxSuppression/Reshape/shape", "shape": [1]}, {"dtype": "int32", "name": "BatchMultiClassNonMaxSuppression/map/while/Slice/begin", "shape": [3]}, {"dtype": "int32", "name": "BatchMultiClassNonMaxSuppression/map/while/Reshape/shape", "shape": [3]}, {"dtype": "float32", "name": "BatchMultiClassNonMaxSuppression/map/while/MultiClassNonMaxSuppression/non_max_suppression_with_scores/iou_threshold", "shape": []}, {"dtype": "float32", "name": "BatchMultiClassNonMaxSuppression/map/while/MultiClassNonMaxSuppression/non_max_suppression_with_scores/score_threshold", "shape": []}, {"dtype": "float32", "name": "BatchMultiClassNonMaxSuppression/map/while/MultiClassNonMaxSuppression/mul/x", "shape": []}, {"dtype": "float32", "name": "BatchMultiClassNonMaxSuppression/map/while/MultiClassNonMaxSuppression/ones/Const", "shape": []}, {"dtype": "int32", "name": "BatchMultiClassNonMaxSuppression/map/while/PadOrClipBoxList/sub_1/y", "shape": []}, {"dtype": "int32", "name": "BatchMultiClassNonMaxSuppression/map/while/PadOrClipBoxList/zeros_1", "shape": [2]}, {"dtype": "int32", "name": "map/while/add/y", "shape": []}, {"dtype": "float32", "name": "map/while/ToNormalizedCoordinates/truediv/x", "shape": []}, {"dtype": "int32", "name": "map/while/strided_slice/stack", "shape": [1]}, {"dtype": "int32", "name": "map/while/strided_slice/stack_1", "shape": [1]}, {"dtype": "int32", "name": "map/while/strided_slice_1/stack_1", "shape": [1]}, {"dtype": "int32", "name": "map_2/while/add/y", "shape": []}, {"dtype": "int32", "name": "SecondStagePostprocessor/BatchMultiClassNonMaxSuppression/map/while/add_1/y", "shape": []}, {"dtype": "int32", "name": "SecondStagePostprocessor/BatchMultiClassNonMaxSuppression/map/while/PadOrClipBoxList/zeros_11/shape_as_tensor", "shape": [1]}, {"dtype": "int32", "name": "SecondStagePostprocessor/BatchMultiClassNonMaxSuppression/map/while/PadOrClipBoxList/zeros_11/Const", "shape": []}, {"dtype": "int32", "name": "SecondStagePostprocessor/BatchMultiClassNonMaxSuppression/map/while/PadOrClipBoxList/sub_19/x", "shape": []}, {"dtype": "float32", "name": "SecondStagePostprocessor/BatchMultiClassNonMaxSuppression/map/while/MultiClassNonMaxSuppression/add_1/y", "shape": []}, {"dtype": "int32", "name": "SecondStagePostprocessor/BatchMultiClassNonMaxSuppression/map/while/PadOrClipBoxList/strided_slice_18/stack", "shape": [1]}, {"dtype": "int32", "name": "SecondStagePostprocessor/BatchMultiClassNonMaxSuppression/map/while/PadOrClipBoxList/Select_9/e", "shape": []}, {"dtype": "int32", "name": "SecondStagePostprocessor/BatchMultiClassNonMaxSuppression/map/while/MultiClassNonMaxSuppression/ClipToWindow/Reshape/shape", "shape": [1]}, {"dtype": "int32", "name": "SecondStagePostprocessor/BatchMultiClassNonMaxSuppression/map/while/Slice/begin", "shape": [3]}, {"dtype": "int32", "name": "SecondStagePostprocessor/BatchMultiClassNonMaxSuppression/map/while/Reshape/shape", "shape": [3]}, {"dtype": "int32", "name": "SecondStagePostprocessor/BatchMultiClassNonMaxSuppression/map/while/MultiClassNonMaxSuppression/Slice/begin", "shape": [2]}, {"dtype": "int32", "name": "SecondStagePostprocessor/BatchMultiClassNonMaxSuppression/map/while/Reshape_1/shape", "shape": [2]}, {"dtype": "float32", "name": "SecondStagePostprocessor/BatchMultiClassNonMaxSuppression/map/while/MultiClassNonMaxSuppression/non_max_suppression_with_scores/iou_threshold", "shape": []}, {"dtype": "float32", "name": "SecondStagePostprocessor/BatchMultiClassNonMaxSuppression/map/while/MultiClassNonMaxSuppression/non_max_suppression_with_scores/score_threshold", "shape": []}, {"dtype": "float32", "name": "SecondStagePostprocessor/BatchMultiClassNonMaxSuppression/map/while/MultiClassNonMaxSuppression/mul/x", "shape": []}, {"dtype": "float32", "name": "SecondStagePostprocessor/BatchMultiClassNonMaxSuppression/map/while/MultiClassNonMaxSuppression/ones/Const", "shape": []}, {"dtype": "int32", "name": "SecondStagePostprocessor/BatchMultiClassNonMaxSuppression/map/while/PadOrClipBoxList/zeros_9/shape_as_tensor", "shape": [1]}, {"dtype": "int32", "name": "SecondStagePostprocessor/BatchMultiClassNonMaxSuppression/map/while/Reshape_4/shape", "shape": [2]}, {"dtype": "int32", "name": "SecondStagePostprocessor/BatchMultiClassNonMaxSuppression/map/while/PadOrClipBoxList/sub_15/y", "shape": []}, {"dtype": "int32", "name": "SecondStagePostprocessor/BatchMultiClassNonMaxSuppression/map/while/MultiClassNonMaxSuppression/ChangeCoordinateFrame/strided_slice/stack_1", "shape": [1]}, {"dtype": "int32", "name": "SecondStagePostprocessor/BatchMultiClassNonMaxSuppression/map/while/MultiClassNonMaxSuppression/ChangeCoordinateFrame/strided_slice_2/stack_1", "shape": [1]}, {"dtype": "int32", "name": "SecondStagePostprocessor/BatchMultiClassNonMaxSuppression/map/while/PadOrClipBoxList/sub_1/y", "shape": []}, {"dtype": "int32", "name": "SecondStagePostprocessor/BatchMultiClassNonMaxSuppression/map/while/PadOrClipBoxList/zeros_11", "shape": [1]}, {"dtype": "int32", "name": "SecondStagePostprocessor/BatchMultiClassNonMaxSuppression/map/while/PadOrClipBoxList/zeros_9", "shape": [2]}, {"dtype": "float32", "name": "ConstantFolding/SecondStagePostprocessor/map/while/ClipToWindow/unstack-folded-0", "shape": []}, {"dtype": "float32", "name": "ConstantFolding/SecondStagePostprocessor/map/while/ClipToWindow/unstack-folded-2", "shape": []}, {"dtype": "int32", "name": "SecondStagePostprocessor/map/while/add/y", "shape": []}, {"dtype": "int32", "name": "SecondStagePostprocessor/map/while/strided_slice/stack", "shape": [1]}, {"dtype": "int32", "name": "SecondStagePostprocessor/map/while/strided_slice/stack_1", "shape": [1]}, {"dtype": "int32", "name": "SecondStagePostprocessor/map/while/strided_slice_1/stack_1", "shape": [1]}, {"dtype": "int32", "name": "ConstantFolding/SecondStagePostprocessor/BatchMultiClassNonMaxSuppression/map/while/PadOrClipBoxList/Slice_5/size_const_axis", "shape": []}, {"dtype": "int32", "name": "ConstantFolding/SecondStagePostprocessor/BatchMultiClassNonMaxSuppression/map/while/PadOrClipBoxList/Slice_1/size_const_axis", "shape": []}, {"dtype": "int32", "name": "ConstantFolding/SecondStagePostprocessor/BatchMultiClassNonMaxSuppression/map/while/PadOrClipBoxList/stack_5/values_1_const_axis", "shape": []}, {"dtype": "int32", "name": "ConstantFolding/SecondStagePostprocessor/BatchMultiClassNonMaxSuppression/map/while/PadOrClipBoxList/stack_1/values_1_const_axis", "shape": []}]}], "userDefinedMetadata": {"signature": {"outputs": {"detection_scores:0": {"dtype": "DT_FLOAT", "tensorShape": {"dim": [{"size": "-1"}, {"size": "100"}]}, "name": "detection_scores:0"}, "detection_multiclass_scores:0": {"dtype": "DT_FLOAT", "tensorShape": {"dim": [{"size": "-1"}, {"size": "100"}, {"size": "2"}]}, "name": "detection_multiclass_scores:0"}, "raw_detection_scores:0": {"dtype": "DT_FLOAT", "tensorShape": {"dim": [{"size": "-1"}, {"size": "100"}, {"size": "2"}]}, "name": "raw_detection_scores:0"}, "num_detections:0": {"dtype": "DT_FLOAT", "tensorShape": {"dim": [{"size": "-1"}]}, "name": "num_detections:0"}, "detection_boxes:0": {"dtype": "DT_FLOAT", "tensorShape": {"dim": [{"size": "-1"}, {"size": "100"}, {"size": "4"}]}, "name": "detection_boxes:0"}, "raw_detection_boxes:0": {"dtype": "DT_FLOAT", "tensorShape": {"dim": [{"size": "-1"}, {"size": "100"}, {"size": "4"}]}, "name": "raw_detection_boxes:0"}, "detection_classes:0": {"dtype": "DT_FLOAT", "tensorShape": {"dim": [{"size": "-1"}, {"size": "100"}]}, "name": "detection_classes:0"}}, "inputs": {"image_tensor:0": {"dtype": "DT_UINT8", "tensorShape": {"dim": [{"size": "-1"}, {"size": "-1"}, {"size": "-1"}, {"size": "3"}]}, "name": "image_tensor:0"}}}}}